outputs/checkpoints/mappo_task_only.pt (torch, 481197 bytes, 17 tensors)

net.0.weight f4 [128, 44]
00000000: 6f52 b73b 68d9 f43e aca2 bb3d 55b1 dfbe
00000010: 52b4 2a3f dc22 053e d308 e33e 50b8 30bd
00000020: 5d0f 9bbe 836b 6bbe 3b4d a53b 1ca0 95be
00000030: 78e3 0f3e d905 65bd 3fbc a0bd 4d44 8abe
00000040: e5b6 e13d 9a4c dd3d 8f2b 67bc 10ad b8be
00000050: 2b4e bd3c 9ccc 96b9 4a1a df3d 126d b33d
00000060: ecb8 19be 58ba 723e 0bf8 0abd 3688 993e
00000070: 146d 4bbc f795 de3e 0180 dfbd 55c3 003f
00000080: 2978 06bd e600 bd3d c40e a2bb a2c4 21be
00000090: 7f21 d6bc 14c8 9cbe e19c 59be a2fe e9bd
000000a0: 0665 36bd 7a59 8a3c 2f92 573e f41f 0e3d
000000b0: 882d 61bf 9e47 3e3f ca04 e53c e85e b43e
000000c0: 313d 083f 1f99 3dbb b7c5 473e dad9 9dbb
000000d0: 7cb1 2fbe fe4d e5bd 9ca2 883e 36ec 78bc
000000e0: 91b0 073f 4423 7abe 7b6f 4f3e 5fbb 17be
000000f0: 42c9 b4bc 1b44 03bd 1618 85be b222 44be
00000100: 3852 41be b708 2dbe 29d7 ea3c eab6 d5bd
00000110: 622f a63d ac49 823c 109c 80be 6af7 8cbe
00000120: b037 58be 23f9 673d c938 e3bb 256c 873e
00000130: 804e a8bd d8d4 41bd d203 debd 0568 d03d
00000140: d3b4 313d ed73 3f3e 454e aa3d 0b07 b43d
00000150: bc38 9dbe 3824 86bb 32dc 7e3d f4c0 6b3e
00000160: 90bd 78be b457 39bf 97e0 293e 7cd9 d53d
00000170: 2e41 9fbf dfa5 c4bd 7b21 a63e eb33 42be
00000180: 8e97 1cbf 2f29 48bd 9108 0cbc e628 7e3d
00000190: a3ea 183e a5f8 56bd d1df 773e 92ad 97bd
000001a0: 2d6a 603e aa66 7f3e 76fd 0ebe 3e9d 41be
000001b0: 09de cc3b daa2 72bc 126c 543e 68d6 1a3e
000001c0: 9227 403e b8c1 82be 9fd5 2fbf 625d f2bd
000001d0: fee4 6fbd 67ae 6abd 62e6 593d 99b7 f73d
000001e0: a80a 8bbd 2868 4f3e 4ca5 c33d 5dd9 6ebd
000001f0: f5ab 9a3e 2f4c c2bd 00ef fe3e e38a 36be
00000200: e42a 3c3f 5930 6b3e 1640 3c3e c6a0 1c3e
00000210: 53f6 e6bd 9bc4 e0bd f6a5 63be 149e 37bd
00000220: 1785 a43f f6cd 2a3e f976 0abe d234 03be
00000230: 59d0 55bc 1587 1ebe bcd4 98bd 1b2d 523d
00000240: 361d f2bd 8679 88be 3456 92bd fb62 c73d
00000250: 806d 103e f29d cb3d 3de1 b23e 47d0 d53d
00000260: 79c0 e0bc 9a83 313d dc4b 2fbe 7210 2fbe
00000270: 90c9 50bd 01df 963e 0ab7 593e 23b1 f33c
00000280: a650 873c 673c 53bd d0fe 323d b8ef 1b3c
00000290: 6844 97bd 0d23 e83c ad4c 8ebc 3989 9abd
000002a0: f561 463e e2ba a0be cad0 733d 6428 16be
000002b0: 4d2b c5bd 2355 853d f395 e33d c517 8d3d
000002c0: f740 db3d 0006 7fbf 8c3a 4e3e 9681 0d3e
000002d0: b79b 79bf 7e76 6abe 81bc 22be 57e9 f8bd
000002e0: f1cc 4f3c 99d8 17be 6964 3cbd 4650 4d3e
000002f0: 5a68 403e 8024 ea3d 3f3c 8e3d 5109 9a3d
00000300: fe6d 9bbd 66c2 9bbe 4648 e3be ed41 993e
00000310: bafe 92bd e94b c03c 937e a03d df88 5c3d
00000320: 24f1 d3bb 97a6 51bd cec8 e6be 2757 833e
00000330: e275 9dbe 73b4 71bc 273c cebd a0b1 143e
00000340: b5f9 1b3e f7c5 0cbe 9fca 11ba a729 d2be
00000350: 80db 783e ecf0 57be fa55 a93e b90d 88be
00000360: 6ae3 cb3e ff42 1cbe 2c1d 03bd 093e 60bd
00000370: d5d0 f23e 7919 1c3f 0290 8abd 51d3 803f
00000380: c72e ab3d ef21 9b3d 3953 2d3e 41bf 833a
00000390: b43d 563d 8323 74bd c08c 9ebd ebda 3ebe
000003a0: f942 493c 3a50 8e3c 3583 2ebd 0535 40bd
000003b0: 69e3 68bd 611c 77be b537 c03d 20c6 623e
000003c0: 9986 663d 5eca 263e f835 9c3d 6880 ad3c
000003d0: 3c93 cf3c 35a8 513e e418 fa3e fca3 a23d
000003e0: 60cf 07be bc43 22bd de06 06bd 56ef 87be
000003f0: d379 643d 1a26 b93d 31b4 1d3b 041e e9bd
0.0055945436 0.47822118 0.091618866 -0.4368998 0.66681397 0.13001579 0.4434267 -0.043144524
-0.3028516 -0.22990231 0.005044607 -0.29223716 0.14051616 -0.05591378 -0.07848405 -0.27005234
0.110212125 0.10805626 -0.014109506 -0.36069536 0.023108562 -0.00028762675 0.10893686 0.08761038
-0.15011948 0.23703897 -0.03392796 0.29986733 -0.012416143 0.4347379 -0.10913087 0.50298053
-0.032829437 0.09228687 -0.004945608 -0.15797666 -0.026139019 -0.30621397 -0.21251251 -0.114255205
-0.044529937 0.016888369 0.21051858 0.03469844 -0.879601 0.7432803 0.027956385 0.35228658
0.5321837 -0.0028930379 0.19509016 -0.0048172297 -0.17157549 -0.111965165 0.2668656 -0.015193036
0.53003794 -0.24427515 0.2025737 -0.1481757 -0.022068623 -0.032047372 -0.2599494 -0.1915386
-0.1887902 -0.16897856 0.02866705 -0.10435279 0.08114506 0.01590427 -0.25119066 -0.27532512
-0.21114993 0.05663408 -0.0069342596 0.26449695 -0.08218098 -0.047322124 -0.108405724 0.1017609
0.043385338 0.18696566 0.0831571 0.08790406 -0.30707347 -0.004093673 0.062221713 0.23022825
-0.24291062 -0.7239945 0.1658958 0.104418725 -1.2441766 -0.0960195 0.3244742 -0.18965118
-0.61168754 -0.0488674 -0.008546964 0.062050723 0.14933257 -0.05248322 0.24206473 -0.07406153
0.21915503 0.24941507 -0.13963875 -0.1890764 0.0062520546 -0.014809335 0.2074435 0.15120852
0.18765095 -0.2553842 -0.68685335 -0.118342176 -0.058567993 -0.05729523 0.053198226 0.12095565
-0.06789142 0.20254576 0.09553012 -0.058312763 0.30209318 -0.09487187 0.49791718 -0.17826419
0.73502946 0.22967662 0.18383822 0.15295705 -0.11277451 -0.109749995 -0.22231278 -0.04482849
1.2853116 0.1668013 -0.13521947 -0.12813118 -0.013050162 -0.15481217 -0.07462451 0.051312547
-0.11821978 -0.26655215 -0.07145348 0.09735676 0.14104271 0.09942235 0.34937468 0.104401164
-0.027435528 0.043338396 -0.17118782 -0.17096117 -0.050973475 0.29467013 0.2126123 0.029747551
0.016517948 -0.051571276 0.04370004 0.009517603 -0.07386094 0.028337026 -0.017370546 -0.075457044
0.19373305 -0.3139258 0.05952529 -0.14663845 -0.096273996 0.06510379 0.11112585 0.06889299
0.107057504 -0.9961853 0.20139521 0.13818964 -0.97503227 -0.22896764 -0.15892221 -0.12153881
0.012683139 -0.14828719 -0.045994196 0.20050153 0.18789807 0.11432743 0.06945085 0.07521308
-0.07589339 -0.30421752 -0.44391078 0.2993311 -0.071774915 0.023473697 0.07836642 0.053841468
-0.006467955 -0.051184263 -0.45075077 0.2565243 -0.30754 -0.014752495 -0.10070067 0.14520884
0.15231974 -0.13747393 -0.0005561504 -0.41047403 0.24302483 -0.21087998 0.33073407 -0.2657297
0.3982194 -0.15259932 -0.032010242 -0.05474666 0.4742495 0.6097637 -0.067657486 1.0064489
0.083585314 0.07574832 0.16926278 0.0010051505 0.05230494 -0.05960418 -0.0774169 -0.18638198
0.012284034 0.01737224 -0.042605598 -0.046925563 -0.0568575 -0.2413192 0.09385625 0.22145891
0.056280706 0.16288134 0.07627481 0.021179393 0.025338762 0.20474322 0.48847115 0.07941434
-0.13262701 -0.039615378 -0.032721393 -0.26549786 0.055780243 0.090404704 0.0024063701 -0.11382678

net.0.bias f4 [128]
00000000: df48 903c 7412 8f3d a8ce 0d3e 0594 31be
00000010: d69a 273d 8b4a 83bd 85d2 96bd 575d 43be
00000020: ad16 cc3d e538 10be 0f0f 86bc d81b bd3c
00000030: 5bc0 123e 8697 283e fe52 6ebd c6ae 58bd
00000040: 28b8 eebd eeb0 a93d 2a85 38bd 3074 e73c
00000050: c81b 643e 9685 89bd 0234 b03d bc3d a73d
00000060: a105 0f3e 76e9 573d 4ca8 753d 0476 e53c
00000070: 598b 03be 3f60 9dbd c1dd c9bb db22 8fbd
00000080: ea8e 64bd e9dd b73d dcd1 6bbd 4523 43bc
00000090: 7e8e 2cbe 3004 84bd 44ba 933c 9021 e2bd
000000a0: e15d debd e58c 37bd 5aa4 6b3d e7db 03be
000000b0: 216e 20bd 8fb3 43bd bc0e 11be 7007 0dbd
000000c0: 039f 523c e619 073e 5901 b93c 7819 773d
000000d0: ec7a a0bc eb6f f5bd 4455 323d a9b6 a1bb
000000e0: b50a f33d b23e 9f3d 3853 783d b66f 67bd
000000f0: a7dd 7dbd 6f99 613c 908f c0bc 1ac5 b43d
00000100: 0ff3 2e3e abae cabd 0dd1 dd3c 2e55 04be
00000110: f133 c4ba f804 9a3d 6f41 a43d 28ad 0f3d
00000120: 535e b6bd da86 68bd 07a3 c2bb aac1 07be
00000130: c65d 0d3e 4099 1f3e e35f edbd 4b51 8cbb
00000140: bad3 0ebe 7840 433e 6090 563c 1b3f f0bd
00000150: 4752 b8bd 288d f83d ca7d acbb 0a95 1b3e
00000160: 350e 5dbd c912 223d a20c cb3d 761d 063d
00000170: 234d 513e cb56 74bd 4a0f aebb 9675 423e
00000180: 5f7a 18be 418c 293d 467b 973d cebe 563d
00000190: 5179 3dbc 3cff 01bd c558 1cbe e313 89bd
000001a0: cfdc c53c e3b7 f3bd dddf c0bd e9e4 fe3c
000001b0: affb 263d 2657 273d bd03 b9bd 1c78 f1bd
000001c0: c812 de3d a101 be3d f949 873d 753a 95bd
000001d0: ea75 ecbd aefb f4bd 369b 833d a332 273d
000001e0: dc26 e23d 5545 e4bd d8a3 8b3e 6938 12be
000001f0: c560 333c fee6 16bc 92bf d53d cf4c 56be
0.017612873 0.069859415 0.13848364 -0.17341621 0.040919147 -0.06410702 -0.07364372 -0.19078575
0.099652626 -0.14084204 -0.016364602 0.023084566 0.1433119 0.16464052 -0.058184616 -0.052901052
-0.11656219 0.082857 -0.04504887 0.028253645 0.22276223 -0.067149326 0.0860367 0.08166072
0.13966991 0.05271288 0.059974954 0.028010376 -0.12846126 -0.07684373 -0.0061604683 -0.0698907
-0.055800356 0.08977873 -0.057573184 -0.011910264 -0.16851231 -0.06446111 0.018033154 -0.11041558
-0.1085775 -0.044812102 0.057529785 -0.12876855 -0.039167527 -0.047778662 -0.14165777 -0.03443092
0.012855294 0.13193473 0.02258365 0.060327023 -0.019589864 -0.11984237 0.043538347 -0.004935105
0.118672766 0.0777563 0.06062624 -0.05650302 -0.061978962 0.013769492 -0.023505956 0.08826657
0.17084907 -0.098965965 0.027077222 -0.12923118 -0.0014969093 0.07520479 0.08020293 0.035077244
-0.0890471 -0.05676923 -0.0059398445 -0.1325747 0.13805303 0.15585804 -0.115905546 -0.004282152
-0.13947955 0.19067562 0.013095945 -0.117307864 -0.09000068 0.121362984 -0.0052640187 0.15193573
-0.053968627 0.039568696 0.09914519 0.03274294 0.20439582 -0.059653085 -0.005311881 0.18990168
-0.14890431 0.041393522 0.073965594 0.05242806 -0.011564569 -0.03173755 -0.15268238 -0.06693246
0.024153141 -0.11900308 -0.094176985 0.031115012 0.040767368 0.040854596 -0.09033916 -0.11790487
0.10843426 0.092776544 0.06605906 -0.072865404 -0.11545928 -0.119620666 0.064260885 0.040819775
0.11042568 -0.111460365 0.2727344 -0.14279331 0.010948365 -0.009210346 0.1043693 -0.20927738

net.2.weight f4 [128, 128]
00000000: 1385 4a3e 256d 36be bee6 563e 2ad3 3dbd
00000010: b1cb 8abd e4db a0be 8837 e13a 5855 35bd
00000020: 08ef 223e b5d8 aebc 5315 873b b557 513e
00000030: 64e6 9f3e 4b81 9c3d 09bb 933d cc08 98bc
00000040: cdba 2f3d 52ba 853e 9d5b 98be be03 fcbc
00000050: b8b5 863d 9266 87be e686 2abe f6e7 153e
00000060: e432 0fbe 936e e23e 8d38 5fbe 9de2 313e
00000070: 3eaa a23e a8f2 1ebe b11a 38bd 2ad4 3a3d
00000080: d5cd 1ebe 8722 34bd 8a34 32bc 6f4d b7bd
00000090: f78b 023e 954b 0dbe 9b66 8cbe 8673 c33d
000000a0: 11d5 92bd 99fa 11be ebc1 78be 02a0 c83e
000000b0: 476d 33be 87c3 a33e 0915 ebbe 0616 d5be
000000c0: 79fd 8e3e a439 3e3b 74bc b9bd 66f0 72be
000000d0: e0a2 043f 211b 1cbe 4ee1 6f3e 380b 32be
000000e0: bc2d 993d f2fb b0bd 50cc d63e 189f 493e
000000f0: 01ee 23be 2bdc 78bd 8938 263d 4a48 07be
00000100: 3652 bdbd 0f7c 8dbe 0b10 8d3d c402 503e
00000110: 68f3 973e 0fe4 723c 637d cebc 4d10 4c3f
00000120: 48e3 993e 1df9 423e 933c 1b3e 252b f5be
00000130: 9078 8fbd 10f4 a43e 16b1 f0be 021b bd3d
00000140: e78e e53e 636d f03d ab3b 323e e01a 2b3d
00000150: 647c 0dbe ab5a 083e 484e d2bd b94c fd3d
00000160: 0b00 8a3d 7097 fabd ef35 643e e94e 653d
00000170: 18ed 6a3e ec50 00bd dda5 f8bd e1e3 92be
00000180: 1421 d33e f170 ca3e 7728 91be 650e 433e
00000190: 8c96 e23d 35da 6f3d 913c b9be 3b57 09be
000001a0: d296 3b3e d86e f5bd ef1a 8a3e 5ccb 2b3d
000001b0: 9476 1b3e d5d3 853e 933f 0d3e 8781 8abc
000001c0: 5eca 15bc 9024 b83d 3a82 cc3e 202a 9bbe
000001d0: d5fd e63c 0ccb 6cbe 9f4e 5ebe 72f6 ca3d
000001e0: d054 c83c 5185 c7bd e437 463e e540 823d
000001f0: 5868 c73e 35be a33d 48a0 a5be f7e0 b33e
00000200: 3ac8 9b3e bd75 a63e 7104 eabe 93cd c03e
00000210: 2b22 05bf 9c92 ac3e ec75 c63e 7bff a0bd
00000220: aaca 19be b4f9 5fbd a4d1 603e 17a1 4abd
00000230: b83a 8bbe a4ff 753e 8d6b 833c f5cc e9be
00000240: 7055 843d a6d8 4c3e 6748 b23e 2cd5 ba3e
00000250: 40e9 c93e 2962 b0bd 264c 46bd 4530 b23e
00000260: 37cf 2dbe 9c67 26bd 3732 86be daf9 e93d
00000270: 0cf1 b6be c876 38bc bb2b 91be 55ed e63e
00000280: 3c4d 023f 0697 103e d9b2 153f 9c31 30be
00000290: d60b 713d 1d69 fcbd 26ae 423e e580 ff3c
000002a0: 50e1 c13b f68e 953e bb98 4c3e f0d4 37be
000002b0: ae5c f5bc 22ef 8cbc 0232 0e3e b7ad d63e
000002c0: 37ab 85bd 0683 153d dc74 12be 882b 413c
000002d0: 4a73 acbe 0659 fcbd a4bb 6fbe d82c 71be
000002e0: 3c54 533e ac54 b1bd 3b21 11be a2d0 83be
000002f0: b5b2 7b3e f8ad 48be 2381 a13e fcde 95be
00000300: df9b f1bd a9a8 e1bd a1af f13d d6fa 893e
00000310: 805d d73d 9624 bfbd 56e0 d8be 5b12 10be
00000320: 61d2 c53e 25c2 e93e 764e 2cbe fb4c 143e
00000330: 6e7d 4bbe 6adc 36be d6b6 b73d 2c46 3fbe
00000340: 3c9c 923e 64b5 8c3e 68ce 40be 4c4e c53d
00000350: f600 aebe 4823 5ebf 50aa 51be 03af ee3d
00000360: a7d6 d63a e7ad 213c e9dc eabe 67ce a2bd
00000370: 822f 1fbf e2d6 c03d 1f6b 423e 1009 b23e
00000380: db90 b73b c4b8 8d3d 81ad d4bd 87c3 aabd
00000390: 49a5 173e 9ff0 e13d d1a3 7dbe c78e 903e
000003a0: 5e1b bcbe 0284 d73e 4702 d5bd 517e f239
000003b0: 2fc2 263e 432c 1c3e c343 a73e 9915 dabd
000003c0: a26b 1abd f641 cf3b 63f1 043d 5fc0 313e
000003d0: 3830 afbe 37f4 25be 54d3 cc3d 579b e9be
000003e0: 41c0 cdbd 3d69 d4be c5c3 aa3e 3635 f63e
000003f0: 2d0a 54be 12a7 82be 8942 513e 2484 5b3e
0.19777326 -0.17815073 0.20986459 -0.04634396 -0.06777132 -0.31417763 0.0017182687 -0.044270843
0.15911496 -0.021343568 0.004122415 0.20443614 0.31230462 0.07641848 0.072134085 -0.018558882
0.042902756 0.26118714 -0.29757395 -0.030763503 0.06577629 -0.26445442 -0.16653022 0.14639267
-0.13984257 0.44224986 -0.21798916 0.17371602 0.3177051 -0.15522254 -0.04494733 0.04561249
-0.15508206 -0.04397824 -0.010876784 -0.08950316 0.12748705 -0.13798364 -0.27422032 0.09543519
-0.071695454 -0.14255752 -0.24292724 0.39184576 -0.17522155 0.31985113 -0.45914486 -0.41618365
0.2792776 0.0029026056 -0.09069148 -0.23724517 0.5181103 -0.15244724 0.2342579 -0.17387092
0.07479426 -0.08641805 0.41952753 0.19689596 -0.1600876 -0.060756844 0.04058126 -0.1321117
-0.09244196 -0.27633712 0.068878256 0.20313555 0.29677892 0.014824881 -0.025206273 0.79712373
0.30056214 0.19040342 0.15159826 -0.4788448 -0.07005417 0.32217455 -0.47010106 0.09233667
0.44835588 0.11739614 0.17405574 0.041773677 -0.13816983 0.13315837 -0.10268837 0.12368149
0.067382894 -0.12235916 0.22286199 0.055983458 0.22942007 -0.031327173 -0.12141011 -0.28689483
0.41236174 0.39539292 -0.28351185 0.1904846 0.11063871 0.058557708 -0.3617902 -0.13412182
0.18319252 -0.119840324 0.26973674 0.041941985 0.15181953 0.26138178 0.13793783 -0.016907467
-0.009142486 0.08991349 0.39943105 -0.30305576 0.028197208 -0.23124331 -0.21709679 0.09910287
0.024454504 -0.09742225 0.19357258 0.06360034 0.38946795 0.079952635 -0.32348847 0.35132572
0.30426198 0.32511702 -0.45706514 0.3765684 -0.5200526 0.33705604 0.38761842 -0.07861229
-0.15018716 -0.054681495 0.21954972 -0.049470033 -0.27193236 0.240233 0.016042495 -0.45664182
0.064616084 0.2000452 0.34820864 0.36490762 0.39435768 -0.086124726 -0.048412465 0.34802452
-0.16973577 -0.040626153 -0.26210186 0.114246085 -0.3573078 -0.011258788 -0.28353676 0.45102945
0.508991 0.14120111 0.58476025 -0.17206424 0.05884918 -0.12324736 0.19011745 0.031189391
0.005916752 0.29210633 0.19980137 -0.17952323 -0.02995142 -0.017203871 0.13886264 0.4192941
-0.06526797 0.036501907 -0.14302391 0.011790164 -0.3368171 -0.123216674 -0.23411423 -0.23552263
0.20637602 -0.08658728 -0.14172833 -0.25745112 0.2457989 -0.19597614 0.31543836 -0.29271686
-0.11797308 -0.110184975 0.11801077 0.26949185 0.105158806 -0.0933315 -0.42358655 -0.14069502
0.3863707 0.45655933 -0.16826805 0.1448249 -0.19872066 -0.17857519 0.0897042 -0.18679112
0.28634822 0.2748214 -0.18828738 0.096340746 -0.33985108 -0.86772585 -0.20475125 0.116544746
0.0016390876 0.009868122 -0.45871666 -0.079495244 -0.62181866 0.09415986 0.18986176 0.3477254
0.005601985 0.06920007 -0.10384656 -0.08338075 0.14809145 0.11032223 -0.24769522 0.2823393
-0.3673963 0.420929 -0.10400825 0.0004625195 0.16285013 0.1525126 0.32668886 -0.10648651
-0.037700303 0.006325002 0.032456767 0.1735854 -0.34216475 -0.16206442 0.10001245 -0.45626327
-0.10046435 -0.4148654 0.33352485 0.48087472 -0.20707007 -0.2551809 0.20435537 0.21437126

net.2.bias f4 [128]
00000000: 824b 56bd 779e 85be 2078 613d e2d6 21bd
00000010: 131a b03e 053f 50be 7847 a13d 9022 8c3e
00000020: 2be6 27be fea6 77be a620 afbe 4950 ce3e
00000030: a2ca 4ebe 411e 8f3d e499 303e b313 cdbd
00000040: dc98 ad3e 6c21 1b3c ab17 bebd 5ca9 12bd
00000050: 24b2 14be baf6 b4bd e640 01be 49dc 16bd
00000060: fed0 72bd 9f65 d83e 27c6 a53c b365 103d
00000070: 8892 55bd 3ae3 8d3d b01a b4bb 8f1b 103e
00000080: 21fe a53d cef7 6fbc 65e9 19be 93b6 2dbe
00000090: feae 8ebe b142 9d3e bc68 70be fbd2 f3bd
000000a0: c791 b4be 12f6 fcbd 1b1c 663d 12b1 10be
000000b0: edb3 67be 005d a5be 1105 963e 8bd3 81bd
000000c0: 828e 56be 34e1 7a3e f75b 3c3e 3956 51be
000000d0: 8dde 9f3e 3ccb 63be 567f 8fbe bedc 1b3e
000000e0: 006b 883e 274d 3dbd 144e 6dbd 78fd 3c3e
000000f0: 1dae 3c3d 1391 b23e bde2 303e 201d 28be
00000100: 75fb a23e 1812 4f3e 17ad 353e be65 f93d
00000110: 373d 37be 1a7e 3dbe 6c20 8e3e b5ac 74bd
00000120: 3602 ebbd 0921 893e 5610 b1be 693c b5be
00000130: 7357 51be 7d47 d9be a8fc 0a3d 45c5 49be
00000140: 652c 363e ebdf c6bd ad89 303e b1b7 283d
00000150: 7928 593e 6ed3 e13c 863b 57bc 2a6f 943e
00000160: 10be 01be 4c96 97be e314 363e 9af7 63bc
00000170: 4cab 883e f8c2 5c3e b9ae b33c 9e3b 0b3e
00000180: a289 babe fa81 e23d be90 4e3e ece0 1a3e
00000190: edfe 6abe 67a1 883e 2380 6b3e e292 213d
000001a0: 0d71 9abe 2dbf 5cbe 7498 adbd 1167 753d
000001b0: 1780 913e 4990 853e c303 543e ba1c 9abe
000001c0: 1015 863e c596 aebe 16c1 d43c b786 893e
000001d0: 6046 d63d 972a 17bd ee27 b2bd f568 9dbc
000001e0: 453b e9be c31d 9e3e 17bd a33d 92ff 303e
000001f0: 0bdc 083e 5d62 e63d ef39 153e 2587 2e3c
-0.052318104 -0.26097462 0.0550462 -0.03951157 0.34394893 -0.2033654 0.0787496 0.2737012
-0.16396396 -0.24184796 -0.34204596 0.40295628 -0.20194486 0.06988192 0.17246205 -0.10013523
0.33905685 0.009468418 -0.09281858 -0.035806045 -0.1452108 -0.08836122 -0.12622413 -0.036831174
-0.05928134 0.4226503 0.020236088 0.035253238 -0.052141696 0.06928106 -0.0054963455 0.14073013
0.08105112 -0.014646484 -0.15030439 -0.16964178 -0.27867883 0.30714944 -0.23477453 -0.11905476
-0.3526747 -0.12351622 0.056179147 -0.14130047 -0.2262723 -0.32297516 0.2930074 -0.06339177
-0.209528 0.2449997 0.18394457 -0.20443048 0.3122448 -0.22245497 -0.28026837 0.15220925
0.26644135 -0.046216156 -0.05793579 0.18456066 0.046064485 0.34876308 0.17273994 -0.1641736
0.3183247 0.20221746 0.1774181 0.12177609 -0.17894445 -0.18505135 0.2775911 -0.05973502
-0.11475031 0.26783016 -0.34582776 -0.35397652 -0.20443515 -0.42437354 0.033932358 -0.19704159
0.17790373 -0.09710678 0.17240019 0.041190807 0.21206845 0.027566638 -0.01313675 0.2899106
-0.1267016 -0.29606855 0.17781405 -0.013914013 0.2669319 0.2155875 0.0219339 0.13596961
-0.3643313 0.11059947 0.20172402 0.15124863 -0.22948809 0.2668564 0.22998099 0.03944672
-0.30164376 -0.21557303 -0.08476344 0.059912745 0.28418037 0.26086643 0.2070456 -0.30100042
0.26187944 -0.34099403 0.025970977 0.26860592 0.10462642 -0.03690585 -0.08699022 -0.019215086
-0.45553032 0.3088208 0.079950504 0.17284992 0.1336519 0.1124923 0.14572881 0.010652338

head_task.weight f4 [11, 128]
00000000: c784 853e 394d 53bd 391b 943e 98f0 debe
00000010: b675 143e 4679 0c3f 09f9 ef3e f2cc f2bd
00000020: f065 7fbd 1906 743e c5cc 893e 62b6 99bf
00000030: 07cb 613e e4a5 ec3d de9e 95be 3cb3 b13d
00000040: 1095 823d e846 f93d d2bd b03d 264e 603d
00000050: c64e ab3d 4623 b93d aba2 4fbe b679 663e
00000060: b37f c4bc f674 ea3d 9e80 28be f5ba 823e
00000070: 2ad8 9c3c 58d7 e6bc d200 f53c c837 353e
00000080: dc3c 0fbe 5d82 2f3c 9606 87be 640d 44bd
00000090: f789 c3be 5611 a2bd 0e47 86bd 7ac3 72be
000000a0: 3dd1 833c f127 cb3e 2027 cb3b c58b b5be
000000b0: 2ad5 953e 5a9c c23e 7baa 66bd 5347 c43e
000000c0: a5de 90be 35ad 22be 77dd 753c 7623 8c3e
000000d0: 445f b23c 220c e93e 763b 163e e8de 2fbd
000000e0: 03f9 af3d 0a38 2c3d fcf6 ccbb 5c54 f53c
000000f0: 35a6 93bd c4a4 83be f2b8 103f cb71 52be
00000100: 4e1a 07bf da00 4c3e 83de 27be 4389 eabd
00000110: 3ab5 ce3b f20a 76be 8327 1fbe 66f4 98bd
00000120: c2a8 2fbe 4b95 2a3e 0d63 01be eab6 703e
00000130: 1bc7 2e3d f635 9bbd 0840 813d 8cae 98be
00000140: a12e 1bbe fd04 d8bd d763 a9bd 0379 423c
00000150: 8b96 34bd bc48 f8bc 801b 793b 65a6 6c3d
00000160: ab65 c23e 8e77 09be 2cd8 313e 3559 353b
00000170: 6a24 c33b 38e2 8d3e 0236 17be ae18 a8be
00000180: 837b 2dbd 5761 293e bb2f adbe 2364 7a3b
00000190: 66c6 563d 7c0e f83d a304 353d e7a0 713d
000001a0: a86e cabd 05fb 03be 8f74 e93e eee5 913e
000001b0: 335b a8be 6cf5 523e 6a4e eebe 61c0 e03e
000001c0: a690 bb3d f925 e83d 0813 083f eb95 92be
000001d0: 1bcf 2dbe 01b2 053e c35f b73d e132 b9be
000001e0: b0e4 103f dbcb 7ebe f170 a6be b689 50bd
000001f0: 8990 043e 4c1f b0bd f792 05be 929f 693d
00000200: 4c0f 4d3c e194 d5bd 49c9 4fbe b33b 80be
00000210: e855 613c 4ce3 89bc 1283 183e d826 40bd
00000220: c75e 58be 7670 cb3b 76cf 943e d2a9 153e
00000230: c3c8 9e3d f8ac 0cbf 7f2b d3bc f4f6 933e
00000240: e60f 1c3e a6f3 323e 6b84 92bd 407b 4abe
00000250: d3c1 7a3e cef1 7bbe b943 cebd 6d7c 853d
00000260: 88c3 a5bd 8c69 ac3d f3ac 96be 2ce2 e13e
00000270: 2744 4a3b f00b c83b db98 9e3e 7436 ae3d
00000280: bef4 d4bd ba62 8c3e 84b5 85be 1835 a2bd
00000290: 26f5 283e a684 163e 001d 91bd 917d d93a
000002a0: dd25 46bd e1b0 8fbd d04a 2abb 9a8d 1fbe
000002b0: 62ee 5abe 47fe 573e c2a6 ef3c 17c1 193d
000002c0: f40b 28be 0544 aa3d ac28 acbe 509a c13c
000002d0: 48d8 b4bc 946b 893e a7bb 843d 56bf 2cbe
000002e0: 7805 3f3c 197b 9ebc 19fd 4bbd 1a0b cb3d
000002f0: a74d 2cbe 0801 93be 8a06 6c3e b42f 913d
00000300: f209 babe b11a cfbd 0bd7 8fbe 8147 c13e
00000310: 7474 63bd 51d3 9ebe fb52 c9bd e6c9 08be
00000320: 5e54 2fbb ea65 dd3e 1a48 c2bd cf4c 773e
00000330: 51c5 9d3e c6c3 4dbe 97cf e13d 489a 2e3e
00000340: bf14 383e 7c9d 68be 8a70 07be 35ce 77bb
00000350: a73d b7be 151a cc3d e889 603d 2157 db3d
00000360: 9724 e63d 7913 123e 8e75 30bd 18a8 b0bc
00000370: 8229 923e aa97 24be 8e6a 80be 38eb 91be
00000380: e373 df3d ca57 b4bc ea44 e7be b502 88be
00000390: f197 abbc 6735 66be 2998 9abc 7083 843e
000003a0: bd89 3ebc 4e60 5bbe a03d 013d ee18 733e
000003b0: 330a 2fbe 90b4 63bd 74ca 273d f67a c9bd
000003c0: 3ca1 aa3d d01f 833d 7cc9 293e d821 a7be
000003d0: 16ae 91bd cac1 c03e ff5d 353c 7874 853c
000003e0: c6f0 ae3d 233c 4ebf 6da1 dbbe 5d1b 0dbe
000003f0: dd9f 92be 4346 1bbd 9dbb 43be 8df0 ab3c
0.26077864 -0.051587317 0.2892702 -0.43542933 0.14498028 0.5487255 0.46869686 -0.118554965
-0.062353075 0.23830451 0.2691404 -1.2008784 0.22050105 0.115550786 -0.2922277 0.08676764
0.06376088 0.121717274 0.08629955 0.05476203 0.08364634 0.09039931 -0.20276897 0.22507367
-0.023986673 0.1144809 -0.16455314 0.25533262 0.019146044 -0.028178856 0.029907618 0.1769706
-0.1398806 0.010712233 -0.26372212 -0.047864333 -0.38191196 -0.07913463 -0.06556521 -0.23707381
0.016090984 0.3967891 0.0061997324 -0.35458198 0.29264194 0.38009912 -0.056314927 0.38335666
-0.28294864 -0.15886386 0.015006415 0.27370805 0.021773942 0.4551707 0.1467112 -0.04293719
0.08592417 0.04204563 -0.006255029 0.029947452 -0.07209436 -0.25711644 0.56532204 -0.20551221
-0.5277451 0.199222 -0.16393475 -0.11451962 0.006308225 -0.24027613 -0.15542416 -0.0746849
-0.1715422 0.16658513 -0.12635441 0.23507276 0.04267035 -0.075786516 0.06311041 -0.2982067
-0.15154506 -0.105478264 -0.08270996 0.011869672 -0.04408888 -0.03030812 0.0038010776 0.057775874
0.37968192 -0.13424513 0.1736762 0.002767158 0.0059552686 0.27711654 -0.14766696 -0.3283133
-0.042354118 0.16541038 -0.33825478 0.0038206659 0.0524353 0.12112138 0.044193875 0.05899134
-0.09884387 -0.12888725 0.4559674 0.28495735 -0.3288208 0.20601434 -0.465442 0.43896773
0.09158449 0.11335368 0.5315404 -0.28630003 -0.16973536 0.13056184 0.08953812 -0.3617163
0.5659895 -0.24882452 -0.32508042 -0.05091258 0.12945761 -0.085997194 -0.13044344 0.057036944
0.012515854 -0.10428787 -0.20291628 -0.25045547 0.013753392 -0.016832016 0.1489375 -0.046912044
-0.21129905 0.0062084747 0.2906453 0.14615563 0.07753136 -0.5495143 -0.025777576 0.28899348
0.1524044 0.17475757 -0.07154163 -0.19773579 0.24488 -0.2460396 -0.10071511 0.06517873
-0.08093935 0.08418569 -0.29428825 0.44117868 0.0030863376 0.0061049387 0.30975994 0.0850648
-0.10398243 0.27419072 -0.26115048 -0.07920283 0.16499767 0.14699039 -0.070856094 0.0016593208
-0.048375953 -0.07016159 -0.0025984533 -0.1558136 -0.21379998 0.21093093 0.029254321 0.03753766
-0.1641081 0.08313755 -0.3362478 0.023633152 -0.022075787 0.26839888 0.06481104 -0.16869864
0.011659019 -0.019345807 -0.04980192 0.09914227 -0.16826497 -0.28711724 0.2304937 0.07089177
-0.36335713 -0.10112513 -0.28093752 0.37749866 -0.05553098 -0.31020597 -0.098302804 -0.13358268
-0.0026753168 0.43241817 -0.094864085 0.24150394 0.30814603 -0.20094213 0.11025923 0.17051041
0.17976664 -0.22716326 -0.13226524 -0.0037812118 -0.35789225 0.09965912 0.054819018 0.10709978
0.11237448 0.1426524 -0.04308086 -0.021564528 0.28547293 -0.1607348 -0.25081295 -0.2849977
0.109107755 -0.022014517 -0.45169765 -0.26564565 -0.020946475 -0.22481309 -0.018871384 0.2588153
-0.011629519 -0.21423456 0.03155291 0.23739979 -0.17093734 -0.05559212 0.04096456 -0.09837906
0.08331534 0.06402552 0.16580766 -0.32643008 -0.071132824 0.3764785 0.011069774 0.016290888
0.08542018 -0.8056051 -0.42896596 -0.1377997 -0.2863759 -0.037908804 -0.19114538 0.020988727

head_task.bias f4 [11]
00000000: f18d c63d 616c a03c 422b f33d 0e36 023e
00000010: 3017 ef3d 100e 8dbd 458e 343d 2c79 0a3e
00000020: 74af 113e 023d 7bbd 27a2 f23d
0.09695042 0.01958293 0.11873485 0.12715933 0.116743445 -0.06887448 0.04408099 0.13522786
0.14227086 -0.06133748 0.11847334

head_move.weight f4 [8, 128]
00000000: cf33 a53e d5b5 6e3e f325 aa3e fe3a 04bf
00000010: ca6f e5bd 7125 253f d2b7 7c3e c663 4fbe
00000020: 19cc efbc a8b8 4f3e 7883 f43d 2df0 abbf
00000030: ea91 953e b23b 9a3e 0964 a3be 140f 043c
00000040: 5399 29be fa87 edbd 520c ffbd fc64 aa3e
00000050: 8e1b 143e 9970 953d 2e02 243e d42f 6d3e
00000060: cf7b 9dbc b882 afbd 9363 2ebe fd80 3d3d
00000070: c0a0 95bc 3165 323c 31ee 1e3c f891 9e3e
00000080: 6da2 da3d a57b 80bc dbc2 edbd 5472 febc
00000090: 1623 f6be 2710 d7bd e207 e3bd 9c27 c4bd
000000a0: bfde 753e c551 8d3e f4b1 0d3d d1d2 b3be
000000b0: 4611 f63e b6c7 0d3f 0520 88be 683e da3e
000000c0: 7716 84bd 4b95 88be 94bc 663e ed98 9b3e
000000d0: ff61 3e3c 328b 973e 4a0c 273e 3f01 33be
000000e0: bc31 343c 400a 0d3d 840f fbbd c3b9 2bbd
000000f0: d25a 1f3d b2e7 64be 8b00 b83e 6a04 11be
00000100: ad49 d6be df98 64bd 6182 29bc 237a b4be
00000110: 4c8e f03d e614 45bd 28f5 8f3d ef82 8ebd
00000120: 789d c2bd 3c6a 1fbe 580f 463e aa5d 263e
00000130: da63 0b3e b31d 313e 3824 ddbd 3ca9 16be
00000140: 124f 4fbe 0c39 4b3d 84a2 49bb 226b 913d
00000150: 1b73 cc3d 88a6 f5bd 9395 c93d c437 8ebd
00000160: 11bf 553e 3495 86bd b4d7 343d 3920 1d3c
00000170: ddac a4bd 823a ae3e 7744 b2bd 9286 acbd
00000180: 80c8 9cbd 1e22 8a3d 6f12 2fbe b442 923d
00000190: 7cf7 413e 22bb 13bd 04a9 26be 754d 963d
000001a0: b7c6 e8bc 2e56 89bd a601 b63e 5150 86bb
000001b0: 077e dabe f7bb 263e 697d 0fbf 9b02 2c3f
000001c0: a2cf 04be c580 263e 5fd6 9b3e 3f62 55bb
000001d0: 93ea 12bd b101 6ebe d74f cb3c f943 febe
000001e0: 0b15 363f c620 94bd 515f 4ebc 0f06 653c
000001f0: 47be b43e 9af8 463c ccef 9ebd 8f1e 603d
00000200: d86f de3c 0541 793d 7910 ab3d 30ed 1a3d
00000210: d6d0 abbc 1204 bbbd a00a f83d 8df9 abbe
00000220: 517f 80be 6821 ee3c 64fd 2e3d d2e3 d93d
00000230: df6e 29bc 0502 46be 4913 d43c b490 83bc
00000240: fbd0 e23e 3c19 49bd 2568 1c3e 8e2c 493d
00000250: 3706 153d 5738 423e cf61 b93d b96e 083e
00000260: d2f8 94be 7551 8abe a775 97bd 2f13 a63b
00000270: ea32 1b3e 9aca 5dbd 243f ac3c 283a 7d39
00000280: 01c8 1a3e 27f2 3bbd 5c1f c03c 076a b7bd
00000290: 4731 1fbd 50e2 8c3d 2da5 23bf 531c 883d
000002a0: 535c c6be 5207 aabc 1134 20bd 049b b43d
000002b0: 84af 303d a61d 67bd b941 cebb 0361 823d
000002c0: 6ba7 babd 2fad 963e 3980 863d 646c b8be
000002d0: 8d88 fabe 8f3f 59bd e85f 46be 486c 67be
000002e0: 2bee aa3e 2293 0bbe 31ce 4cbc efa1 3c3e
000002f0: 9631 653d 539d 1e3b c21e 27be 98b9 6dbe
00000300: 3575 fcbd e6a3 00bc 9ea4 bd3c 6093 e53c
00000310: 42a1 ba3e 075a 03be d00f 223e 20a8 803d
00000320: 50e4 f33d 0fe6 4fbd c5d1 9fbe 72f4 debd
00000330: b701 8ebe ba4d 8cbd 73fb 71bd 1b39 5dbd
00000340: 5422 4dbc 662d d03e 5daf 95be f5c5 abbb
00000350: ec10 57be 770e 7c3e 7f8e bdbe 559e 7b3d
00000360: 1167 90bc 2ca9 cdbd e1ce d1be 82ed b63d
00000370: 6761 b6be 9ae7 693c 2830 513e 5a82 023b
00000380: 2e06 83be bf2b a0be 4ea1 62bd a4d5 b43c
00000390: 177b 35be a9d0 adbd 8d49 aa3e e7d5 68bd
000003a0: 9e2a 803e cd4f 96bc 69e5 8bbd f16c 1ebd
000003b0: 9100 a43d fd62 473d 3208 473e a837 51bd
000003c0: edbd 103c 89aa 17bc a763 a8bd 06a8 7fbb
000003d0: 9f28 853d d498 933d e15f 0c3d e559 963c
000003e0: bb50 dbbd f4c8 06be 8be6 4cbd dff4 5a3b
000003f0: 62d0 7bbe 61e6 1e3e b79a fcbd 7b5b 17be
0.3226609 0.23311551 0.33232078 -0.51652515 -0.11202963 0.64510256 0.24679497 -0.20252904
-0.029272126 0.20285285 0.11939138 -1.3432671 0.29212886 0.3012367 -0.31912258 0.0080602355
-0.16562395 -0.11598201 -0.12453522 0.3328017 0.14463636 0.07296867 0.16016456 0.23162776
-0.019224076 -0.085698545 -0.17030172 0.04626559 -0.018265128 0.010888384 0.009700344 0.3097074
0.106755115 -0.015683958 -0.11609431 -0.031060375 -0.48073643 -0.10501128 -0.11085488 -0.095778674
0.24010752 0.27601448 0.034593537 -0.35121778 0.48060054 0.5538286 -0.2658693 0.42625737
-0.06449597 -0.26676401 0.22532874 0.3039011 0.011620044 0.29598385 0.16313282 -0.17480944
0.010998186 0.034433603 -0.12258819 -0.041925203 0.038904972 -0.2235401 0.35937914 -0.1416184
-0.41853085 -0.05580985 -0.010346026 -0.35249433 0.11745891 -0.048115633 0.07029182 -0.06958567
-0.09502691 -0.15567869 0.1934179 0.16246668 0.13612309 0.17296486 -0.10797924 -0.14712995
-0.20245007 0.04961495 -0.0030767033 0.07100512 0.09982892 -0.11994654 0.09842982 -0.0694423
0.20873667 -0.06571427 0.044151023 0.009590202 -0.080407836 0.34029013 -0.08704465 -0.08424105
-0.0765543 0.067447886 -0.17096876 0.07141629 0.18942064 -0.036067136 -0.16275412 0.073389925
-0.028415067 -0.067058906 0.35548133 -0.00409893 -0.42674276 0.1628264 -0.56050736 0.67191476
-0.1296983 0.16260059 0.3043699 -0.003255978 -0.03586824 -0.23242833 0.024818344 -0.49661234
0.7112586 -0.072328135 -0.012595967 0.013978495 0.3530142 0.012144232 -0.077605814 0.054716643
0.02715294 0.060853023 0.08352751 0.037823856 -0.020973604 -0.09131636 0.121114016 -0.3358883
-0.25097135 0.029068664 0.04272212 0.106391564 -0.010341375 -0.19336708 0.025888102 -0.01606021
0.44300064 -0.04909633 0.15274103 0.049114756 0.03638288 0.18966804 0.09051859 0.13323487
-0.29096085 -0.27015272 -0.07395487 0.005068205 0.15156141 -0.054148294 0.021026202 0.00024149625
0.15115358 -0.04588523 0.023452453 -0.0895577 -0.038865354 0.06879103 -0.63923913 0.066460274
-0.38742313 -0.020755444 -0.039112154 0.088186294 0.043136135 -0.05642476 -0.006294456 0.0636616
-0.09113964 0.29429004 0.06567425 -0.36020195 -0.48932305 -0.05303913 -0.19372523 -0.225999
0.33384833 -0.13630345 -0.012500332 0.18421148 0.055955492 0.002420266 -0.16320327 -0.2321533
-0.12327043 -0.007851576 0.023149785 0.028024375 0.36451155 -0.12827311 0.15826344 0.06282067
0.119087815 -0.05075651 -0.3121473 -0.10886468 -0.27735683 -0.06850763 -0.05907769 -0.05400954
-0.0125203915 0.40659636 -0.29235354 -0.005242104 -0.21002549 0.24614893 -0.37022778 0.061430294
-0.01762727 -0.100420326 -0.4097815 0.0893202 -0.35621187 0.0142764095 0.20428526 0.0019914121
-0.25590652 -0.31283376 -0.055329613 0.022074528 -0.17722736 -0.084870644 0.3325924 -0.05684462
0.25032514 -0.018348599 -0.06830866 -0.038678113 0.080079205 0.048678387 0.1943672 -0.05107847
0.008834344 -0.009256967 -0.08222132 -0.0039010062 0.065018885 0.07206884 0.034271125 0.018353412
-0.107087575 -0.13162595 -0.05002455 0.0033410115 -0.2459121 0.1551757 -0.12334197 -0.14780991

head_move.bias f4 [8]
00000000: ad91 bebe 5a8e 033e 40e4 0dbc e6c1 fa3d
00000010: 2b62 263e 3b42 a2bf 5e8f 9ebf f560 96bf
-0.37220517 0.12847272 -0.008660376 0.122440144 0.16248386 -1.2676462 -1.2387502 -1.1748339

head_comm.weight f4 [8, 128]
00000000: 85a7 1ebe f19b 1abe 1c06 8d3e c9e4 833d
00000010: 538e d23d 98a5 1dbd e296 2a3e 6354 a6be
00000020: f409 a7be af3c 81bd cc65 89bd bb17 5b3e
00000030: 9def 31bd 4de5 f3bd 9a55 dbbd aed2 debd
00000040: b935 483e d762 cc3e 889d 463e 1e19 d6bd
00000050: da6a 033e 0443 9e3e add5 0bbe 7259 7abe
00000060: 9715 8fbe b80f 533e da6c 54be e7db ff3c
00000070: 2ddd 3dbf 20d2 a7be 9395 f53c df75 c43b
00000080: 92fb 1bbc db48 b03d 4744 26bd 0d16 8dbd
00000090: d301 4cbb ad72 563e e6ad 3bbe 5be3 c73c
000000a0: 7c03 d6be 1e20 9bbd 2c9f 093d 15a3 7ebd
000000b0: c1fa 343c 3ad2 6c3e 056f e63d 119c a1be
000000c0: 302d 37be 219f 92be 50bd 1abe 0f22 32be
000000d0: 3328 ce3e d14c 023e 6c4d 7a3e 6e2b e0be
000000e0: 09a6 bf3e daa7 323f 71bd 49bf a2bc 11be
000000f0: 8882 cebe 956b 353e 349f 9ebd 8432 223e
00000100: 43d4 343e 9b90 133d 9c96 00bc ef2f 75bd
00000110: f4db 3ebe f4cd 7c3d 06ab 68be 602c d3be
00000120: 8735 6bbe 71da 2f3e 1662 46be 10db cb3b
00000130: 3333 51be 62ad 73bd 0782 fc3d de0f 1bbb
00000140: d990 ee3d 0938 7ebe 042b b1be 1831 0ebf
00000150: bc5e 783c 1e56 b93e 244e bbbe 6dad c53d
00000160: b09a aebd 8b2d d6be adac babe 1bfe f2be
00000170: 9de3 7a3e 30c0 3bbd d998 0fbc 0e88 aabc
00000180: 4917 f1be 6cf1 e33d 678b 7f3d 1793 543c
00000190: 50f1 bd3e 47d3 a13e 292d 983e 5892 2d3e
000001a0: fb88 cfbe 09fd babd 5731 6cbe 51f1 e6bd
000001b0: 1cc1 8ebc 26c8 e7bd 4eac 043d eb65 47bc
000001c0: cc84 57bd 6173 773e ae53 bf3d 5156 fd3d
000001d0: c98d 06be 6013 40be ff46 28be dbaf 0a3e
000001e0: 3cb4 95bd efaa 303c ffe8 94bd 8c92 5cbd
000001f0: 3c5a 283d 8303 a8be cdb7 2bbd 74a9 c93e
00000200: 0d13 03bd aef8 4ebd fe28 d6bd 3f4e 423e
00000210: 8bc1 873d 3f42 25be 91e7 bfbd 48f2 c93e
00000220: 05b7 643e d163 e8bd 6827 cebc 3fae 0f3e
00000230: 4e2a 8abc 20ec a33d 91f3 4c3e b954 193e
00000240: be05 81be c93e bbbe 2bc9 2abe 2923 003e
00000250: 8fbc 68be c106 9abe 378c 1fbc 068a ba3d
00000260: 4349 8a3e d788 9abd f89a 313e 03d3 a43a
00000270: 46d5 353f 7c91 973e 3cb1 1a3e e397 13bb
00000280: 86c3 fabd bf07 143e e302 e3bc 26e7 b23b
00000290: b4fe 103e c64c 74bd 648c ad3e c82b 033e
000002a0: 56ae 3b3e 0658 803d ae5d d4bd fcf7 943d
000002b0: 7db2 d3bd 5b71 4cbe 1101 b93d 4fec 26ba
000002c0: a87c 7d3e 9368 9b3e f305 1b3e 7316 473e
000002d0: a50f 82be f799 4fbe 1bdb a4be 13a2 fd3e
000002e0: 4f13 9cbe 9eed 42bf 7524 563f 4ab3 4e3e
000002f0: e3aa f53e bb0e 0ebd 9480 ee3d f4a5 c93c
00000300: 86e2 773d 3544 9bbc 834e c6bd 4d9c 99bd
00000310: 9743 363e 9a07 cfbd b085 7c3e a455 fd3e
00000320: c8ac 4e3e 8ab3 903d c02c f23d d118 4fbe
00000330: 4d4b ea3d 0582 0fbe c654 b13c 1505 473e
00000340: 8dc2 7e3d 676a 203e dd1f d53e e7ce ff3e
00000350: 19e2 503c 0819 c5be 6bc7 823e 9836 623c
00000360: 2ff0 80bd e684 463e 2fd3 e03e b504 bf3e
00000370: 0ca7 32be ca31 01be 9f1f 583e ca52 46bd
00000380: a5fc c23e c584 06be 031f 10be e5b6 1abe
00000390: fc37 02bf 890c 68bd e518 eabd 10aa 52be
000003a0: 89a7 963e f49d 133e b0b0 1d3d 851e cb3d
000003b0: 1d8f cf3d f10b 92bd 2b69 353e f073 0bbe
000003c0: 4447 903c 1d19 cbbe 71e5 93bd f69b f6bd
000003d0: 41a8 df3c c448 253e 3ee0 8d3e 4f43 ca3d
000003e0: f6a1 dfbd 27f5 013e 739c 5e3d e30b 023d
000003f0: d419 3ebe fb8f b53e a511 86bd 438f b7be
-0.15493591 -0.1509855 0.27543724 0.06440122 0.102810524 -0.038488 0.1665912 -0.32486257
-0.3262478 -0.063104026 -0.06708869 0.21395771 -0.043441404 -0.1190897 -0.107096866 -0.10880028
0.19551744 0.3991916 0.19396031 -0.104540095 0.1283373 0.30910504 -0.1365573 -0.24448183
-0.2794616 0.20611465 -0.20744649 0.031232787 -0.7416561 -0.327775 0.02997855 0.0059954966
-0.009520428 0.08607646 -0.040592458 -0.068889715 -0.0031129017 0.20942183 -0.18328056 0.024400404
-0.41799533 -0.07574485 0.033599064 -0.062167246 0.0110461125 0.2312707 0.11251644 -0.31564382
-0.17888331 -0.2863703 -0.1511128 -0.17395805 0.40265045 0.12724616 0.24443597 -0.43783134
0.37431362 0.6978737 -0.7880469 -0.14232114 -0.40333962 0.1771682 -0.07745209 0.15839583
0.17659096 0.03602658 -0.007848408 -0.059860166 -0.18638593 0.06171985 -0.2272149 -0.41244793
-0.22969638 0.17173173 -0.19373354 0.0062211826 -0.20429687 -0.059491523 0.12329488 -0.002366058
0.11648721 -0.24826063 -0.3460313 -0.5554366 0.015159305 0.36198515 -0.36583054 0.09652219
-0.08525598 -0.41831622 -0.36459866 -0.47459492 0.2450089 -0.04583758 -0.008764469 -0.020816829
-0.47088078 0.11130032 0.062388804 0.012974522 0.3709817 0.31606504 0.29721954 0.16950357
-0.40534195 -0.09130294 -0.23065697 -0.11276496 -0.017426066 -0.11317472 0.032390885 -0.012170295
-0.05261688 0.24165107 0.093421325 0.12369979 -0.13140024 -0.18757391 -0.16433333 0.13543646
-0.073097676 0.010782941 -0.07271003 -0.053850695 0.04110168 -0.3281518 -0.041923333 0.39387095
-0.03200059 -0.05053013 -0.104570374 0.18975161 0.06628712 -0.16138552 -0.0937034 0.39442658
0.22335441 -0.113471635 -0.025165275 0.14031313 -0.016865876 0.08004022 0.20014788 0.14973725
-0.25199693 -0.3657134 -0.16678302 0.12513413 -0.2272818 -0.30083278 -0.00973802 0.09108357
0.2700902 -0.075456314 0.17344272 0.0012575093 0.71028554 0.29603183 0.15106672 -0.0022520951
-0.122443244 0.1445608 -0.027711337 0.005459684 0.14159662 -0.05964353 0.33896172 0.1280967
0.18328223 0.06266789 -0.103694305 0.07273862 -0.10336778 -0.19965117 0.090334065 -0.000636761
0.24754584 0.3035322 0.15138988 0.19442157 -0.2540256 -0.20273577 -0.32198414 0.49537715
-0.3048348 -0.76143825 0.8364938 0.20185581 0.4798194 -0.034682017 0.11645618 0.024615265
0.060518764 -0.018953422 -0.09682944 -0.07500515 0.17799221 -0.10108872 0.24660373 0.494794
0.20183098 0.07065494 0.11824942 -0.2022431 0.11440144 -0.14014442 0.021646868 0.19435532
0.062197257 0.1566559 0.41625872 0.4996254 0.012749218 -0.3849566 0.2554277 0.0138069615
-0.062958114 0.19386634 0.4391112 0.3730828 -0.17446536 -0.1261665 0.21105812 -0.048418798
0.38083377 -0.13136585 -0.1407433 -0.15108831 -0.50866675 -0.05665258 -0.114305295 -0.20572686
0.29424694 0.14415723 0.03849858 0.099179305 0.101347186 -0.07131184 0.177159 -0.13618445
0.017612107 -0.39667597 -0.07221497 -0.12041466 0.02730191 0.16141039 0.27710146 0.09876119
-0.109195635 0.12691174 0.05434842 0.031749617 -0.1856454 0.3546141 -0.06546334 -0.35851488

head_comm.bias f4 [8]
00000000: 08e0 1a3e 33d9 a03d 3747 42bf ed10 32bf
00000010: 99b6 2fbf 9768 34bf b077 3dbf bbdf 46bf
0.15124524 0.078539275 -0.75889915 -0.69557077 -0.68637997 -0.7047209 -0.74010754 -0.77685136

head_mode.weight f4 [2, 128]
00000000: 9be9 29bd cb17 e1bd 3c96 393e 94de 0ebe
00000010: 2c68 483d debc 9e3d 6c2f 1d3e 9c61 c2be
00000020: 2dbf 80be e09b 963c 7ec2 bdbd efdc a23d
00000030: 9c68 98bd 7272 90bd 9ded 41be 69ab 7cbd
00000040: bb2c 443e 1556 a53e 5f34 6d3e c8d8 19bd
00000050: b421 103e 2ee6 b93e 10e9 cdba a038 57be
00000060: ee9c 99be c1a6 253e 1637 01be 9766 a1bd
00000070: 7ca5 3ebf 1f41 bbbe 9f37 4ebd 915c bdbd
00000080: 6f89 8f3d b085 c6bc ac33 d03d a7e4 4b3c
00000090: dcaf c8bd f560 c43d 0439 85be bfd7 75bd
000000a0: 6253 93be 7e7d 8bbd c5d4 d4bc 75b1 3d3c
000000b0: 161e d8bc adf6 383e 548f 953d 3748 64be
000000c0: 2d0f 46be e4b7 29be bf9a 00be 8bbd fdbd
000000d0: 71d7 bb3e a120 873e 7398 b73e 4dd9 d5be
000000e0: bacb b43e 97e9 423f 39fd 50bf 634f f0bd
000000f0: 12c6 c7be a0b2 1b3e edb7 573c 458a 013e
00000100: 7a86 a23d da49 8d3c 4e21 033e ad49 79bd
00000110: 0532 25be 941d df3d e16f 95be f50e edbe
00000120: 7852 56be bb59 033c f32a 5dbe 3b3a a63c
00000130: 70c2 3bbe 093d 8d3d a642 a3bc ca62 a5bd
00000140: c6d7 7abb 7a77 93be be46 8dbe e9c0 f2be
00000150: 64e0 c33d e248 ac3e c747 9abe 2439 013e
00000160: a057 0a3b 840e 92be bc0e d4be 6609 f4be
00000170: e3da 4d3e 12cf 333d 70db 4cbe bfab ebbb
00000180: bc52 b9be 929c eb3d 930a d03d 37ae 363d
00000190: 7b58 ee3e 2abf 233e 8850 7f3e 9d7a 5e3e
000001a0: 0f54 acbe 0a66 00be 2a2a b6bd 3d62 d3bd
000001b0: 45c2 50bd f3c5 74bc 8c41 d5bd 55f0 143e
000001c0: 0be5 adbc 306d c03e 668c 123d 45a8 493e
000001d0: ac43 13be 9f20 3ebe 5569 7abe 0f7d 9bbd
000001e0: aad2 f63b 20e0 fbbd 30de 40bd ca3d 1fbd
000001f0: 8465 4d3e 35ca a3be f5c8 bcbc f30d d13e
00000200: 217b 9f3c cca1 d33d 4efe 3cbe 4a67 bcbc
00000210: dc95 7dbc fc80 4cbd 9e62 33be 277e ae3e
00000220: 67a0 963e 3d8d a9bb 8a4e b23c b7cd 49bc
00000230: 652f 5ebd f6de 1e3d 12fd 503e bdf2 2b3e
00000240: 13f6 4bbe f2f9 ddbe 039b 6cbe 9e8f 523d
00000250: 04d9 ccbd 0162 89be 8a98 e63c 0f31 2e3e
00000260: 555b 203e 680e 26be 9b61 503e 5e2b 4cbc
00000270: 1762 503f f882 873e 864e b73d 96a3 1b3d
00000280: 2fe9 bbbd aac2 613c 7825 26bd f0c0 c6bd
00000290: 15bb 2abd 507e 10be 4688 9e3e 940b babc
000002a0: 6b6f 893e 5a5b ff3d e527 84bd 33fb 9c3d
000002b0: 0c89 d73c 5ed9 6abe 1ddc 8f3b 10e3 013e
000002c0: 8bd2 1f3e 2da4 9c3e 36c9 d73d efa3 123e
000002d0: 2755 abbe 1800 60be 4c3d 6fbe 1d71 d03e
000002e0: 6cc9 9bbe 9c62 50bf b433 453f 29c5 033e
000002f0: 2dec ec3e 7b1f e9bd 1b81 d73d ac85 30bd
00000300: 67bc 85bd 0133 4c3d 949c bebd 35c7 3cbd
00000310: 2856 893e 1f1e 07be af72 8d3e 44c5 ef3e
00000320: 4e72 3b3e b788 edbb b5a6 313e 1e30 16be
00000330: 325a 2f3e 58bb 80bc 1782 96bc f063 a53d
00000340: b255 4c3d 0e11 5f3e 06c3 b73e 7f70 033f
00000350: 53d8 903d f527 c1be 7d33 8e3e c592 8f3c
00000360: 5bde e1bc 2d47 cd3e 4c4d d43e aa42 f63e
00000370: a282 1cbe 06e1 fdbd 1930 673e 4f00 17bd
00000380: c1dd e93e 11a1 2bbe a858 f4bd 3692 f7bd
00000390: 084f e7be a865 43be 25c0 94be 2417 00be
000003a0: 5f02 b03e bf12 413e cecc e43d a59f ef3d
000003b0: dce7 853d 0e2c a63c a2f8 643c 8054 80bc
000003c0: 3364 32bc 6925 97be b3cb 93bd ed3b 07be
000003d0: 80b0 043e 6be2 2e3e b08a 813e b78e 7bbd
000003e0: 50f2 30bd f048 163e 158e 07bd 21ee a43c
000003f0: 5d72 14be 6841 b93e 5988 3b3d f093 bfbe
-0.04148255 -0.10990866 0.18123716 -0.13952094 0.04892747 0.07750867 0.15350121 -0.37965095
-0.25145856 0.018384874 -0.09265612 0.07952296 -0.07441828 -0.07053079 -0.18938299 -0.061686907
0.19157688 0.32292238 0.23164509 -0.037560254 0.14075357 0.36308426 -0.0015709717 -0.21017694
-0.3000254 0.16176893 -0.1261867 -0.078808956 -0.7447126 -0.3657312 -0.050346013 -0.09246171
0.07008635 -0.024233669 0.10166106 0.012444652 -0.097991675 0.095888056 -0.26020062 -0.060020205
-0.28774554 -0.06811045 -0.025980363 0.011577954 -0.026381534 0.1806285 0.07302728 -0.22293173
-0.19341727 -0.16574055 -0.12559031 -0.12389668 0.36687806 0.2639208 0.35858497 -0.4176735
0.3531168 0.7613768 -0.8163639 -0.11733892 -0.39018303 0.15204859 0.01316641 0.12650402
0.079358056 0.01724713 0.12805673 -0.06086128 -0.16132362 0.108943135 -0.2918692 -0.46300474
-0.20929897 0.008016999 -0.21598415 0.020291438 -0.18335891 0.06896407 -0.019929241 -0.08075483
-0.0038275584 -0.2880209 -0.27593035 -0.47412804 0.095642835 0.33649355 -0.30132887 0.12619454
0.0021109357 -0.285267 -0.4141749 -0.4766342 0.2010303 0.04389865 -0.20005584 -0.0071921046
-0.36195934 0.11504473 0.10158267 0.044599738 0.4655188 0.15990892 0.24933064 0.21726461
-0.33657882 -0.12538925 -0.08894761 -0.10321472 -0.05096652 -0.014939773 -0.10412893 0.14544804
-0.02122738 0.37583303 0.035778426 0.19693096 -0.14381284 -0.18567131 -0.24454243 -0.075922124
0.0075324373 -0.12298608 -0.047086895 -0.038877286 0.20058256 -0.3199021 -0.023045043 0.40830955
0.019467892 0.10333595 -0.18456385 -0.02299847 -0.015477624 -0.049927697 -0.17518088 0.34080622
0.29419252 -0.0051743076 0.021765966 -0.012317113 -0.054244418 0.03878685 0.20409039 0.16791816
-0.19918089 -0.43354756 -0.23106007 0.051406495 -0.1000233 -0.26832584 0.028148908 0.17010902
0.1565984 -0.16216433 0.20349734 -0.012461511 0.81399673 0.2646711 0.08950524 0.037997805
-0.091753356 0.013779322 -0.040563077 -0.09704769 -0.04168232 -0.14110684 0.30963343 -0.022710599
0.26842818 0.12468596 -0.06452922 0.076651 0.026310466 -0.22934482 0.004390253 0.12684274
0.1560766 0.30594006 0.10536425 0.14320348 -0.33463404 -0.21875036 -0.23363227 0.407113
-0.3042711 -0.81400466 0.7703202 0.1286818 0.46273938 -0.113829575 0.10522672 -0.04309623
-0.065300755 0.04985333 -0.09307209 -0.046088416 0.26823545 -0.13195084 0.2762656 0.4683019
0.18305323 -0.0072489637 0.1734875 -0.14666793 0.1712425 -0.015714332 -0.018372579 0.08075702
0.049886413 0.2178385 0.3589098 0.5134353 0.070725106 -0.37725797 0.27773657 0.01752604
-0.027571848 0.40093365 0.41465223 0.48097736 -0.15284207 -0.123964354 0.22576942 -0.03686553
0.45676997 -0.1676066 -0.11930972 -0.120884344 -0.45177484 -0.19081748 -0.29052845 -0.12508827
0.3437681 0.18854807 0.11171876 0.11700372 0.06538364 0.020284679 0.013975294 -0.015665293
-0.010888147 -0.2952073 -0.07216587 -0.13206454 0.12957954 0.17078559 0.25301123 -0.0614154
-0.043199837 0.14676261 -0.033094484 0.02013308 -0.14496751 0.36182714 0.045784328 -0.37417555

head_mode.bias f4 [2]
00000000: 4dab 233d faf2 433c
0.039958287 0.011959786
