outputs/checkpoints/mappo_routing_only_stage1.pt (torch, 481501 bytes, 17 tensors)

net.0.weight f4 [128, 44]
00000000: 5890 91be dfd8 d4be 8bd6 3bbd 65e4 d0bd
00000010: 1ded 923f c23e 843d 1a3d 1abe ad0c 583e
00000020: d9e0 43be cbd4 59be fc35 6d3e 0d14 e2bd
00000030: 3992 d53e 92d9 e6bd 6b24 2cbe 5c5b 8ebe
00000040: f0a8 f6bd dde7 cbbc d0e8 b2be d82e 233d
00000050: 00b2 053e 2567 63be ed97 61be cb4f f7bd
00000060: 1f1c d4bd 5852 dd3d 715e f4bd 78dc 113e
00000070: 8159 dfbd 6aad dbbe 38bc 65be df08 f23d
00000080: 8faa 8e3d 3924 1dbe 996e e3bd 4344 983e
00000090: 4ea6 613d fe00 56bd d44a 073f 6aee eb3d
000000a0: 89da bd3e 53b5 7d3e 7d62 113e 99bb 2abc
000000b0: 1ad2 94be 6c66 d0bd d932 623e 66ee 663f
000000c0: 72d9 0abf 6b80 1b3c 3aed 603d 649f b0be
000000d0: e4cf 9a3c 8b30 01be b383 ee3c 2a3f 97bd
000000e0: b9b5 1bbe 8c4e e23e 1727 743e 3b27 7f3e
000000f0: 27c0 8d3e c4b2 11bb 6f2d c9bd 7b4c 2dbe
00000100: cb7e 733e 3453 48bc 187b 103e 9cee 763e
00000110: 1905 11b9 ec92 1d3e ea88 873d 6cd9 9dbe
00000120: 207e 23be f198 8f3e c200 e4bd 8eec a13c
00000130: a8b9 80bc fc3b 0c3e 4106 d43c 081b 313e
00000140: cc89 2cbe b5d9 fa3e 2f57 c93d 6273 033f
00000150: 1d57 f93c c105 9a3d ad52 88bc c81b 7f3d
00000160: a3a4 10bf ed53 3a3f 1c5d 313d d30a 4dbf
00000170: 2564 92be 3366 173d cd44 e53d 1878 88bd
00000180: 0b4b 4f3e 074f 81be c1fe c13d 68b4 c0bc
00000190: c1c8 813e 8d65 6cbe 4519 203d 5974 32be
000001a0: 99e5 65bb a299 f8bc e349 d23d 2de3 413e
000001b0: ccb8 d3bd 9bd8 04bb 47b7 283e eda3 bcbd
000001c0: 95d3 db3d e8a4 f43d 2792 abbe 04b9 1e3e
000001d0: 651e babd b36e 283d 89bd ddbd 1d9d 00be
000001e0: 216a 83bd f736 1e3e ff9c df3d 6bc2 4e3e
000001f0: 1bdd 44be abd0 ad3d ed75 40be b4ce 3a3e
00000200: e622 86be f45e 943d 122e 4abe b85c a1bd
00000210: 89f6 533e dc21 c33d 980e c93e 041a 05bf
00000220: 4075 b5be 78e0 a83d 4511 063e cdd6 0dbd
00000230: 9307 0fbe 9da7 303e f9d1 303e 05ad e93e
00000240: ef83 5c3e a6ae e13c b910 85be 4d95 4d3c
00000250: d4d2 9ebe 8cdb 8abc 41d2 e9be 8849 28be
00000260: 7996 e4bc a63b 06bd 7fa2 f5bb 077f e63d
00000270: b743 883c 88c8 003e 13c3 4f3e 5c1e aa3e
00000280: 50a8 87be 85a6 033f cc8a e03c 0a32 453e
00000290: 133e bbbb a4a2 273d 23df 9e3d 965c afbe
000002a0: 802e 75be 57fe 92be 439e c2be 43b7 a2be
000002b0: db04 62be 6854 27bd c051 5a3d bdfb d03d
000002c0: 87a4 10bf fd9c b83e 15d4 5f3c 364d d83c
000002d0: ea23 1abd bfaa 23bc f384 5cbe 4eba 24bf
000002e0: 6b2e 373f a730 293c d20d a2bd d71c 1a3b
000002f0: 6663 f0be 3565 90bd 95e2 82bd 13b4 d23d
00000300: 7e01 813e 8e11 603e 0dba 023f f11e d53d
00000310: 9755 cfbc 7258 45be 78e7 9dbe feeb 17be
00000320: 98d0 03bd c495 923d 4ac8 7a3e 823f 2ebe
00000330: c564 073f a86b 24be f691 733e bb91 ae3e
00000340: 00ad 28be 7a62 7ebe 32bf 7abe 5163 523e
00000350: e79b dfbc 590c 383e 648e 4bbd bbaa e3bd
00000360: 0098 cabd 6a3c e7bb 181c 1d3e b3b8 4b3e
00000370: 26b1 7bbf 98a2 c7bd e9c4 3e3e b1ff 3cbe
00000380: cbb2 96bf de52 283d 2808 753e 093b 87bd
00000390: 4eb4 d4bd 8758 2fbe 2d68 393d f6ce dabc
000003a0: 913f c4bd 899c b33d 3e77 dc3d 4107 d73c
000003b0: 5ff8 4f3e 919f 213e 27b7 feba 69b1 15bd
000003c0: 977f febd e5b2 753e c32c febb 25f2 283e
000003d0: c527 4a3e 2ca2 2bbe e802 c3be 1ed8 a9be
000003e0: c899 30bd 145e 8ebd b9a6 3dbe be5c b9bc
000003f0: 3947 1b3d e623 303e 0668 b83c b89a 9d3e
-0.28430438 -0.4157171 -0.0458589 -0.10199813 1.1478611 0.064572826 -0.15062371 0.21098585
-0.19128741 -0.2127258 0.23165125 -0.11038981 0.41713122 -0.11271967 -0.16810767 -0.27804077
-0.12043941 -0.024890834 -0.34943247 0.039839596 0.13056183 -0.22207315 -0.22030611 -0.12075766
-0.10356926 0.108067214 -0.11932076 0.14244258 -0.109057434 -0.42905742 -0.22435081 0.11818098
0.06966125 -0.15345849 -0.11105079 0.2973958 0.05509024 -0.05224704 0.52848554 0.11520083
0.37080792 0.24776201 0.14197727 -0.010420703 -0.29066545 -0.101757854 0.2208971 0.9020752
-0.54238045 0.009491066 0.054913737 -0.34496605 0.018897958 -0.12616174 0.029115533 -0.073850945
-0.1520604 0.44200552 0.23843037 0.24917309 0.27685663 -0.0022231797 -0.09823119 -0.16923706
0.23778836 -0.012226868 0.14109457 0.2411446 -0.00013830177 0.15388077 0.06617911 -0.30829942
-0.15966082 0.28046373 -0.11132957 0.019766118 -0.015713528 0.13694757 0.025881888 0.17295468
-0.1684944 0.48994222 0.09831082 0.51347935 0.030437047 0.07520629 -0.016640985 0.062282354
-0.56501216 0.7278431 0.043301687 -0.8009464 -0.2859203 0.0369627 0.11194763 -0.06663531
0.2024347 -0.25255606 0.094724186 -0.023523524 0.25348476 -0.23085614 0.0390866 -0.17427196
-0.0035079478 -0.030346695 0.10267999 0.18934317 -0.103379816 -0.0020270708 0.16476165 -0.09210954
0.107337154 0.11945516 -0.33509943 0.15500265 -0.090878285 0.041121196 -0.108271666 -0.12559934
-0.06416727 0.15450655 0.109186165 0.20191352 -0.1922497 0.08487066 -0.18794985 0.18242913
-0.261985 0.07244673 -0.19744137 -0.07879013 0.20699514 0.095279425 0.39268947 -0.5199282
-0.35441017 0.08245939 0.13092525 -0.034628678 -0.13967733 0.1725144 0.17267598 0.45639816
0.21534704 0.0275491 -0.2598932 0.012547803 -0.31020224 -0.016950391 -0.45668224 -0.164343
-0.027903782 -0.03277173 -0.0074961777 0.11254697 0.016633851 0.12576497 0.20289259 0.33226287
-0.264956 0.51425964 0.027409934 0.1925737 -0.005714187 0.04092659 0.07757404 -0.34250325
-0.2394352 -0.2870967 -0.3801137 -0.31780443 -0.22072165 -0.04085198 0.05330062 0.10204265
-0.5650105 0.36057273 0.013661404 0.026404005 -0.037631907 -0.0099894395 -0.21535091 -0.6434678
0.71555203 0.010326541 -0.07912792 0.0023515725 -0.46950835 -0.07050554 -0.06390873 0.10288253
0.2519645 0.21881697 0.5106514 0.10406292 -0.025309367 -0.1927202 -0.3084066 -0.14836118
-0.032181352 0.07157472 0.24490467 -0.17016414 0.5288814 -0.16056693 0.23786148 0.3409556
-0.16472244 -0.24842253 -0.24486998 0.20545699 -0.02729602 0.1797346 -0.04969634 -0.11116549
-0.09892273 -0.0070567625 0.15342748 0.19894676 -0.9831718 -0.09747809 0.18629803 -0.18456914
-1.1773313 0.041094653 0.23928893 -0.06603057 -0.10385953 -0.17123614 0.045265365 -0.026710015
-0.09582437 0.08770091 0.10764931 0.026248576 0.2030959 0.15783526 -0.0019433246 -0.036546145
-0.124266796 0.23994024 -0.007756801 0.16498621 0.19741733 -0.16761082 -0.38088155 -0.33172697
-0.043115407 -0.06951538 -0.18520631 -0.02262723 0.03790972 0.17201194 0.02251054 0.30782104

net.0.bias f4 [128]
00000000: 2ff7 39bc 8671 da3c e890 963c 89c2 c23d
00000010: fc69 47bd 2689 a53d 8c22 5bbd 52a5 54bd
00000020: 5950 023d 0d54 05be 2c75 653c 9b25 02be
00000030: c29f 29bd 34f4 453d 3daa e5bd 9eb7 07be
00000040: 6d2a b3bd 0dd0 d13d ee57 a2bc e602 e0bd
00000050: a6b6 ee3c 4769 e63d dcb1 73bc 35c2 b13d
00000060: fae7 d238 536e 803d ccbc 333d a1a1 613e
00000070: 800c 2f3e 03e8 79bd c0f4 013e ee36 4a3e
00000080: 4515 a2bd 59b6 893d 54c7 afbd fe29 e3bd
00000090: b028 be3d b0c7 c8bd 3395 88bd 0085 b73c
000000a0: 68fb 403c 35da 9c3d b2f0 82bd 252b cd3d
000000b0: 769d 5ebc 4161 e13d 9b15 e3bd 56f5 b3bd
000000c0: ec44 9fbc f191 463d 3f6e 7dbd a6e3 f0bc
000000d0: 4b18 2ebe 1fad c23c ba45 18be 9b69 75bd
000000e0: f74d b4bd eff9 b83c 0380 e0bd 24b2 9c3d
000000f0: d337 cd3d fb73 41be 3783 243c c2c6 a4bc
00000100: e0ea ad3c 7f22 81bd 3aff 22bc 32df 4f3e
00000110: 4f40 bdbd eb97 bc37 193f 22bc deab 803d
00000120: 0a19 1b3e ba2c 20bb 496e fb3c 3b40 b63d
00000130: 4586 0f3c 8dff e4bc d133 96bd 81f4 afbd
00000140: 50b4 96bd e05e 0a3d 27c9 bd3d 390b 653d
00000150: 9c33 c6bd 1f9b e2bc 6794 12be c626 ea3d
00000160: ee57 7ebd dbbc 653c c3ea debc dac5 b6bd
00000170: 4a65 98bd 8e56 3ebd 9fb3 ddbc 89fa 8fbb
00000180: a0d6 183e c477 d2bd 2dae f43c aede bb3d
00000190: 82e1 203c 3a29 b63d 9e6c 6dbd 7682 e73b
000001a0: 9ae1 993c c8e1 263e f675 13bd d662 853c
000001b0: 547e 423e 1068 2ebe 49b7 1b3e b0c1 473c
000001c0: f84e 3b3e 75b9 693d 098e 0f3e 0aa2 bd3d
000001d0: 7dc5 9f3d c2b8 0a3e b481 0c3e 4d53 97bd
000001e0: bcf1 abbc f881 a13d 8641 063e 14d2 803e
000001f0: a725 0c3e 766d b83d 8dba 343c 4d3a 853c
-0.011350437 0.02666546 0.018379644 0.09509761 -0.04868506 0.080827996 -0.053499743 -0.051915474
0.031814907 -0.13020344 0.014004987 -0.12709658 -0.041412123 0.048328593 -0.11214111 -0.13253638
-0.087483265 0.10244761 -0.019817319 -0.10938053 0.029139828 0.11250549 -0.014873948 0.0867962
0.00010056789 0.06271043 0.043881223 0.22034313 0.17094612 -0.06101228 0.12691021 0.19747517
-0.07914213 0.06724233 -0.08582941 -0.11091994 0.09285104 -0.09803712 -0.066690825 0.022402287
0.01177869 0.07658807 -0.06393565 0.10017995 -0.013587346 0.11004878 -0.11088105 -0.087870285
-0.019442044 0.048479024 -0.061872717 -0.029405426 -0.17001455 0.023764191 -0.14870349 -0.059915166
-0.08803933 0.022580115 -0.10961916 0.07651165 0.10020413 -0.188919 0.01004105 -0.020114306
0.021230161 -0.06305408 -0.009948546 0.20299986 -0.092407815 2.2482089e-05 -0.009902739 0.06282781
0.1514627 -0.0024440722 0.030692236 0.0889897 0.00876004 -0.027953887 -0.07334102 -0.08591557
-0.07358611 0.033781886 0.092668824 0.055918906 -0.096778125 -0.027661858 -0.14314424 0.11433177
-0.062095575 0.014022077 -0.027211552 -0.08924456 -0.07441194 -0.046469264 -0.02706319 -0.00439388
0.14925623 -0.1027675 0.02986821 0.09173332 0.00981939 0.08894582 -0.057964914 0.0070651127
0.018784333 0.16297066 -0.03600117 0.01628248 0.18993503 -0.17031884 0.15206636 0.012192175
0.18291843 0.05706163 0.14019026 0.09259422 0.0780134 0.13547042 0.13721353 -0.07388935
-0.020989291 0.07886118 0.13110933 0.25160277 0.13686238 0.09005253 0.011030805 0.016263152

net.2.weight f4 [128, 128]
00000000: 4452 1ebe 5f13 233e b3e9 053e 0495 2ebd
00000010: 3d72 c1be b33c 093e dedf 8ebd 22e2 26be
00000020: dc70 e4bd 1a6a 873d 3aad 63bd a65c 773e
00000030: efab efbd d7a5 1fbe 2a17 293f 5719 c0bd
00000040: d7db 193c 542e ccbe e935 c6bd 7f97 5cbe
00000050: 8363 1c3e 26a9 093e d8f0 233d 44c0 03bf
00000060: 33aa 69be 6947 83be e94d 2c3e 9b46 c03e
00000070: 743e 573e f6ea 1dbd 3e96 013e e3f3 da3d
00000080: 5b64 44be dc41 0abc 0a40 e6bd 6413 e93c
00000090: 3bdc 783e e260 e33d 9cb9 043e 967d 313d
000000a0: 3cd9 4dbd 3dd2 0d3d dacf 203e 9ad4 b7bc
000000b0: 7bdf 01be f88e 0e3e d329 b3bd 41ff 533e
000000c0: 47e1 873c db1d 4fbe a2af 71bd 342e 87be
000000d0: 0ef3 9dbd 4fbe 953c cf8c 903e 1552 f6bd
000000e0: 4260 06be da36 a03d 1a90 003e b89a 9e3d
000000f0: ac88 44bd cf7f 02bf ec11 19be eb3c 8d3e
00000100: 4b61 513e 3f37 a23e 84f0 ea3b 48a1 d5bd
00000110: 3ab6 2e3e 5538 7dbd 1165 443d 97ea 1fbd
00000120: fd60 163d 3584 0bbe b95e 2c3e ded4 fd3d
00000130: 7944 e33d 4a3a 87bd 1954 593d 4cab c43d
00000140: 874c bc3d a148 883e a92f 313e 6f6a 0bbe
00000150: 4817 b7bc c8af 9e3e 9b87 4a3d 6a1c f33d
00000160: 00e6 5b3e d446 8cbd 7f72 bcbd da15 413e
00000170: 3433 05bf c124 20be ad72 763d 1e03 053d
00000180: 9d64 2ebf 8fb0 f8be b355 ce3e 098d 753e
00000190: 50d4 afbd f317 04be b7eb 593d 5d9e adbe
000001a0: 7f59 1b3e 66df 783d d1fc 29bd e707 583c
000001b0: 445a 883d 8cf2 afbe e033 3dbe fd94 25bd
000001c0: 8c2e 42be 524b 553d 5530 153e 0477 87bc
000001d0: e12d a5be f73c 493e 1280 0e3d ff0e 57bd
000001e0: beb8 a63c 3374 843e fa5c 553e f5c5 823d
000001f0: d287 4a3d cf4c 1dbf e16c 68bb fba8 3abd
00000200: 1969 f6bd fbd9 983e 39f6 993d e2e3 d83e
00000210: 3980 51be a3af aa3d 306e 80bd a1b1 453c
00000220: b8c3 193e d20c 033f 1f2e 943d a4ce 193e
00000230: ff94 a4be 806f 303e 5bbb fb3e 5cf7 a2bd
00000240: dcdb a83e f022 27be 1dd1 e23d 2f5d 0cbf
00000250: 84d8 0dbd 1903 d7be aaec e3bc 87e0 4abe
00000260: 123d 783e 01cb 85be 6285 513e 2de3 bf3e
00000270: fbe9 46be 3e42 923e b5c8 e83c 0704 123e
00000280: b320 273f 7a22 523d 22c3 65be 4dfc 10bf
00000290: 2f45 8fbd 6481 3c3e 4daf 2abe 46a5 df3e
000002a0: d115 c7bd 49ce 823e 8f40 c23c dbee 573e
000002b0: 6cd0 543d 1570 7dbe 499c dbbd 937f 8d3e
000002c0: 38a6 3cbe 836f 37bc fe05 88be 24bb 9bbd
000002d0: c6cb b5be 2186 a03b 5982 1dbe 5734 aa3e
000002e0: c0ab b23e d98b afbd 7967 32be cad7 2dbd
000002f0: 2fc2 f2be 4be0 babe b624 80be 2732 cdbc
00000300: 0047 f03e 9522 8cbd 3c33 c33e 38d5 8f3e
00000310: 21bb 703e 0d1b 9c3e 6546 11be cb74 8f3d
00000320: 396e 9d3e d618 213d 1134 8d3d a826 8abb
00000330: 2183 2c3e a561 d8be 4553 6c3e 9ca7 323e
00000340: 84b3 d03e 335e bd3e 4390 23bf a2a2 acbd
00000350: c0f9 dc3e 51f5 493e b833 fb3d c85a 2e3e
00000360: 888f 03bd 7ade 0dbe ca21 fd3e 2111 313f
00000370: dda3 d43d bde1 c13e 51f7 0ebe 4873 97bb
00000380: 33d5 efbd 1bf2 11be 7880 0cbe 332e 433d
00000390: 8aa1 2fbf 8bc3 6bbe d64d a8be 3a5c d43d
000003a0: 947e 0cbe a861 d0bd 04eb 313c 6904 043e
000003b0: f8fa f83e a587 d63e def3 303d 65c7 8bbe
000003c0: 154c 21be 1a3c 713d c2f7 c0bc 376d 583e
000003d0: 0111 7f3e 30b6 293d da55 80be a91c 783d
000003e0: 3682 a3bd 4b3f 54be 0d26 17be 68f6 623e
000003f0: e8c7 a8be 43d2 b3be 3777 0fbc f25c 1cbe
-0.1546107 0.15925358 0.1307743 -0.04262258 -0.3778247 0.13402061 -0.06976293 -0.162972
-0.11154339 0.06612034 -0.055585124 0.24156436 -0.117027156 -0.15590607 0.6605097 -0.09379833
0.009390793 -0.39879096 -0.09678251 -0.21542166 0.15272336 0.13443431 0.04002461 -0.5146525
-0.22818832 -0.2564042 0.16826595 0.37553868 0.21019918 -0.038554154 0.12654969 0.10691049
-0.19178908 -0.008438554 -0.11242683 0.028451629 0.24302761 0.11102463 0.1296143 0.04333266
-0.050256 0.034624327 0.15704289 -0.022440244 -0.12682907 0.13921726 -0.08748212 0.2070284
0.016586913 -0.20226233 -0.059005387 -0.26402438 -0.07712375 0.018279223 0.28232428 -0.12027375
-0.13122657 0.07822962 0.1255497 0.07744354 -0.047981903 -0.5097627 -0.14948243 0.2758554
0.2044727 0.31682774 0.007169785 -0.104311526 0.17061701 -0.0618213 0.047947947 -0.03904208
0.03671359 -0.13624652 0.16833009 0.12394117 0.110970445 -0.06602915 0.053058717 0.09602985
0.09194284 0.2661791 0.17303337 -0.1361482 -0.022349969 0.30993485 0.04944573 0.11870654
0.21474457 -0.06849447 -0.09201526 0.18855992 -0.52031255 -0.1563902 0.060167957 0.032473676
-0.68122274 -0.48572204 0.40299758 0.23979582 -0.08585417 -0.12899761 0.05320331 -0.33909884
0.15170859 0.060759924 -0.04150087 0.013185478 0.06657842 -0.34364736 -0.1847682 -0.04042529
-0.18963069 0.052073784 0.14569218 -0.016536243 -0.32261565 0.19652162 0.034790106 -0.052504536
0.020351764 0.25869903 0.20836249 0.063854136 0.049445935 -0.61445326 -0.0035465288 -0.04557131
-0.120317645 0.29853806 0.07517666 0.4236136 -0.2045907 0.08334281 -0.062710166 0.012066276
0.15016067 0.5119144 0.072353594 0.15020233 -0.32144925 0.17230034 0.49166378 -0.07957336
0.3298024 -0.16321921 0.110750414 -0.54829687 -0.034630314 -0.4199455 -0.027822811 -0.19812213
0.24242046 -0.26131442 0.20461038 0.3747801 -0.19425194 0.28566164 0.028416017 0.14259349
0.6528427 0.05130241 -0.22437719 -0.5663498 -0.069956176 0.18408734 -0.16668434 0.4368078
-0.09720958 0.25548008 0.023712425 0.2108721 0.05195658 -0.24749787 -0.107231684 0.27636394
-0.18422782 -0.01119602 -0.26567072 -0.076040536 -0.3550703 0.004898802 -0.15381755 0.33243057
0.3489666 -0.08571596 -0.17422284 -0.04244212 -0.47413775 -0.36499247 -0.25028008 -0.025048329
0.4692917 -0.068425335 0.38125026 0.2809236 0.23508884 0.30489388 -0.1418701 0.07004698
0.30748156 0.039330326 0.068946965 -0.004216034 0.16846897 -0.42261997 0.2307864 0.1744675
0.4076196 0.3698593 -0.63892 -0.08429457 0.43159294 0.19722487 0.12265724 0.17026818
-0.032119304 -0.138544 0.49439842 0.6916676 0.10382817 0.37867537 -0.13961531 -0.004621897
-0.117105864 -0.14252512 -0.13720882 0.04765148 -0.68605864 -0.23023812 -0.32871884 0.10369153
-0.1372016 -0.101748765 0.010859255 0.12892307 0.48628974 0.41900364 0.04320132 -0.27300563
-0.15751679 0.058895208 -0.02355564 0.21135412 0.2490883 0.041433513 -0.250655 0.060574207
-0.0798382 -0.2072727 -0.14760609 0.22164309 -0.32965016 -0.35121354 -0.00875645 -0.15269831

net.2.bias f4 [128]
00000000: 723f af3e d7f9 b53e 84a3 433d b1ff 453d
00000010: d0de df3d eef9 4e3e 10dc 94bd 953b 8f3e
00000020: 3797 b4bd 6f05 b5bd fe9c a2bd 5375 613e
00000030: 2014 833e b978 5a3e cd5b e03d 58eb 92bd
00000040: 1121 65be 5567 da3d dad7 27be 26cd 423e
00000050: db24 ad3e abcf 963d ab71 ce3e 1959 98bd
00000060: a436 103e 0be2 c43d 0c46 e8bc 4895 973e
00000070: 1e99 6abe f90a 39be 21ad 38bd 4b65 853e
00000080: e215 62bd 5d26 fb3d 922d b13d 7493 113e
00000090: 21e9 1ebe d6d7 60be ed54 12be 725c 963d
000000a0: 0f26 803e a14c 4ebe 9f5f 3a3e df55 babd
000000b0: 17aa 693e c845 373e 23e4 f7be eb90 263e
000000c0: 3784 2ebe 4835 b83d fcc0 b1be f99d 45be
000000d0: 059b 2cbe 108e 89be 9035 9cbd bdcc d23c
000000e0: 61f5 9dbe 2cd5 bfbb 6d73 b43d e1f8 9f3e
000000f0: bf00 88be 0456 653d 671e 5d3e 84bc 83be
00000100: f08c 283e 8bf6 84be c349 11bd c86e a43d
00000110: f524 833e 85e1 8b3e 321e 09bb da55 8abe
00000120: abdf 643d e66c 333e 7659 e13d dd57 183e
00000130: 0058 7a3e e823 b43e 2cdf 25be 2c40 26be
00000140: 4165 83bd 2ded 943e 660f 6ebd 1238 f73d
00000150: 013f e43d c353 803e 180d aa3e 61f4 fd3c
00000160: 6c24 b3be 094b 9d3d 7128 143d 8f67 683e
00000170: 0c68 89be 8fd5 84be a8e6 9fbe 7833 f1bd
00000180: 10a8 613e df0e 5abe a75c dcbe 6602 8abe
00000190: 1c2f 2abe 416f e1bd 25e1 9b3e 442f 803e
000001a0: 9608 90bd 3e7c debd 55c4 9f3d 91f0 5d3e
000001b0: 36ff f03e f007 fc3c 4970 44be 2202 1cbe
000001c0: 6abc 93be 7138 b13d 3656 78be ae88 3b3e
000001d0: 06e6 b6bc 168b cfbd cb4b 2bbe 1494 6bbe
000001e0: 5227 443d 57e2 143e 2f5d 493e 9b48 07be
000001f0: 17d0 30bd f2d9 533e ba6f 59bd 93d0 9bbd
0.34228092 0.35542175 0.047763363 0.04833955 0.1093117 0.20212528 -0.07268536 0.27975145
-0.088179044 -0.08838927 -0.079401 0.22017412 0.25601292 0.21335115 0.109550096 -0.071737945
-0.22375895 0.1066424 -0.16390935 0.1902357 0.3381718 0.07363828 0.40321097 -0.07438869
0.14083344 0.09613427 -0.028353713 0.2960608 -0.22909972 -0.18070592 -0.045086984 0.26053843
-0.05519665 0.122631766 0.0865127 0.14216405 -0.15518619 -0.21957335 -0.14290209 0.07341851
0.25029036 -0.20146419 0.18200539 -0.0909841 0.2281879 0.17897713 -0.48416242 0.1626622
-0.17042623 0.089945376 -0.34717548 -0.19298543 -0.1685601 -0.26866198 -0.07627404 0.025732392
-0.30851272 -0.0058542695 0.08811078 0.31244567 -0.2656307 0.055990234 0.21593629 -0.25729764
0.16460013 -0.25969347 -0.035470735 0.08028942 0.25614133 0.27320495 -0.0020922539 -0.27018625
0.05587737 0.1752201 0.110033914 0.14877267 0.24447632 0.35183644 -0.16198415 -0.16235417
-0.06415797 0.290872 -0.058120154 0.120712414 0.111448295 0.25063905 0.33213115 0.031000318
-0.34988725 0.076803274 0.03617138 0.22695754 -0.26837194 -0.25944182 -0.31230664 -0.11777395
0.22036767 -0.21294735 -0.43039438 -0.26954955 -0.16619533 -0.11007548 0.3044521 0.2503606
-0.07032888 -0.10863541 0.07801119 0.216738 0.4706971 0.030765504 -0.19183458 -0.15235189
-0.28854686 0.086533435 -0.24251637 0.18313858 -0.02232648 -0.101339504 -0.16728131 -0.23005706
0.04788906 0.14539467 0.19664453 -0.1321129 -0.0431672 0.20688608 -0.053085066 -0.07608142

head_task.weight f4 [11, 128]
00000000: 32d1 70bf 4e8b d23c 9c11 29be b23a 6f3d
00000010: 53fa 6a3c 8b0b 063d 719a 243d fcbd aa3d
00000020: 4a1c 79be 3577 05bd 2bcd 313e 6fcb ecbd
00000030: c190 ca3d bae2 d1bd b31d f13d 5471 903e
00000040: 4bba 16be 97f6 e7be e98c c3bd 0266 47bd
00000050: 8d1e 0ebd 045e 0b3d 1a08 acbe a780 81bd
00000060: a757 96be 24f7 3b3d ddfe 37be fe32 0ebe
00000070: 3b34 833d aa37 e63d 629f 40be c312 e53d
00000080: 29fd 0e3e 65cf 8ebe d456 013e b72b 313e
00000090: e5bc 1abe 629e 22be 2c2f 373f c7b1 d23d
000000a0: ea80 acbd c710 15be a20a d43d 46c4 313d
000000b0: 9b08 323d 0ac5 a03c e3dc efbd 52f2 90be
000000c0: fd21 19bc d383 523d c4e3 443e 8ce2 0d3d
000000d0: 09a7 c53e d8a6 393e 4395 38bd 64eb 0d3e
000000e0: 5206 80bb f19f a43e 7c32 1f3e 46d2 51bf
000000f0: 90c6 143e 7699 6cbc 5530 203d a48a 283d
00000100: 092d aebd ca5f 39be dd57 01be 7404 7d3e
00000110: 45fb e3be 49d7 28bc f1b9 cdbd b0b5 9cbc
00000120: fdf8 2ebf 2a6e 393e 31be 5c3e 9b74 913c
00000130: f143 373e 5d0a 473d 3c14 e6bd add6 b03d
00000140: b12e 983d 5233 eb3c c182 f63b f62e 17be
00000150: fbb8 89be a473 edbc 2bb0 9cbe ea1c a5be
00000160: fbb2 543e 3c22 a3be 5411 c53c 1ae6 553d
00000170: ea3b 0a3e cd3a 4a3e 6f87 803d 2b6c 7e3e
00000180: d23b b0be 1e68 74be 2be5 093d 7181 203d
00000190: a0d1 b2be 7c06 863e a002 ee3c 7c84 b9be
000001a0: 29af dc3d c3cd 953d fb8c 5dbe 261c 0a3e
000001b0: b20e 403b ba82 a4bd 8928 0e3e d71a 77be
000001c0: 61c1 1c3d 2d81 f73c e314 fb3e 63c3 aabc
000001d0: 3562 c03c 2f6b a43d ad9d 313e 1a9e 8bbd
000001e0: 5f69 fbbd 02f0 e1bd 7331 563e e2b5 c2be
000001f0: 150a bbbd 4564 b93d 31f1 abbd 2de5 6a3e
00000200: f12a 0bbb 3130 3d3e d12d 8abe d462 c23d
00000210: 275d b63b 41b9 0abd 8ef0 9cbe d65e a6bd
00000220: cd18 413e 9a23 7c3c f50a d2bb f6ad 50bd
00000230: e999 1a3e 924d 99bd dffd 9cbe 3ac1 403e
00000240: 70a1 4abe 60c4 0e3e 55f9 003e 5512 47bd
00000250: c987 be3d 4b45 8b3c d7de 9bbe d565 0d3d
00000260: 0c19 b1be 3f9a 693d 312c 533d 47e1 f53d
00000270: 8c9e 6c3d 1044 ee3c 446d 09be d4db 9e3d
00000280: 9410 943d 88cd 6ebe dd79 9b3d 8027 6f3e
00000290: e047 06be 3756 80bd a201 5ebd 983b 7fbd
000002a0: 5855 253d cd2b 88be 9c20 87be 9b2a c43d
000002b0: 6657 563d d881 ad3d f176 87bd eb7d afbe
000002c0: 8d35 fdbd 1bec 553d a760 373d 69bb 6ebe
000002d0: 7606 d33d d141 7abd 3d60 25be 3169 abbe
000002e0: 5caa bbbc d0b1 a13c 6d73 923e 3ad2 1ebf
000002f0: 2347 8b3d 12da 7d3d 1d2b 66ba ac83 88bd
00000300: f01d d2bd ecf5 3dbe a747 143e 831b d83d
00000310: f360 d43c b4f0 1ebd e55b 3fbe 743a 283b
00000320: 6ee7 94bc c796 0d3d 1957 013d 89df cbbe
00000330: c2fb c7be e3a2 f8bb ad98 3cbe c905 003f
00000340: ae20 bfbe 035a 35be 2e04 82bd b4bb 9bbd
00000350: aa3f 96bd e16d 92bd 2c08 9b3c b6d0 42be
00000360: 29ec 3abe b6cf 9c3d 8b5e eb3a 1ff7 bcbd
00000370: a2d3 1b3e 8f37 d3bd 650e 97bd 4843 2d3e
00000380: f780 58bf da50 2cbe 5983 8bbe dc1d 643b
00000390: c4aa 23be 77df b43e 6ec0 35bc 5a8e 07bf
000003a0: 31df 963d b35f 3f3d 35e4 aebd 88e9 b23c
000003b0: ed62 e53d 546d 723c c188 063e 85ff 3a3e
000003c0: e56f 74be db79 253e 8f6a 783e 0b5c 173e
000003d0: bf4f 2cbe 0413 b43e 22ec c13e 8e18 91bd
000003e0: e7c0 803e 0b72 01be 4f61 853e baf1 06bd
000003f0: 105a 9ebc 11a8 863e 8ac6 b63d 862c 103d
-0.94069207 0.025701191 -0.16510624 0.058405586 0.0143419085 0.032725852 0.04018635 0.08337018
-0.24327198 -0.032584388 0.17363422 -0.115622394 0.09890891 -0.10248323 0.11773243 0.28211462
-0.14719503 -0.4530532 -0.09548361 -0.048681267 -0.034697104 0.034025207 -0.3359993 -0.063233666
-0.29363748 0.04588999 -0.17968316 -0.1388664 0.064064465 0.11241086 -0.188108 0.11185219
0.1396376 -0.27892604 0.12630779 0.17301832 -0.1511112 -0.15880731 0.71556354 0.102878146
-0.08423026 -0.14557181 0.103535905 0.04340007 0.043465238 0.019625206 -0.11712053 -0.28309876
-0.009346482 0.05139525 0.1922751 0.03463988 0.38604 0.18130052 -0.045064222 0.13859326
-0.0039070034 0.32153276 0.15546602 -0.81961477 0.1452887 -0.014440885 0.039108593 0.041147843
-0.085046835 -0.18102947 -0.12631173 0.2470873 -0.4452764 -0.010305234 -0.10045231 -0.019129604
-0.68348676 0.1810843 0.21556927 0.017755797 0.17897011 0.048593868 -0.11234328 0.08634696
0.07430781 0.028710995 0.0075229113 -0.14764008 -0.2689894 -0.028985806 -0.30603155 -0.32248622
0.207714 -0.31862056 0.024056114 0.052221395 0.13499418 0.19748993 0.06275832 0.2484595
-0.3442064 -0.23867843 0.033665817 0.039185945 -0.34925556 0.26176822 0.029053986 -0.3623389
0.10775597 0.073146366 -0.21635811 0.134873 0.0029305634 -0.080327466 0.1388265 -0.24131332
0.038270358 0.030212963 0.49039373 -0.02084512 0.023484329 0.08028256 0.17345305 -0.06817265
-0.12275957 -0.11032106 0.20917301 -0.3802939 -0.09132782 0.09052328 -0.08395613 0.22938986
-0.0021235312 0.18475415 -0.2698808 0.09491506 0.005565304 -0.03386808 -0.3065228 -0.08123557
0.18857117 0.015389347 -0.0064099976 -0.050947152 0.15097775 -0.074854985 -0.30662438 0.1882371
-0.19788146 0.13942099 0.12595113 -0.048601467 0.09303243 0.017000815 -0.3044345 0.034520943
-0.34589422 0.057031866 0.051555816 0.12005859 0.05776839 0.02908519 -0.13420588 0.07756773
0.072297245 -0.23320591 0.07591603 0.23354912 -0.13113356 -0.06266444 -0.054200776 -0.062312692
0.040364593 -0.26595917 -0.26392066 0.09578439 0.052329443 0.08472031 -0.06614483 -0.34275755
-0.123637296 0.05222712 0.04476991 -0.23313679 0.10303967 -0.061097924 -0.16149993 -0.33478692
-0.022908382 0.019738108 0.28603688 -0.6203953 0.068006776 0.061975546 -0.0008780228 -0.066657394
-0.102596164 -0.18550843 0.14480458 0.105521224 0.025925135 -0.03880377 -0.18687399 0.0025669606
-0.01817676 0.03456762 0.031577203 -0.3981898 -0.39059263 -0.007587777 -0.18417616 0.5000883
-0.3732962 -0.17710118 -0.063484535 -0.07604161 -0.07336362 -0.07149864 0.018924795 -0.1902493
-0.1825415 0.07656805 0.0017957253 -0.09226822 0.1521745 -0.10313331 -0.073757924 0.16920197
-0.84571785 -0.16827717 -0.27248648 0.0034807837 -0.1598311 0.3532674 -0.011093242 -0.52951586
0.07366789 0.046722125 -0.08539621 0.021839872 0.11200509 0.014796574 0.13138105 0.18261535
-0.2387081 0.16159765 0.24259399 0.14781205 -0.16827296 0.35170758 0.37875468 -0.070847616
0.25147173 -0.1264116 0.26050803 -0.032945372 -0.019330055 0.263001 0.08924587 0.03519871

head_task.bias f4 [11]
00000000: f0a6 3b3d e902 0ebe 8ad9 253e af84 cf3d
00000010: 70ef 303e 958e 97bd d796 743e 7b33 d23d
00000020: 3be3 da3d 540c 1b3d f406 3d3d
0.0458135 -0.13868298 0.16196266 0.10132729 0.17278838 -0.07400242 0.23885666 0.10263725
0.10687872 0.037853554 0.04614921

head_move.weight f4 [8, 128]
00000000: 683c 87bf 0c2c b0bd a98f e8bd 1874 2e3d
00000010: 5942 a6bd 67fc 82bc 2d57 ac3d 41c6 6d3e
00000020: afc1 dabe 6a84 363c a4e9 bf3e 6e1f d8bc
00000030: cf83 52bd c4af 06be 77d9 383e a278 843e
00000040: b8d3 22be de0c 03bf b75a 2cbe 6b7f c6bd
00000050: be23 f6bd f783 8c3d b4c7 98be bb52 47bb
00000060: 4f5a 48bd 41c9 bebd dfb6 50be a25a 28be
00000070: 4a84 a03d d854 ae3d c7d5 bbbe 60a5 e73c
00000080: 85da 953e 6915 4fbe 8c58 043e 88ef 3a3e
00000090: 448e 3a3e 6c0d b13d ce0f 813f 6245 643e
000000a0: 17cc 913c 5b8c bb3d c469 cdbd ee92 413c
000000b0: 660e 3bbe af7f c43d d460 133e 77d1 2ebe
000000c0: f36a 713d 94f0 a63d 8de3 0e3e 591d 1e3e
000000d0: a6d1 a83e fb6e 083e d5c1 a23c 53cf 563e
000000e0: f98d 2b3c 5fdc 923e 8902 173e dc1f 2cbf
000000f0: 50cf 303e 27a4 b3bd 70db 9bbd 1f53 173e
00000100: 3ada 3cbe e89c 0abe f40d 9cbe 21a0 3b3d
00000110: b55f 1ebf de7d c6bd 2042 85bd 375d bc3d
00000120: dc2e 39bf d50e f53d 3695 4a3d 22cb 903d
00000130: 219f 583d 0f3a 28be a76d a73d 924d 5dbd
00000140: 23e5 b23e 2149 1d3d d5ed 4abe 7e58 3abe
00000150: d951 ac3c 5083 4fbe 074e 80be faaa 3cbe
00000160: be27 7f3e 86e0 35be a951 38bb f3ce e13c
00000170: 28a4 3b3e b577 9a3e 04ce 4e3c 1910 863e
00000180: b5e1 77bd bafb 90be 6148 253e 0fff f93d
00000190: b1e7 7bbe 7a94 d13d ff85 53be c031 9abe
000001a0: 9245 cebd 090e 3f3d 4041 e4bd e2f4 453b
000001b0: 2306 7abd 69d2 73be b01f 993d da7c acbd
000001c0: 03e0 7e3e fca6 f9bd df4c f43e b109 22be
000001d0: c796 713e f1b0 e73c cb3b 643d 6e9f 1e3d
000001e0: 07b9 1ebe 8fc4 373d 187f f63d d1f8 d9be
000001f0: dbef 363d 4a99 cf3c c227 a5bd ace0 433e
00000200: 21c6 393e 3182 2dbe b83a ea3d 08ce 043e
00000210: d596 30bb d31d afbd 36d3 25bd 8c39 a4be
00000220: de25 1fbc 78ee 61be 84dc 5abe 53de b7bd
00000230: cfdd 18be 9e40 f3be df21 5e3c 06eb 10be
00000240: 6fdc f1bd 189e a53d bb71 17be 8158 3fbb
00000250: b901 d33e 2422 21be 33df 74bd 58c3 8e3e
00000260: c720 a4bd c445 c63e 117e c9bc 87ef f6be
00000270: 5c45 47be 74f1 84be 1981 013e 74b3 1c3e
00000280: c410 d7bd 0b96 9f3d ede1 063d 84d6 31bb
00000290: 4b6b 023e 481c 35be 31ec 4a3d 7efc 24be
000002a0: 0f97 41bc 6632 c03d 4db7 a8be ddb1 3f3e
000002b0: 8f7e 9c3d 8cd9 753e fbd4 8abc 1be9 c83d
000002c0: ffad 503e edbe 283c 874c 61be 5c4e 8dbd
000002d0: 4ce4 79bd 13a7 90bc fb33 4cbd ccec 2e3c
000002e0: 7a23 90be 264d 69bd 63f5 833d 237c 65bd
000002f0: 18d9 a9bc 0b3c 9e3b b35c 0e3d 2acd 463d
00000300: f8fe d53d f5e7 cb3c 226c f5b9 f13b 3d3e
00000310: c67c a43d f8e5 b93e b8e4 b73d 3f3f 6dbe
00000320: aeed 83bc 6cf2 a73c b93b 773d f46c b0bd
00000330: c0ed d13b a9cb b03d 871d 3dbe a804 07bd
00000340: ab25 00be 0bb2 e3bc 144f 53be 0179 173e
00000350: 01ec 0c3d c9d9 f13d f8dd cd3d 624c 903d
00000360: 33fd a43d 7201 bc3c 85f8 313d fa0c 633d
00000370: 50d8 65be d8d1 c4bd 9618 393e 93f6 d63d
00000380: 63a0 38be 413e 21be ba51 33be 133e ea3d
00000390: 53b4 0b3e 7fa5 2fbc ca19 0b3f dbdf 1e3d
000003a0: c483 df3b 9b89 bbbe 5788 b4bd b891 2dbc
000003b0: be19 3f3d 4566 1c3e 904f 31be 46fe 9c3d
000003c0: c1f8 04be 88a3 a43e ba18 393e 99a5 943d
000003d0: 5a7e 013d d9c9 b5bc 46b7 babc e245 a73e
000003e0: bbc3 383e c42c 93bd 5af9 debe 6726 923d
000003f0: 9428 c3bd f430 22be d85d 0ebd a737 a9bd
-1.056531 -0.08602151 -0.11355526 0.042591184 -0.081181236 -0.015989495 0.08415065 0.23220159
-0.42725894 0.011139968 0.3748294 -0.026382174 -0.051395234 -0.13152987 0.18051706 0.25873286
-0.15901077 -0.5119151 -0.1683148 -0.09692272 -0.12018536 0.06861108 -0.2983986 -0.0030414301
-0.04891425 -0.0931573 -0.2038226 -0.16440824 0.07837732 0.085122764 -0.36686537 0.0282771
0.2926828 -0.20223011 0.12924403 0.18255436 0.18218333 0.08645138 1.0082948 0.22292092
0.017797513 0.0915763 -0.10029939 0.011814816 -0.18267211 0.09594666 0.14392406 -0.17072092
0.058939885 0.081513554 0.13953991 0.15440883 0.3297245 0.13323586 0.019867817 0.20977525
0.010470861 0.28683755 0.14747061 -0.67236114 0.17266583 -0.08771544 -0.07610214 0.14777802
-0.18442622 -0.13536417 -0.30479395 0.045807008 -0.6186479 -0.09691976 -0.06506753 0.09197467
-0.72337127 0.119657196 0.049458705 0.070699945 0.052886132 -0.16428398 0.081752114 -0.054029055
0.34940442 0.03839982 -0.19817288 -0.1819782 0.021035122 -0.20264935 -0.2505953 -0.18424597
0.24917504 -0.1776143 -0.0028124845 0.027564501 0.1832434 0.30169454 0.01262236 0.26184157
-0.060517985 -0.28317052 0.16140892 0.12206852 -0.24600102 0.10233398 -0.20656584 -0.3011608
-0.10071863 0.046644244 -0.11145258 0.0030205776 -0.06104101 -0.23810734 0.07476747 -0.08422251
0.24890141 -0.12190053 0.47714898 -0.1582401 0.23592673 0.028282614 0.055721086 0.038726263
-0.1550027 0.044865187 0.1203596 -0.42572644 0.044662338 0.025341649 -0.08064224 0.19128674
0.18141986 -0.16944195 0.11436981 0.1296922 -0.0026945372 -0.085506104 -0.04048463 -0.32075155
-0.009713618 -0.22063625 -0.21373183 -0.08977952 -0.14928363 -0.47510237 0.01355788 -0.14152154
-0.118096225 0.080867946 -0.14789478 -0.002919704 0.41212252 -0.1573568 -0.05978317 0.2788341
-0.08014064 0.38725102 -0.024596246 -0.4822962 -0.19460052 -0.25965464 0.12646903 0.15302831
-0.10501245 0.0779229 0.032930303 -0.0027135918 0.12736242 -0.1768657 0.049541656 -0.16111943
-0.0118158 0.09384613 -0.32952347 0.18720193 0.07641327 0.24008769 -0.01694726 0.09810086
0.20378874 0.0102994265 -0.22001849 -0.068997115 -0.061008736 -0.017657792 -0.04985426 0.010676574
-0.28152066 -0.05695834 0.06443288 -0.05602659 -0.020733401 0.004828935 0.034756374 0.048535503
0.10449022 0.02489088 -0.00046810607 0.18479897 0.08031611 0.36308265 0.089791715 -0.23168658
-0.016104545 0.020501338 0.06035969 -0.08614531 0.006406516 0.08632595 -0.18468295 -0.032963425
-0.12514369 -0.027794858 -0.20635635 0.14792253 0.03440476 0.11809117 0.10052103 0.07045819
0.080561064 0.022949908 0.043449897 0.055432297 -0.22445798 -0.09610337 0.18075785 0.10496249
-0.18029933 -0.15746404 -0.17511645 0.11437621 0.13643007 -0.01072061 0.54336226 0.038787704
0.0068211276 -0.36628422 -0.08815067 -0.010593824 0.04665541 0.15273388 -0.17315507 0.07665686
-0.12985517 0.32156014 0.18075839 0.07258148 0.03161464 -0.022190975 -0.02279247 0.32670504
0.18043415 -0.07186273 -0.43549615 0.07136231 -0.09529224 -0.15838987 -0.034757465 -0.08262568

head_move.bias f4 [8]
00000000: 6875 97be 682e a53d c7fb b23d 7295 ff3d
00000010: f2d7 1d3e a61d 83bf c399 92bf 8903 77bf
-0.2958176 0.08065492 0.08739429 0.12479676 0.15414408 -1.0243423 -1.1453174 -0.9648977

head_comm.weight f4 [8, 128]
00000000: be7c 4a3e e98a 303e dadd 233e da50 7c3e
00000010: 5bcb 92bf 0ac9 103e bd0c ee3d 2ce7 d3be
00000020: 8ce7 59be e594 19bf a965 523e 82ea 80bb
00000030: cc8c be3d 862d be3e f283 183d a704 3f3e
00000040: dbdc 92be 327e 1c3e ce32 a23e 7aed fcbe
00000050: 3aeb d63e b458 9e3e 1146 e23c c35b 903e
00000060: 63a5 8a3e dc71 693e bf72 31be 58b4 813e
00000070: 9c75 00bf 5529 093e 4e7c b73d f83d 303e
00000080: 9894 613e 035f 713e 4bfc 8e3d 1029 883d
00000090: 8068 7ebe 6509 64be 11da d2bd 7e0c abbe
000000a0: 8659 8e3a 8081 e2bc 9df4 96be aaa6 aaba
000000b0: bd03 163e 8eab dfbe 3c3b e5bd 5f58 473e
000000c0: 36b5 af3e f559 11bf e566 033e c652 98ba
000000d0: aedd 0ebe 2b31 8d3e fe3a 3a3e 1428 703d
000000e0: c8dd 01bf 67b8 b23d b1b5 cc3e 9659 553e
000000f0: c3f9 c9be 7d58 df3e a605 b63d 4284 c93c
00000100: 772b 91be f603 dc3b b052 913d 5b24 14be
00000110: 0fdb 163e c339 553d b0af 69be cb27 d7bd
00000120: d807 2c3d 5185 ce3d f547 293e 837f 8f3d
00000130: b9fe 573e f393 433d e5b5 1fbe a8e8 0d3e
00000140: 8507 a13d 7784 1d3e 016b 0bbe fea5 593d
00000150: 4564 12be ab0e 5fbc 5cb0 173e 257e ca3d
00000160: 58ac 1d3e 282e a3bd 3356 973e db94 993e
00000170: 2875 5a3d 8058 153e be9e 45be a439 05be
00000180: 5ae2 023e f88b 803c 8602 59be 8f17 aabe
00000190: 5795 b0bd 43c9 2ebe 5433 b13e e9cc 663d
000001a0: 69c2 b53e 2feb ffbe b897 053d 17bc 3ebd
000001b0: cde7 d93d 1e0e be3b 521d 8d3e fdc1 ce3e
000001c0: 22fc 94bd 7ac7 d1be c984 21be d8b5 923d
000001d0: c4e7 cdbd 4701 30be d2a9 80be 0198 46be
000001e0: 2a47 883c 50ae a23d 1671 093e 0ade b63d
000001f0: aa06 683e 88e3 de3d eecf 1a3e df4e 42bd
00000200: 87e3 253e e34e 82bc 28d6 00be 8a7e 77be
00000210: b525 903f d329 273c 8fe9 1dbe bd21 f03e
00000220: 765e 8c3e e6fd f93e c2dc 37be bf93 58bd
00000230: 08c9 363d 9e86 8bbe 8bdc 27be 631d 35be
00000240: eb98 a13e 0382 933d 83a8 b3be e603 e73e
00000250: b20e 6dbe 772a b0be f6fd 6bbd d7ff c0be
00000260: db37 2abe c443 4ebe c799 c73e 1ef0 cbbc
00000270: e418 c03e 892e 9ebe 28d3 073e d5d1 0fbe
00000280: 1014 f4be 3fe5 583d e19f e03d 8209 8ebe
00000290: a99e 713e 0e5c ac3d bd3c e8bd c3a4 973e
000002a0: bd20 083e 3c8e 7c3d 01fa d03e 7547 3e3e
000002b0: d57c 70bc b8ae 053f 54b8 4bbd 6389 8a3d
000002c0: 9e55 93be 144b 073f 4aa2 9abe 657c 5abd
000002d0: 6657 9a3d d788 66be 8aa2 e1bd 7682 873d
000002e0: 5757 bd3e 18a9 6cbd d22a 0fbf 9f46 eb3d
000002f0: c36e 6b3e 0026 05bf e238 c63d ebde 7bbb
00000300: 1a87 bd3e 4fc1 433d c84b d43d dce8 c43d
00000310: a33d 6a3d fdc3 1dbd 18bd 7d3e fdb8 d13d
00000320: 1f0b 5f3e a545 33bc 30d5 08be 3684 febd
00000330: 2608 a2be a12d 433d df0e 403e 0595 863d
00000340: 9ef0 49be d331 25bd 0edf 953e b91c 963d
00000350: 6c87 f03d cb42 3c3e 1fe6 393e 30eb 723d
00000360: e679 5cbe a1be e03d 7030 8abd 41d0 91be
00000370: 6faf 63be 3cd8 10be dace 843d 1865 293e
00000380: a8f2 54bc 8356 87bd c474 f63d 9678 1d3e
00000390: 9ad8 5fbd 54d4 633d 4c79 7ebe daca a63d
000003a0: 714b 94be 12f4 d93e 0c66 e1bd 26ea a63d
000003b0: 01fd 483d 0bf4 63bd 7c67 94be 5768 cdbe
000003c0: 9c2c aebc 8f00 023f 2e6f babd 2493 fb3d
000003d0: 4efc 8ebd 972b ba3d 6b0a 2c3e 95d9 533d
000003e0: f83e 883d 9f83 67be 5e40 6fbe 2cc4 073d
000003f0: 1080 72be 1ff5 adbd c4d6 e5bd 1e61 f63d
0.19774148 0.1724049 0.16002598 0.24640217 -1.1468309 0.1413919 0.116235234 -0.41387308
-0.21279734 -0.5999282 0.20546593 -0.0039342055 0.093041986 0.37144107 0.037235208 0.18654118
-0.28684124 0.15282515 0.31679386 -0.4939993 0.4197634 0.3092705 0.0276213 0.2819501
0.27079305 0.2279734 -0.17328928 0.25332904 -0.5017946 0.13394673 0.08959256 0.17211139
0.2202934 0.235714 0.06981715 0.06648457 -0.24844551 -0.22269209 -0.10295499 -0.33407968
0.001086042 -0.027649641 -0.294835 -0.001301964 0.14649864 -0.43685573 -0.11192939 0.19467305
0.3431794 -0.5677789 0.1283222 -0.0011621348 -0.13951752 0.27576575 0.18186566 0.05863197
-0.50729036 0.08726578 0.3998237 0.20834956 -0.39448366 0.436222 0.08887796 0.024599198
-0.28353474 0.0067143394 0.070958495 -0.14466994 0.14732002 0.05205704 -0.22820926 -0.10505637
0.041999668 0.10084022 0.16531356 0.07006743 0.21093263 0.047748517 -0.15596731 0.13858283
0.07862762 0.15382563 -0.13615038 0.053136818 -0.14296062 -0.013614337 0.1481337 0.098873414
0.15397775 -0.07967788 0.29557952 0.2999638 0.053334385 0.14584541 -0.19298837 -0.1301027
0.12781659 0.015691742 -0.21192369 -0.332211 -0.08622234 -0.17068963 0.34609473 0.05634776
0.35499886 -0.49984118 0.032615393 -0.046566095 0.106399156 0.0058000227 0.27561432 0.40382376
-0.07274653 -0.409725 -0.1577331 0.0716359 -0.100539714 -0.17187987 -0.25129563 -0.19393922
0.016635496 0.07943404 0.13422045 0.08929069 0.22658792 0.10883242 0.15118381 -0.0474385
0.16200076 -0.015906757 -0.12581694 -0.24169365 1.1261507 0.010202843 -0.15421127 0.4690074
0.27415818 0.48826522 -0.17955306 -0.052875277 0.044625312 -0.27251142 -0.16392724 -0.17686991
0.3156198 0.07202532 -0.35089502 0.45120162 -0.23150137 -0.34407398 -0.057615243 -0.3769519
-0.1662287 -0.20143038 0.3898451 -0.02489477 0.3751899 -0.30894879 0.13264143 -0.14044888
-0.47671556 0.052953 0.109679945 -0.2774163 0.2359568 0.084159955 -0.1133971 0.2961789
0.13293739 0.061659083 0.40815738 0.18581946 -0.0146782 0.52219725 -0.049736336 0.06764486
-0.28776258 0.52848935 -0.30201942 -0.053341288 0.07536201 -0.22513138 -0.1101733 0.0661668
0.36980698 -0.057778448 -0.55924714 0.11488079 0.22991471 -0.5201111 0.09678818 -0.003843243
0.37017137 0.047791775 0.103660166 0.09614727 0.057187688 -0.038516987 0.24779165 0.10240362
0.21781586 -0.0109418975 -0.13362575 -0.12427561 -0.31646842 0.047650937 0.18755673 0.06571392
-0.19720694 -0.04033072 0.2927174 0.07329697 0.1174458 0.18384854 0.1815419 0.059306324
-0.21530876 0.109738596 -0.0674752 -0.28479198 -0.22234891 -0.14144987 0.06484766 0.1654247
-0.012997307 -0.06608298 0.1203399 0.15378031 -0.054649927 0.055622414 -0.24850959 0.081441596
-0.28963807 0.42569023 -0.11005792 0.08150129 0.04906941 -0.05565266 -0.28985202 -0.40118667
-0.021261506 0.507821 -0.09103237 0.12283924 -0.06981717 0.09090345 0.16800849 0.051721174
0.06652635 -0.22608803 -0.23364398 0.03314607 -0.23681664 -0.08494019 -0.11222604 0.120302424

head_comm.bias f4 [8]
00000000: 6949 3d3d 0d37 b03d 2d92 9abe 6656 95be
00000010: 02a5 9dbe 801d afbe b91d 8dbe 2da1 c2be
0.046212588 0.0860425 -0.30189648 -0.2916748 -0.30789953 -0.34202194 -0.2756174 -0.38013592

head_mode.weight f4 [2, 128]
00000000: 5619 efbc 4788 dabc 2dd3 2d3e 20f1 393e
00000010: c068 93bf f6f6 4b3c 0b0f 2d3e 585a bdbe
00000020: e428 89be b81b 1ebf 0f42 1b3e 5af3 b3bd
00000030: fbe9 bd3d 301b b23e a409 a2bb 65cf 3c3e
00000040: 75b9 4abe 506d 103d b90b bd3e 7c40 dabe
00000050: 0e47 923e cdc3 a43e 7bf1 593d c0ab 8c3e
00000060: 0bdd e13d 597f 6c3e 9170 18be 399b c93d
00000070: 5d24 dbbe 3885 7a3e 3cec fbbc 6b38 de3d
00000080: 0107 c33e 7080 803d 439d 8f3c 8603 213e
00000090: c3e0 67be a659 4fbe 7fc9 893d bd51 9abe
000000a0: e885 c2bd 1e09 9dbc ba50 e2be a97f 27bb
000000b0: eb16 5e3d c47b 0dbf 73fa 94bd 7342 933c
000000c0: 25df b43e 02f0 1cbf a67c 8a3e a277 de3d
000000d0: f5b8 1abd 5515 aa3e 9d79 b23c 742f 80bb
000000e0: 181d dcbe 2a05 85bc a90e e13e e4f3 a83d
000000f0: 0785 56be 5701 ed3e 885d 6fbb 77b3 8c3d
00000100: 5861 abbe 6719 98bd dd47 a5bd 7e0e 2bbe
00000110: 755d 993c 3d0c ee3c abab 84be 4e2b 02be
00000120: f676 15bd cbc3 663c b3df f03d 9482 fe3d
00000130: 93b2 823e 6517 acbc ceee 12be d6e4 ac3d
00000140: 4708 883d 08aa 9b3d 737d 6bbe 66bd 11be
00000150: b1de 50be 774b b0bd dcfa b9bd 8a7e d43c
00000160: 3106 243e 058b ecbd f143 4c3e 5253 923e
00000170: 12aa 623e 150b 203e eaf8 83bd 58d7 15bc
00000180: 0e3e b33c 4192 a6bc 6650 c6bd d6c7 49be
00000190: 7d46 1abd 6b45 5b3c 1c4b 5a3e 777b d0bd
000001a0: 82db 9a3e 4619 cbbe 9b3d 013d 152c d8bd
000001b0: 0171 88bb 5eca 6ebd 295e c33e 5973 af3e
000001c0: 4898 5f3d 7943 cfbe 06fe ad3c 3c3d e5bd
000001d0: 6b79 013d 5ea6 6bbd 170e 0cbe 5367 89bd
000001e0: 0c27 423d 1866 e03c c8c7 9b3d 4392 a43d
000001f0: f023 9a3e 5397 0d3e c1b0 d33d c022 14bd
00000200: 7e42 2e3d 0703 b0bd 15c6 08be d636 7bbe
00000210: 70d3 943f d6f5 51bc 752f f4bc ffaf 013f
00000220: acd1 463e 58b2 0a3f e914 89be 5827 ad3d
00000230: ea95 ce3b 225e 56be f4ad d9bd 1aca 11be
00000240: d7de 933e 910a 8fbd 2b13 b0be 39fd 0c3f
00000250: 118b afbe f568 4bbe 99fa 14bd fc8f b4be
00000260: 31cc 7abe f8b8 18be ccea 923e 0bb4 eebd
00000270: 2c14 e53e bc15 16be c07c bc3d cda7 afbd
00000280: 8816 8bbe 1cd7 b5bc dcd0 3a3c 9b90 5abe
00000290: 3b56 dc3d 0724 e93d 49aa 05be ddd9 c83e
000002a0: b584 2b3e 59e9 61bc 7acb c63e f135 9b3d
000002b0: c807 07bd c32b 0d3f 1847 5abc 0e9c a5bd
000002c0: 4a18 adbe 2c52 133f d425 acbe f519 66bc
000002d0: 8256 133b ecbe a6be e23c e6bd 8421 da3c
000002e0: 66d4 ba3e 5ad1 e93c 9989 e9be 345b c13c
000002f0: a756 893e 5a8c 01bf 2d3e 1fbd a656 f0bb
00000300: 89aa b13e 6199 75bd 8d00 c6bc 718c 8b3d
00000310: 3d52 a5bd 6555 87bd b3a6 6f3e 3732 163d
00000320: 9b70 283d dce0 03be 7237 3fbe b634 88bd
00000330: 0988 e7bd 7cba e0bd dbb2 bb3d 1f3c 0cbe
00000340: fcf7 0fbe ffbd d9bd fbeb 773e f9ab 43ba
00000350: 634b 5d3e e4e2 373e ef6f 8c3c fe59 e53d
00000360: ed45 90be 4146 d23d 6b9e 4dbe dd7b 6cbe
00000370: 8088 36be da9a 57be aa11 e73d 4e85 2d3e
00000380: f17c 77bd 1d33 cd3d 5bca f73d a0ca 763e
00000390: 21c9 253e 8ebd f13c e919 9bbe 9c21 be3c
000003a0: c6d9 adbe 5194 ea3e 3734 0ebd b97f ac3d
000003b0: 7a29 723d fabc a13d c7ae a3be 665a bdbe
000003c0: ec4f 643c dc26 053f 26d4 1a3d 653e 453d
000003d0: 591e a63c 9fb1 3e3d 5ca3 be3d c5b0 2c3d
000003e0: 9fcd 21bc 9d52 35be 1ad2 17be e5fa 7cbd
000003f0: 7588 94be 38a9 c5bd 950d 04be 5750 7dbc
-0.029186886 -0.02667631 0.16975088 0.18158388 -1.1516342 0.012449017 0.1690027 -0.3698299
-0.2678901 -0.61761045 0.15161918 -0.0878665 0.09273144 0.34786367 -0.004944997 0.1843849
-0.19797309 0.0352605 0.36923006 -0.42627323 0.28569835 0.32180634 0.05320881 0.27474785
0.11028489 0.23095454 -0.1488669 0.098440595 -0.4280118 0.24464881 -0.030752294 0.108506046
0.3809128 0.062744975 0.017531043 0.15724 -0.22644334 -0.20249042 0.067278855 -0.30140486
-0.09498197 -0.019169386 -0.44202214 -0.002555827 0.054221075 -0.55266976 -0.07274332 0.017976021
0.35326496 -0.6130372 0.27048224 0.10862662 -0.037774045 0.332194 0.021786505 -0.003911907
-0.42990947 -0.016237814 0.43956497 0.082496434 -0.20949183 0.46290085 -0.0036524255 0.06870168
-0.33472705 -0.0742672 -0.080703475 -0.16704747 0.018721322 0.02905857 -0.25912222 -0.12711832
-0.036490403 0.014084767 0.11761417 0.124272496 0.25526866 -0.02100725 -0.1434891 0.084420845
0.06642204 0.0760079 -0.22997074 -0.14232406 -0.2039745 -0.08608144 -0.09081051 0.025939245
0.16017987 -0.11549953 0.19947793 0.28579193 0.22135189 0.15629227 -0.06443961 -0.00914558
0.021880176 -0.020333411 -0.096833035 -0.19705138 -0.03766488 0.01338325 0.21317714 -0.10179799
0.30245596 -0.3966772 0.031552892 -0.10555283 -0.0041638617 -0.05829846 0.38157776 0.3426769
0.054588586 -0.40481165 0.021239292 -0.1119332 0.031609934 -0.057531707 -0.1367725 -0.06709161
0.04740052 0.027392432 0.076064646 0.0803571 0.30105543 0.13827257 0.103364475 -0.036165953
0.04254388 -0.085943274 -0.13356812 -0.24532637 1.1627026 -0.0128149595 -0.029807786 0.50659174
0.19415921 0.5417838 -0.26773766 0.0845477 0.0063044922 -0.20934346 -0.10628882 -0.14237252
0.2888095 -0.06984437 -0.34389624 0.5507389 -0.34285787 -0.19864257 -0.0363718 -0.352661
-0.24491955 -0.1491431 0.2869476 -0.11655434 0.44741952 -0.14656729 0.09203482 -0.08576927
-0.27165627 -0.022197299 0.011402335 -0.21344225 0.10758635 0.11383825 -0.1305324 0.39228716
0.16749842 -0.013788545 0.38827115 0.07578648 -0.032966405 0.551449 -0.013322614 -0.08086406
-0.33807594 0.5754726 -0.3362261 -0.014044275 0.0022481983 -0.32567537 -0.11242081 0.02662731
0.36490172 0.02854221 -0.4561279 0.02360306 0.26823923 -0.50604784 -0.038877655 -0.007334548
0.3470042 -0.059960727 -0.024170185 0.068138964 -0.08072326 -0.066080846 0.23403434 0.036668982
0.041123014 -0.12878746 -0.18673494 -0.06650679 -0.113052435 -0.10973069 0.09164973 -0.1369481
-0.14059442 -0.10631942 0.24211113 -0.00074642856 0.21610789 0.17957646 0.017143218 0.11198805
-0.2817835 0.10267306 -0.20079963 -0.23094125 -0.17825508 -0.21055165 0.11282666 0.16945383
-0.060421888 0.10019515 0.12099143 0.24100733 0.16190006 0.029509332 -0.30293205 0.023209386
-0.3395521 0.4581628 -0.034717765 0.08422799 0.059121586 0.078973725 -0.31969282 -0.3698303
0.0139350705 0.5201242 0.037799977 0.048155207 0.020278143 0.04655611 0.09308502 0.042160768
-0.009875684 -0.17707296 -0.14826241 -0.06176271 -0.29010358 -0.096514165 -0.12895806 -0.015461049

head_mode.bias f4 [2]
00000000: 9bd0 dd3c 8160 40bc
0.02707701 -0.011741758
