outputs/checkpoints/mappo.pt (torch, 480125 bytes, 17 tensors)

net.0.weight f4 [128, 44]
000000 e8 89 0a 40 36 48 12 3e 92 a4 b6 3e 27 f4 81 3f
       2.1646671 0.14285359 0.35672432 1.0152634
000010 f4 cc 41 3e e3 78 2a be 7e 73 85 3d 28 ca ee 3e
       0.1892584 -0.16647677 0.06516169 0.46638608
000020 28 2f 11 3e d4 26 44 be b1 bb ba bd 74 01 3a be
       0.14178145 -0.19155437 -0.091178305 -0.18164617
000030 12 0a 24 bc 17 75 9f 3d 14 71 1b be 16 47 39 3d
       -0.010012167 0.07786005 -0.15179855 0.04523381
000040 79 1b 0a 3e e5 87 16 be 21 fe 1d 3e 28 92 35 bd
       0.13487042 -0.14700277 0.15428974 -0.04432884
000050 68 0c b6 3e 04 b4 3b 3e 1e 6d 9c 3d 8e 42 46 bd
       0.3555634 0.1833039 0.07638 -0.048403315
000060 96 89 2d bd 11 84 3d 3e 55 9d e5 be 35 7b 01 3c
       -0.04236754 0.1850741 -0.44846597 0.00790291
000070 f8 68 66 3d a3 02 08 bf 0d b6 1f bc 41 0d 83 3d
       0.05625245 -0.53129023 -0.009747994 0.06399012
000080 02 64 0e 3c 6e ff aa 3d fa ef 93 3d 54 30 8e be
       0.008690836 0.083495006 0.07223506 -0.27771246
000090 a7 e7 b5 3d 3f ba ab 3e cc 2a 93 bd 1a c8 15 3d
       0.08882075 0.33540532 -0.07185897 0.036567785
0000a0 d7 49 fa be 4f a6 57 3d cc 89 eb bc 19 eb b7 bc
       -0.4888446 0.05264884 -0.02875223 -0.02245097
0000b0 ab 4a 63 3f ba 10 36 bf bf d0 af bb 9c 99 9b bf
       0.8878581 -0.7111927 -0.0053654606 -1.2156253
0000c0 33 d6 92 be 21 c4 93 ba 71 54 dc 3e c1 85 4c bf
       -0.28679046 -0.0011273661 0.43033174 -0.7989159
0000d0 27 40 50 3f 53 63 10 bf 9b 8e 27 3e ad e7 a5 3e
       0.8134789 -0.56401557 0.16362993 0.32403317
0000e0 11 1d 3a 3f cd 2c af 3e 15 5e 65 3e 7d 98 80 bd
       0.727006 0.34213868 0.2239917 -0.06279085
0000f0 21 f5 21 3f 7f 98 c1 3d 75 7a a0 bd 0f d8 95 3c
       0.6326466 0.094529144 -0.07835857 0.018291501
000100 e7 8a e3 3e 20 a7 0c be 6c 71 49 be 96 a7 3e be
       0.44441912 -0.13735628 -0.19672173 -0.18618616
000110 fd 0d ab 3c 4d 42 53 be e6 31 32 3f 00 d0 7b be
       0.020880694 -0.2063076 0.6960739 -0.24591064
000120 29 ad 57 3e da cf c3 3e 93 70 97 3d 2d 85 0f be
       0.21062149 0.38244516 0.07394519 -0.14015646
000130 3e 36 1d be 9b 89 26 3d a3 4d b0 3b 01 4b d3 be
       -0.15352723 0.040658575 0.005380349 -0.4126816
000140 0f 32 08 be f9 6e bf be a7 de b7 3e 88 77 2d be
       -0.13300346 -0.37389353 0.35912058 -0.16940129
000150 c0 08 05 3f cb 48 af bc 91 be 55 3d 06 33 d0 bc
       0.51966476 -0.021397015 0.05218369 -0.025414955
000160 ed bb 0e 40 1d 1f 88 3f 1e 01 b2 bd b1 39 14 be
       2.23022 1.0634495 -0.08691619 -0.14475133
000170 53 64 0d 3d 81 f7 3c 3e d2 7c 57 3f d2 1e 43 3e
       0.034519505 0.1845379 0.84174836 0.19054726
000180 6a c1 b2 3e b5 61 90 be 58 87 50 bf 1c b6 63 be
       0.34913188 -0.28199545 -0.8145652 -0.22237438
000190 67 63 89 be 4f 91 1e bf 33 2e a2 be 21 37 80 be
       -0.2683365 -0.61940473 -0.31675872 -0.2504206
0001a0 1c b7 b3 3d c3 52 de 3b 83 d7 ef 3d cd ab 07 be
       0.0877516 0.0067847683 0.117110275 -0.1324913
0001b0 8c 51 94 3d 79 77 1c be 96 a5 ea bc b9 86 0f bd
       0.07242116 -0.1527995 -0.02864341 -0.03504059
0001c0 93 f2 b3 3d a0 fc bc 3e da 8e 2f bf c1 5f 5c bd
       0.08786502 0.36911488 -0.6857735 -0.053802256
0001d0 58 c2 c9 3e ad 7f e1 be 75 f6 b1 be e1 ba 3c 3d
       0.39406085 -0.4404272 -0.34758344 0.04607666
0001e0 cf a9 38 bd 79 0a cc bd b4 fb 90 3c 7d 7d 2a be
       -0.045083817 -0.09962935 0.017698146 -0.16649432
0001f0 36 ae 3b bf fe 39 b4 bc 6e 0b 29 bf fb 57 f5 3d
       -0.733127 -0.02200031 -0.66033065 0.119796716
000200 8c e0 41 bf 6c a6 e8 3d 29 b6 32 be e0 e5 b1 bd
       -0.75733256 0.113598675 -0.17452301 -0.08686423
000210 0b f6 d8 bf 64 a1 51 3e 20 7e ed 3e 4e 82 32 bf
       -1.6950086 0.20471722 0.46385288 -0.6973008
000220 99 0b f1 3d d8 0a 84 bd 1d 91 9a bf 91 c7 0d be
       0.1176979 -0.06447381 -1.2075535 -0.1384566
000230 d3 c5 c3 be 1d de 13 3f 65 80 99 3e a3 52 18 be
       -0.38236865 0.5776079 0.2998077 -0.14875273
000240 91 81 9e 3e 65 42 7b bd c6 d5 f2 3e 34 c1 ce be
       0.30958226 -0.061342616 0.4742872 -0.40381777
000250 e6 2f 39 bd 37 8f 94 bd 95 17 95 bd 36 67 69 3d
       -0.045211695 -0.072538786 -0.072798885 0.056983195
000260 33 b3 4a 3e 0e 62 b6 be 82 1f 72 be 00 64 98 be
       0.19794922 -0.35621685 -0.23644832 -0.29763794
000270 4c 3c b0 be 3c 2f fd 3e 67 5e f2 bd 80 88 5b 3d
       -0.34421003 0.494501 -0.11834412 0.053596973
000280 e7 0e 31 bd 1d d5 69 3e eb 57 f5 be b3 8b f2 3d
       -0.043227103 0.22835203 -0.4791864 0.11843052
000290 c6 54 22 be e2 8a 77 be ea 1a 9b be 35 63 a8 3e
       -0.15852651 -0.24174073 -0.3029397 0.3288819
0002a0 c7 8b b5 3d 08 ce f4 3e 36 41 a5 bd 07 dd 8f 3e
       0.08864551 0.4781344 -0.080690786 0.28098318
0002b0 09 e5 b5 3e e3 4a 03 3e 5e c3 00 3e 36 07 09 3e
       0.35526302 0.12821536 0.12574527 0.13381657
0002c0 29 05 92 3f 88 c3 84 be 06 cc 36 bf 6b 31 0f 3f
       1.1407825 -0.25930429 -0.71405065 0.5593478
0002d0 f4 63 4b be e1 23 2e 3e 68 61 70 40 26 f0 60 be
       -0.19862348 0.17005874 3.7559452 -0.2196661
0002e0 ce bc 45 be ec e2 03 3f f6 9d e7 be 53 87 f6 3e
       -0.19310305 0.5151813 -0.45237702 0.4815012
0002f0 0a c5 ca be c1 a3 2e 3d f3 d0 8a be b1 1b d0 3e
       -0.39603454 0.042636637 -0.2711254 0.40646127
000300 54 b0 0b 3f e3 67 28 3e 6a 46 58 bd 95 39 f2 bd
       0.5456593 0.1644588 -0.052801527 -0.11827389
000310 0c c6 22 3d 3b ee 8f 3e 75 3e 89 3c 4d 49 3f 3e
       0.039739653 0.28111443 0.016753415 0.18680306
000320 51 6e 0c 3e 81 38 12 be 16 85 b8 bd 19 df 07 be
       0.13713957 -0.14279367 -0.09009759 -0.13268699
000330 cb 57 c7 3e 5b 54 fd 3e 9f 48 81 bd 0a bf 11 3f
       0.38934168 0.4947842 -0.063126795 0.5693213
000340 39 af 4f 3e 67 84 66 3e bf be 8e 3e e2 a1 b8 3e
       0.20281686 0.22511445 0.27879903 0.36061007
000350 97 7c 29 be 94 47 94 3e 15 a5 34 bd af 5f dc 3c
       -0.16551434 0.2896086 -0.044102747 0.026901094
000360 e0 de 80 bd cc ed c6 3d 0d aa 31 be f0 72 e2 3d
       -0.0629251 0.09713325 -0.17350025 0.11057079
000370 e0 03 ac bf 52 13 9b 3e 9b 2a ad 3f 15 90 b9 3e
       -1.3438683 0.30288178 1.3528627 0.36242738
000380 52 22 db 3e 12 e4 15 bf 6f 33 bd bf fc b8 2e 3f
       0.42799622 -0.5855113 -1.4781321 0.68251014
000390 f3 26 8f bf f4 26 42 bf 7e ab 8a bf 47 c5 7b 3e
       -1.1183761 -0.7584069 -1.0833585 0.24586974
0003a0 03 5d c0 be 04 31 45 3f e4 48 2e bf 83 8e 27 3e
       -0.37570962 0.77027917 -0.6807997 0.16362958
0003b0 0b ad 45 bf f0 c8 63 3e 1c ca 88 3e 27 61 b3 bd
       -0.7721717 0.2224462 0.26716697 -0.08758765
0003c0 19 4b b1 be ec 85 ce bd 90 6d fa 3c 40 6a b2 bd
       -0.34627607 -0.10084137 0.030569822 -0.08711672
0003d0 98 9d 03 3c f0 89 e5 3d 6c b1 be bf 76 eb 5f 3f
       0.008033179 0.1120795 -1.4897895 0.8746866
0003e0 22 a5 06 3d dc 87 53 bf 1c 4f 2e bf 94 e3 f1 be
       0.032872327 -0.8262918 -0.6808946 -0.4724394
0003f0 27 fe 0a 3d 55 7d 18 3d 7c 2c 79 3b 1c f1 8c 3f
       0.033933785 0.0372289 0.00380209 1.1011081

net.0.bias f4 [128]
000000 21 5f 50 3e b6 70 bd 3b 31 a8 33 be d0 49 0f be
       0.20348789 0.0057812585 -0.17544629 -0.13993001
000010 91 83 15 3c b0 09 4d bd 43 49 8f 3d d3 d1 8a bd
       0.009125606 -0.050058067 0.069963954 -0.06778302
000020 95 5e 9c bd 66 d7 f3 3d 17 ea 76 bc cc 54 0a 3a
       -0.076352276 0.11906318 -0.01507046 0.0005276918
000030 7f bc 8e bd df fa 07 3e 63 69 fb bc 81 85 9c bc
       -0.069695465 0.13279293 -0.0306899 -0.019106628
000040 75 8d 34 3e 93 a3 77 3c 25 b9 d3 bd bb 02 43 be
       0.17632087 0.015114683 -0.10338048 -0.1904401
000050 a8 05 5b 3b e5 b8 87 bd a6 b3 07 3d c7 d1 d8 bd
       0.003342012 -0.06627063 0.03313031 -0.10586887
000060 9e 24 28 bc 89 13 90 be ca 7f 8e 3d 41 e1 18 3e
       -0.0102626365 -0.28139904 0.069579676 0.14929678
000070 95 96 85 bd 79 cc 09 3e 2f 8e 1b be 77 f8 0f be
       -0.06522862 0.13456906 -0.15190957 -0.14059626
000080 39 01 19 bd a9 48 3e be 3a b2 24 bc 1c 6a d6 bc
       -0.03735468 -0.18582405 -0.010052258 -0.026173644
000090 9d 34 08 be e0 62 25 bb c4 30 06 be 0a 57 08 3e
       -0.1330132 -0.0025235936 -0.1310454 0.13314453
0000a0 bd 56 ae b9 8e d4 65 3e d7 27 a4 3d 09 4c 8b bd
       -0.0003325249 0.22444364 0.08015411 -0.06801612
0000b0 de ce 63 3d 18 74 1b be 5d 3b bd 3d 08 0b 0f be
       0.055617206 -0.15181005 0.09239838 -0.13969052
0000c0 c7 c5 af 3d 09 30 a9 bd 66 fd 82 3e 77 ef c7 3d
       0.08582645 -0.08261115 0.25583953 0.09762471
0000d0 ce 4e 34 be 6e 48 d9 3d a6 96 a9 3d d9 44 81 3d
       -0.17608187 0.10609518 0.08280687 0.0631196
0000e0 52 5c 00 be 98 81 61 bd a7 f1 c8 3d 6a 81 ea bd
       -0.12535217 -0.05505523 0.098117165 -0.11450465
0000f0 69 4f 93 be 58 b5 45 3d 97 f2 80 bd 03 eb 2e be
       -0.28771523 0.048268646 -0.0629627 -0.17081837
000100 a0 0e 1c be 59 78 02 3e 03 61 9c bc 2a dd e7 bd
       -0.15239954 0.12741221 -0.019089228 -0.113214806
000110 64 39 57 bd ab 8d 84 bc 01 41 2c bd 82 dd db 3c
       -0.052544966 -0.016180834 -0.04205418 0.026839022
000120 24 e5 f2 bd be 60 cf ba 6f 81 02 3d c2 1d bf 3c
       -0.11860111 -0.0015821678 0.03186172 0.02332962
000130 c2 3b 5e bd 30 9f f7 bd 64 a0 04 3d 45 4f 2b bd
       -0.05425621 -0.120909095 0.032379523 -0.041823644
000140 66 de 78 bd 4f 39 18 3e 9f af 18 3e 5d 9d f7 3d
       -0.06075897 0.14865611 0.14910744 0.120905615
000150 b9 5e df 3b 25 78 58 3c 55 0d 35 be 1d 02 2f bd
       0.0068167117 0.013212238 -0.17680867 -0.042726625
000160 04 73 cd bd ab 78 88 bd 32 8e 90 bd 70 9e 52 be
       -0.10031703 -0.066636406 -0.070583716 -0.20568252
000170 fe d5 01 bd 52 15 8e 3c a5 fe 99 be a4 e2 88 bc
       -0.03169822 0.01734415 -0.3007709 -0.016709633
000180 bc 05 3b bd ab 18 2b bd d1 4d 0f be b7 4e 3d 3e
       -0.045659766 -0.041771572 -0.13994528 0.18487059
000190 9e 13 10 be cc ec 8e 3d 63 cd 08 3e 61 3e 00 3e
       -0.14069983 0.06978759 0.13359599 0.12523796
0001a0 86 98 6f be 4e 3f f8 bb 06 f7 08 3e 2b 25 42 3e
       -0.23398027 -0.007575906 0.13375482 0.18959491
0001b0 f6 28 94 bd 03 d6 9a bd a3 b7 08 be f0 c6 5a be
       -0.07234375 -0.07560351 -0.13351302 -0.21364951
0001c0 2d c8 22 3d 75 d0 ab bb 1b 6c 2f be 0d ea 98 bd
       0.039741684 -0.005243356 -0.17131083 -0.07466517
0001d0 01 5d 6a bd 84 77 54 3e b2 83 5e bd f7 26 56 bd
       -0.0572176 0.20748717 -0.054324813 -0.052283254
0001e0 ce 3f 23 3e fd 1d a5 bd 6b 1d d8 bc e3 a2 ad bd
       0.15942308 -0.080623604 -0.026381215 -0.08478334
0001f0 fb 18 66 3e b5 35 28 3e 95 95 5b be ed 06 a6 3d
       0.22470467 0.16426738 -0.2144378 0.0810679

net.2.weight f4 [128, 128]
000000 74 88 15 3f 52 44 06 be 2b 91 06 3f 7f 8c 9f bd
       0.58411336 -0.13112 0.5256526 -0.077904694
000010 8e 00 41 3c d9 8c 4b be d6 e9 14 be 5f d1 99 3e
       0.011779917 -0.19877948 -0.14542326 0.3004255
000020 4a f1 4c be fc 1e 3a bd 6a 87 19 be 8d 68 d0 3d
       -0.2001392 -0.045439705 -0.14993063 0.101761915
000030 49 6e 83 3e 48 e4 8f 3e e5 58 c4 be 6b 3d 3f 3e
       0.25670078 0.28103852 -0.3834907 0.18675773
000040 f6 1c 36 3d 08 0e 04 3f b7 4f 10 3e 0f 57 aa be
       0.044461213 0.5158391 0.14092909 -0.33269545
000050 85 2b 58 3e 79 88 1d be 19 fe 8a be 4a f9 90 3e
       0.21110351 -0.15384091 -0.27146986 0.28315192
000060 4b 0b 81 3e ef 19 83 3e 0f 3f 33 bd eb f3 16 be
       0.25203928 0.25605723 -0.04376131 -0.14741485
000070 8e e3 80 be 2d 21 3c be 94 da f3 bd 99 18 2a 3f
       -0.2517361 -0.1837203 -0.11906925 0.66443783
000080 89 e4 a4 3d 03 16 5a 3e 79 1a 3c 3e a1 26 74 be
       0.08051402 0.2129746 0.18369474 -0.23842861
000090 1d 1b 1a 3f eb c6 82 bb 77 76 3f bd 0c b3 05 bf
       0.6019762 -0.003990998 -0.046743836 -0.5222633
0000a0 70 20 d2 bd 3b 3a 43 be 91 67 c0 be 83 fd a8 be
       -0.10260093 -0.19065182 -0.37579015 -0.33005914
0000b0 7d 03 82 bd 8b 1d bf 3e 2d 62 29 be 17 b1 2a 3e
       -0.063483216 0.37327227 -0.16541357 0.16669117
0000c0 57 5c 14 be e9 36 94 3e b1 7d 68 be ef 26 62 be
       -0.1448835 0.28948143 -0.22704197 -0.22085164
0000d0 81 83 9b be b9 60 8d be 8f 46 6f 3f 7f 58 14 bf
       -0.30373767 -0.27612856 0.9346704 -0.57947534
0000e0 23 87 04 bf 5a 52 8a be fb 1c 04 be 26 78 f7 3d
       -0.517687 -0.27015954 -0.1290168 0.12083463
0000f0 d4 a8 5c 3e f3 20 a5 3d 12 82 d2 be 62 37 b0 3d
       0.21548778 0.08062925 -0.4111486 0.086043134
000100 9d 3a bd 3e 0e df e0 bd a8 ee de 3e a7 3a 4f be
       0.3695878 -0.10980044 0.43541455 -0.20237218
000110 7f 0d 75 bd 1e f3 f5 bd f6 60 3b 3e fd eb c4 be
       -0.059827324 -0.120092615 0.18298706 -0.38461295
000120 dc f5 d4 3d 45 76 0a 3f d8 a3 05 be c2 c7 29 be
       0.103984565 0.54086715 -0.13050783 -0.16580108
000130 a0 0c b3 3d 75 eb 05 3e d7 91 38 3e ae a0 f0 be
       0.087426424 0.13078101 0.18024383 -0.4699759
000140 1e 2c d1 3e ab 65 f0 3e c2 ba 10 3f 93 29 9a be
       0.4085397 0.46952567 0.5653497 -0.30109844
000150 b1 24 e2 be e1 b4 9e 3e 0d fe 41 bf b2 53 29 bd
       -0.44168618 0.30997375 -0.75778276 -0.041339584
000160 03 9d 1f bf 55 33 2e bd 64 a3 5b be d3 23 04 be
       -0.62348956 -0.042529423 -0.21449047 -0.12904291
000170 cf f2 85 bd 3b ca 28 bf f9 cd 95 be 25 c8 c9 3e
       -0.06540453 -0.6593358 -0.29258707 0.3941051
000180 7b e1 8e 3d 59 91 65 3d ec e8 a7 3e 72 d1 4a bd
       0.06976601 0.056046817 0.32794893 -0.04951615
000190 8e 32 92 3f dd 35 1d bd a7 30 91 bd 76 70 57 3e
       1.1421678 -0.038381446 -0.07089358 0.21038994
0001a0 06 d7 9f be be c8 ca be 2f 12 93 be d1 ba 3f bd
       -0.31218737 -0.3960628 -0.2872481 -0.04680902
0001b0 f9 73 64 bf eb e1 ca be ce 9b 67 3d 3a 93 2d be
       -0.8923946 -0.39625487 0.05654507 -0.16950694
0001c0 f6 7c a6 be df 1b 30 3f 1f e4 07 bf c5 ca 3b 3d
       -0.32517213 0.6879253 -0.5308246 0.045847673
0001d0 ea 31 c4 be 59 14 5c be a2 e3 1d bf db bb b8 bd
       -0.3831933 -0.21492137 -0.61675465 -0.090202056
0001e0 65 9a 30 3f e2 e6 6d 3e da 03 2d be 4a ef c5 3e
       0.6898559 0.23232606 -0.16896 0.38659126
0001f0 dd 00 39 3e e8 65 55 bd 43 20 01 be a3 8c 10 bf
       0.18066736 -0.05209914 -0.12609963 -0.56464595
000200 e6 08 9b 3f 97 a6 20 be 99 c4 ba 3d 26 7d 93 be
       1.211209 -0.15688549 0.09119529 -0.28806418
000210 9d be 39 be cc 73 97 3e 5e a5 dc be fe fa a2 3e
       -0.1813912 0.29580534 -0.43094915 0.31832117
000220 ed 88 9c be b3 0f 72 bf b5 c6 1a bf 14 22 ec 3d
       -0.30573216 -0.94555205 -0.6045945 0.115299374
000230 84 02 78 be 60 a5 90 be 90 81 27 3d 57 68 3f be
       -0.2421971 -0.2825117 0.040895045 -0.18692146
000240 51 43 b1 3e 5e 56 9a 3e 55 4a b1 3e b9 a2 01 bf
       0.3462167 0.30144018 0.34627023 -0.5063892
000250 e1 91 97 3e 3f c1 01 bf f1 0a f3 be e0 bb 6f be
       0.29603484 -0.50685495 -0.47469285 -0.23411512
000260 0b cf 0d bb 65 c2 5a 3e d6 93 d5 3e 11 f2 27 3f
       -0.00216383 0.21363218 0.41714352 0.6560374
000270 89 e7 27 3e a7 b6 9d be b1 0f 5a be 4f c7 16 3d
       0.16396917 -0.30803415 -0.21295048 0.03681117
000280 6f 2e 92 bd e6 41 de 3e 11 ef 83 3e b0 40 cf 3e
       -0.07137763 0.43409652 0.2576833 0.4047904
000290 10 e1 3d be d0 b9 3f be bb 7b ba bd 80 bb 14 3e
       -0.18542886 -0.18723226 -0.09105631 0.1452465
0002a0 e9 9e 9c be 69 47 59 3e 6e 13 8a be 32 38 83 3e
       -0.3058999 0.21218647 -0.2696795 0.2562881
0002b0 9a 23 60 3e ee 8d 82 3c 81 de 1c bd 68 94 b1 3e
       0.21888581 0.015936818 -0.038298134 0.34683537
0002c0 e8 0f 66 3e cb e0 1c 3e b5 7b e6 bd 0d d1 e8 be
       0.22467005 0.15320127 -0.11254064 -0.45471993
0002d0 68 26 f7 be af 70 b5 be cd 9d 4d 3f 18 2b 24 3e
       -0.4827149 -0.35437533 0.8031891 0.16032064
0002e0 66 e2 02 3c 88 00 33 bf 86 8a ea bd 1c 90 b3 be
       0.007988548 -0.69922686 -0.114522025 -0.35070884
0002f0 58 ff 1f 3e df 1d 1a bd 2e 03 c3 be e6 d2 a6 bd
       0.1562475 -0.037626144 -0.38088363 -0.081456944
000300 df f6 d0 3c 97 96 67 bd d6 b7 34 3d a8 1a 4f bc
       0.025508342 -0.056540098 0.044120632 -0.012640633
000310 26 62 57 bf e4 c2 d4 bc 78 39 fa 3e 31 41 44 3f
       -0.8413414 -0.025971837 0.4887197 0.76661974
000320 2e fc 57 3e 3a 85 55 be 01 33 e0 be 42 a9 78 bf
       0.21092293 -0.20851603 -0.43788913 -0.97133267
000330 8a 4f 8e 3b 40 8b f9 3e 44 1f 9f 3c 22 ac 7f bf
       0.004342978 0.48739052 0.019424088 -0.9987203
000340 cc 17 21 3e 35 f9 2b 3f fd 6c 95 3e d9 1c e2 3d
       0.15731734 0.67177135 0.29184714 0.110406585
000350 1f 74 53 3d 6b 0f bb 3e 5b 46 e5 be cf 91 15 3e
       0.051624414 0.365352 -0.4478024 0.14606403
000360 ab 88 9b be ba 81 df 3e 63 02 d6 bc bb 07 ba bd
       -0.30377707 0.4365366 -0.026124185 -0.09083506
000370 1e 92 ca bd 75 d5 93 be c8 c3 28 be 99 7c 12 be
       -0.09891151 -0.28873792 -0.16480935 -0.14305343
000380 c6 94 1b 3e 26 82 bc 3d 4b 2a 97 3e 93 a3 bb bd
       0.15193471 0.09204511 0.29524454 -0.09162059
000390 bb 61 99 3e 45 a2 70 be 0c fe f1 3e a7 30 2b 3f
       0.29957375 -0.23499401 0.47264135 0.6687111
0003a0 8d 38 cb be d9 8f 1e be 13 eb 1f bf 19 6b 02 3f
       -0.39691582 -0.15484561 -0.6246807 0.5094467
0003b0 e3 92 07 bf b5 a5 e1 be 04 02 c3 bd 52 42 d7 be
       -0.52958506 -0.44071737 -0.09521869 -0.42042786
0003c0 26 64 83 be 13 52 ac 3e e6 cd f4 be 8c a9 18 3f
       -0.25662345 0.33656368 -0.47813338 0.5963371
0003d0 1d d5 c8 be a6 a4 bb be 59 38 4e be 96 40 5e be
       -0.39225093 -0.36649054 -0.20138682 -0.21704325
0003e0 b2 7c 29 3d ba d8 cc 3e 23 f2 b6 be 50 97 9b 3c
       0.041378684 0.400091 -0.3573161 0.01899305
0003f0 12 9f 1f 3f 3a c9 a6 3e 00 3d ab bd 97 0e c4 3e
       0.623521 0.325754 -0.08361244 0.3829238

net.2.bias f4 [128]
000000 fa 77 d8 be bb d9 96 be 93 de 5b 3e e5 5f e5 be
       -0.42279035 -0.2946299 0.21471624 -0.44799724
000010 83 15 bb 3e d4 54 91 3e 8a c4 7e 3e 3c 58 8e 3e
       0.3653985 0.2838503 0.24879661 0.27801692
000020 a3 a4 10 3f dc 2a a6 be d1 78 a0 3e a6 7d 1e 3e
       0.56501216 -0.32454574 0.31342176 0.15477619
000030 30 49 16 bd ad ad 2e 3f 94 fd b2 be 14 28 d7 3c
       -0.03669089 0.6823376 -0.3495909 0.026264228
000040 87 f5 70 bf 39 7d a0 be 21 1e 1e bf 9e 62 41 3d
       -0.94124645 -0.31345537 -0.61764723 0.04721319
000050 f9 33 c4 3d 73 70 3b 3e d5 34 70 be d9 58 aa 3d
       0.095802255 0.18304615 -0.23457654 0.083177276
000060 42 d1 b5 be 3b d3 05 3d ea bd 90 be 23 59 07 be
       -0.35511214 0.03267215 -0.28269893 -0.13217597
000070 ec e5 22 bd aa 4d 14 3e 62 c2 27 3f 49 f7 1c bd
       -0.03977005 0.14482751 0.6553098 -0.038321767
000080 d3 ef de be 8b 81 fe 3e 25 1d 1d be d6 20 7c be
       -0.43542346 0.49708208 -0.15343149 -0.24621901
000090 aa c6 b8 3e 0b 93 98 be bc 92 ec be 99 1a 2d bd
       0.3608907 -0.29799685 -0.462057 -0.042261694
0000a0 c1 50 03 be 71 b6 db 3e 53 4b cd 3d 11 13 cb 3c
       -0.12823774 0.4291263 0.100241326 0.024789365
0000b0 6c 3c 88 bd 76 01 20 bf c9 49 20 3e c6 e0 04 bf
       -0.066521496 -0.6250223 0.15653147 -0.5190548
0000c0 e0 33 19 bf 97 67 ed 3d 02 e9 34 3f 97 df ac be
       -0.5984478 0.11592024 0.7066804 -0.33764336
0000d0 ed ac 3d 3e db 41 fd 3e a7 a3 a5 3e 2a 9e 0f bf
       0.18522997 0.49464306 0.3235142 -0.56100714
0000e0 18 39 9f be b2 da a0 3d 6d 5e 06 3e 08 32 38 bd
       -0.31098247 0.07854213 0.13121958 -0.04496959
0000f0 8b e8 ff 3e 33 50 3a 3e a3 cf 77 3e b6 4b c3 be
       0.49982104 0.18194656 0.24200301 -0.381437
000100 40 f5 f5 be 16 5c 2f be 9f f0 11 3f 4b f9 70 be
       -0.48038673 -0.17124972 0.57007784 -0.23532598
000110 06 17 52 bd 32 6c 9f 3e 0c ad 52 3e 7f 98 96 3e
       -0.051291488 0.31137234 0.20573825 0.2941322
000120 63 7f 33 bc 8a 08 f3 be 85 5e 90 be 0a 8b 03 3e
       -0.010955664 -0.47467452 -0.28197113 0.12846008
000130 e6 07 84 3e 0c 56 14 3e 34 b4 86 bd eb 67 04 3f
       0.25787276 0.1448595 -0.0657734 0.51721066
000140 4b ad 83 bd ce 0d a0 be cf 37 4a be b2 cd 42 bd
       -0.064295374 -0.31260532 -0.19747852 -0.047559448
000150 72 42 07 bf ba 9c cc 3d 83 db 10 3f 9b 6a 0c bf
       -0.5283576 0.09990831 0.5658495 -0.5485017
000160 71 38 0a bf 88 2c 38 be 54 52 72 3e 1f f1 42 bd
       -0.5399237 -0.17985737 0.23664218 -0.047593232
000170 07 9e 29 bf 36 db 5f 3e bf 2c 1d be 62 66 a6 3d
       -0.66256756 0.21860966 -0.153491 0.08124997
000180 0f f4 77 3d 21 42 74 3d 68 a2 ce 3e d1 81 6f be
       0.060535487 0.059633378 0.4035828 -0.23389365
000190 67 16 2f bf ff 74 cc be 78 9d 16 3f 0e 5d ef be
       -0.6839356 -0.3993301 0.5883403 -0.46750683
0001a0 78 f3 c4 3d be 73 2d be 15 94 d6 3e db e0 91 bd
       0.096167505 -0.16938683 0.41909853 -0.07122966
0001b0 a0 6b 7c bd d6 4d 74 be 10 98 2f 3e af 94 21 bf
       -0.061626077 -0.23857817 0.17147851 -0.631175
0001c0 01 a8 58 3d 28 4d 46 3d 13 5c 64 bc d0 13 a4 3e
       0.052894596 0.048413426 -0.013937968 0.32046366
0001d0 78 19 45 be c4 47 b6 3d b0 4c 06 bd 1f 89 91 3e
       -0.19247997 0.08900407 -0.03278798 0.28424928
0001e0 34 46 73 3e db b6 c6 be 8e f9 b8 be de 03 1a bd
       0.23757249 -0.38811383 -0.36127895 -0.037601344
0001f0 e5 fc 45 3e ac a2 bd bd 73 ae a2 bc 3b 72 f3 3d
       0.19334753 -0.09259543 -0.019858574 0.11887022

head_task.weight f4 [11, 128]
000000 cf dd 99 3c 74 56 f3 bc 9f ec 12 3d ad fd 32 3f
       0.018782524 -0.02970431 0.03587019 0.6991833
000010 93 21 e0 bd 07 37 b1 be fa 35 4f be 2a 70 30 be
       -0.10943904 -0.34612295 -0.20235434 -0.17230287
000020 97 87 3c be a3 de 01 3f b9 50 70 3d 26 a2 78 bd
       -0.18411098 0.5073034 0.058670733 -0.06070151
000030 7c 36 3e bd 90 ac 97 bf c4 45 09 3f 55 2b a9 3e
       -0.04643868 -1.1849537 0.5362208 0.33040872
000040 bd 36 86 3f 85 e7 59 3e 50 47 b6 3e 9c 24 a9 be
       1.0485455 0.21279724 0.35601282 -0.33035743
000050 f3 9f 54 bd 47 3e 06 3d 98 7b 54 be f2 dd ad be
       -0.051910352 0.032774236 -0.20750272 -0.33958393
000060 35 96 a6 3d b1 78 e8 be 6c dd 88 3e d2 d5 f3 3d
       0.081341185 -0.4540458 0.2673143 0.11906017
000070 4f 47 d4 3e 72 db 80 bd e1 dd 61 bf 0b 99 20 be
       0.41460654 -0.06291856 -0.88229185 -0.15683381
000080 13 79 9c bd 8b ae 28 bd a0 7e 7c 3f 41 80 6c be
       -0.076402806 -0.041182082 0.98630714 -0.230958
000090 1d 1c 4d bf 97 98 f6 3e dd 1e c3 3d 01 0f 97 3e
       -0.8012102 0.48163292 0.09527371 0.29503635
0000a0 b1 31 0d 3e d6 61 bf be b1 fa 06 be 90 7a 6e be
       0.13788487 -0.3737933 -0.13181569 -0.23288941
0000b0 d2 a8 19 bc 70 6a 6e 3d c9 8a 24 bd ec 69 a4 3d
       -0.009378629 0.058206975 -0.04017142 0.080280155
0000c0 86 e2 83 3f a0 a4 51 be 35 18 a5 bf 4c d2 78 3e
       1.0303504 -0.20472956 -1.2898012 0.24298972
0000d0 78 70 74 be c3 a2 58 bf 2f 30 cf be 08 e4 0f 3e
       -0.23871028 -0.84623355 -0.4046645 0.14051831
0000e0 dd 85 eb bd 0d 7f ce be b1 bc 70 be b2 c9 da 3e
       -0.11500142 -0.40331307 -0.2350948 0.42732006
0000f0 d2 fd b6 be 0f d9 5e 3c 74 2a cb be 37 8a 94 3e
       -0.35740525 0.0136015555 -0.39680827 0.290117
000100 fa ab 86 3e 52 5b 86 3e e7 c5 62 bf 80 90 04 3f
       0.26303083 0.26241547 -0.88583225 0.5178299
000110 c8 de 42 3e e9 64 73 3d c3 98 de be cd 1b 4e bf
       0.19030297 0.059422407 -0.43475923 -0.8051117
000120 7b 2b b1 3e ed 62 b2 bd 61 43 e0 bc 1a dc ad be
       0.34603485 -0.08710275 -0.027375879 -0.33956987
000130 4c 19 11 bf fb 2d c9 bd 89 60 3b be 36 27 a7 bf
       -0.56679225 -0.09823223 -0.18298544 -1.3058841
000140 5f e7 8f bd fc d4 3b 3e ce 75 0c 3f 57 cb 0d bf
       -0.070265524 0.18342966 0.54867256 -0.55388397
000150 a0 cf 2b 3f 33 7b 66 be 15 85 62 bd 78 49 01 bd
       0.67113686 -0.22507934 -0.0553027 -0.031564206
000160 1f a0 e7 3e fd 72 1f 3e b6 dc 1d 3b e9 6f 40 3e
       0.4523935 0.15571208 0.0024087853 0.1879269
000170 bb 33 96 be 77 52 a0 3b ad 2d 30 3e 99 09 c7 3d
       -0.29336342 0.004892643 0.17204924 0.097186275
000180 01 7f cb 3e 04 48 92 bd 35 03 10 bf b0 ff ae 3e
       0.39745334 -0.07142642 -0.56254894 0.3417945
000190 b7 33 0d be f3 6b 45 be f1 2b 03 bf fa d8 4b 3e
       -0.13789259 -0.1927946 -0.51238924 0.19906989
0001a0 9d 11 0c 3d f7 77 69 3f 99 f4 23 bf f0 7b 4a 3e
       0.034196485 0.91198677 -0.640451 0.19773841
0001b0 1a 3b de 3e f7 0c 9a bd 35 de 8d be b1 b3 a9 3d
       0.43404466 -0.07522004 -0.27708593 0.082862265
0001c0 a9 8a 01 be c1 b1 9e bd a5 dc 1d 3e 4f 0e 36 bf
       -0.12650551 -0.077487476 0.154162 -0.71115583
0001d0 2f 7d 65 3f 0f cd 30 3f aa 39 a1 bc 52 9d 82 be
       0.8964414 0.69062895 -0.019680817 -0.2551065
0001e0 c2 cc 1d be 30 a6 e7 3d cd 76 1d 3e 8f cf 5b 3e
       -0.1541014 0.113109946 0.1537735 0.21465896
0001f0 d1 c0 6a be cb 3e ea 3e 85 92 80 3e 98 46 02 be
       -0.22925116 0.45751032 0.25111786 -0.12722242
000200 83 18 1c 3e 9c c4 20 be 79 b1 18 3e 3c 65 30 3e
       0.15243725 -0.157 0.1491145 0.17226118
000210 88 bf 53 3e 41 ca 30 3f ae 21 1c 3d bc f5 52 3d
       0.20678532 0.69058615 0.038118057 0.05150388
000220 c9 b5 98 be 31 4a 6c 3f fd b1 20 be 04 b2 e0 be
       -0.2982619 0.9230071 -0.15692897 -0.43885815
000230 60 83 2e 3b 75 5e 61 be 40 3f 17 3d ca 06 e8 3e
       0.0026628599 -0.22008689 0.036925554 0.4531768
000240 87 0f dc bc 1a dc 94 3d cf 68 37 3e 9c 41 3e be
       -0.026862873 0.072685435 0.17911075 -0.18579715
000250 d9 f4 8b bd 49 d6 60 be 29 9e 02 be 12 30 44 be
       -0.0683381 -0.21956743 -0.12755646 -0.19158962
000260 6c 9d 40 3e 74 7e b4 be 68 54 69 3e b0 28 1f 3e
       0.18810052 -0.35252726 0.22786105 0.15542865
000270 63 28 75 3e 93 ec 08 be 2c 54 73 3d 45 40 5a 3d
       0.23941188 -0.13371496 0.059406444 0.05328395
000280 6a cf a8 bd ee 86 8b 3e da e8 ee 3e 08 6a 03 3f
       -0.08242686 0.2725138 0.46662027 0.51333666
000290 7b d4 9d 3d 86 3c fe 3e 4f cd ae 3c 15 20 68 bd
       0.07706543 0.4965555 0.021338133 -0.05667122
0002a0 f7 37 7d 3e 08 54 23 bf ab 42 b6 be 2a 5b 61 3e
       0.2472838 -0.63800097 -0.3559774 0.22007433
0002b0 e9 fb cc 3d 30 d4 b5 3e 75 ce 5a bf 5d c1 d7 3d
       0.100089855 0.3551345 -0.8547128 0.10534928
0002c0 1c 32 83 be d4 ba a9 be 86 f8 eb bf e4 89 64 3e
       -0.25624168 -0.3315035 -1.8435218 0.22318226
0002d0 fb 30 6b be 33 6b 65 bf 44 33 0c 3f 6e 7a ef 3e
       -0.22967903 -0.896167 0.54765725 0.46773094
0002e0 4c c1 c7 3d a6 be 19 bd aa a1 81 be fb 04 10 3f
       0.09753665 -0.037535332 -0.25318652 0.562576
0002f0 0c 10 ed be 30 73 a7 3c 36 23 93 be a5 d1 4a be
       -0.46301305 0.020440668 -0.287378 -0.19806536
000300 65 7a 45 3e 9d 09 5e 3e 42 24 6b bb 57 76 93 3e
       0.19284971 0.21683355 -0.0035879766 0.28801224
000310 20 8e 5b 3e 51 98 19 be 14 e7 dd 3d c6 b5 e6 bd
       0.21440935 -0.1499951 0.1083509 -0.11265139
000320 28 ba 65 bd 95 21 31 be 95 62 d5 3e ee 91 06 bf
       -0.056085736 -0.17297967 0.41676775 -0.5256642
000330 7d 80 ac bf 8e 26 14 bf 36 3c 93 3e d5 05 e5 bf
       -1.3476712 -0.5787133 0.28756875 -1.7892405
000340 0e 21 b8 bd c1 c6 c4 3e 27 88 5b 3e a2 5e f0 3d
       -0.0899068 0.38432887 0.21438657 0.117368
000350 ac bd 01 3f e2 75 92 3e e6 de 08 3e 36 b0 0e be
       0.5068004 0.28605562 0.13366279 -0.13934407
000360 13 1a 5d 3f 74 62 55 3e 9c 00 cc 3e c4 68 58 3f
       0.8636791 0.20838338 0.39844215 0.8453486
000370 dd db b2 3e 05 21 42 3e 03 5d 16 bf 95 f4 a6 3e
       0.34933367 0.18957908 -0.58735675 0.32608476
000380 bb aa 2c 3d 20 b1 ac bd de bd a9 bf 98 12 63 3e
       0.04215501 -0.084322214 -1.3261068 0.22175062
000390 ed ef b1 3d 12 42 d3 3e 97 be 45 bf a9 d4 bd 3e
       0.0868834 0.41261345 -0.7724394 0.3707631
0003a0 f1 f3 9c 3d 82 44 44 be 91 05 e2 3d 36 53 36 3f
       0.07663716 -0.19166759 0.11036218 0.7122072
0003b0 07 17 ee 3d a9 ca d4 bd d6 b5 54 3d 2b 69 04 be
       0.11625486 -0.10390217 0.051931225 -0.12930743
0003c0 c4 9d 01 bf c7 d1 10 be 3c 6f 55 3e ec fc 35 bf
       -0.50631356 -0.14142524 0.20843214 -0.71089053
0003d0 06 65 49 3f 14 35 63 be d3 80 4f 3d a9 58 9b 3e
       0.78669775 -0.22188216 0.050659966 0.3034108
0003e0 2d 3b 7a 3d 28 67 9a 3e 6c f8 84 3e 95 ff 11 3f
       0.06109159 0.30156827 0.2597078 0.5703061
0003f0 97 17 ac be 8d ce 86 3d e6 1c 2c bf e8 d8 66 be
       -0.33611748 0.06582365 -0.67231596 -0.2254368

head_task.bias f4 [11]
000000 d0 b3 cd bc 1d 7d 00 be c7 2e 99 bd e6 67 f0 bd
       -0.025110155 -0.12547727 -0.07479625 -0.11738567
000010 80 cc 56 be b1 41 2d 3e ff 0a 3e 3e 40 48 77 3e
       -0.20976448 0.1691959 0.18558882 0.24148655
000020 68 2e 18 be e8 45 03 3e c0 ba 09 3e
       -0.14861453 0.12819636 0.13450146

head_move.weight f4 [8, 128]
000000 45 7c f4 3e 39 2f a5 3e c5 64 25 3e 70 46 9e 3f
       0.4775106 0.3226259 0.16151722 1.2365246
000010 ed 68 b4 be c6 3d 05 bf 06 c0 12 bf 70 70 dc be
       -0.35236302 -0.52047384 -0.57324255 -0.43054533
000020 a5 82 59 be 78 4c 57 3e c1 9e c7 bd 0a ad f8 3e
       -0.21241243 0.21025264 -0.09747077 0.48569518
000030 0d 49 92 be 79 aa c3 bf 4c 34 99 3e 50 3f 59 3e
       -0.28571358 -1.5286399 0.29922712 0.21215558
000040 75 2f a7 3f 26 26 e3 3e b0 d0 70 3e a4 92 88 be
       1.3061358 0.44365042 0.23517108 -0.26674378
000050 ba ad 1a be 9a 78 72 3d e4 ff 78 3d 36 6c d0 be
       -0.15105334 0.059197046 0.06079091 -0.40707558
000060 be 8c 7e bd 7d c0 21 bf 4a 03 8c 3f fd e0 7d bd
       -0.06214594 -0.6318434 1.0938504 -0.061982144
000070 54 33 89 3e d8 a8 2e 3e 76 f9 85 bf fb 6f a0 be
       0.26796973 0.17056596 -1.0466754 -0.31335434
000080 b3 06 ed 3e 5b d0 02 bf f7 40 9d 3f 38 78 91 be
       0.46294174 -0.51099175 1.2285451 -0.28412032
000090 96 36 60 bf 64 05 cd 3e 79 9c ab 3e 07 90 24 3f
       -0.8758329 0.40043175 0.33517817 0.6428227
0000a0 ef 4b 02 be 13 00 c3 be 60 ea 2f be b8 66 82 be
       -0.12724279 -0.38085994 -0.1717925 -0.25468993
0000b0 82 70 05 3f 39 21 03 3f bb d5 b8 3b 2e de d8 3e
       0.521248 0.5122257 0.005640713 0.4235701
0000c0 ff 0a d0 3f 8c cb a4 bd 28 05 c0 bf 21 58 ba 3e
       1.6253356 -0.08046636 -1.5001574 0.36395362
0000d0 40 e9 b8 bd 76 21 4d bf 1c bf 01 bf 41 24 5d 3e
       -0.09028864 -0.8012918 -0.50682235 0.21595861
0000e0 e0 2a 94 3e 0d 3b c8 3c 1c d3 ad bd 29 81 a2 3e
       0.2893896 0.02444222 -0.084875315 0.31739166
0000f0 97 88 12 be 79 ff c2 3d 8a f1 2b bf 02 05 06 3f
       -0.14309917 0.09521384 -0.67165434 0.5235139
000100 db 13 0f 3f 5b 57 27 3f 51 6c 65 bf 9b ac d7 3e
       0.5588967 0.6536767 -0.896184 0.42123875
000110 a9 e6 30 be 1c 7e 01 be a9 fe fa be cb 3b 80 bf
       -0.1727549 -0.12645763 -0.49022415 -1.0018247
000120 e1 58 fc 3e 9a 92 13 3f 2f 42 73 3e b4 b5 8c be
       0.4928656 0.5764557 0.23755716 -0.27482378
000130 a0 68 ba be 32 f7 06 bd 7b 03 18 be 28 d5 a6 bf
       -0.36407948 -0.032950588 -0.14845078 -1.30338
000140 4d d8 65 3d 86 b8 0a bf 84 40 01 3f d3 3e 44 bf
       0.056114484 -0.5418781 0.5048907 -0.7665836
000150 ce 8f 19 3f 17 cd 1c be 5f 42 f2 be a2 eb a1 3e
       0.59985054 -0.1531261 -0.47316262 0.31625086
000160 b2 46 ce 3c e7 d7 bb be 73 a5 1b be 77 32 0c be
       0.025180195 -0.36688158 -0.15199833 -0.13691126
000170 59 81 c4 bc 8b e3 1a be 31 4f 03 3e ab bf f9 bd
       -0.023987459 -0.15125863 0.12823178 -0.12194761
000180 44 08 33 3f f8 66 a1 3d 5f 9c 80 be 62 32 b4 3e
       0.6993449 0.07880968 -0.25119302 0.3519469
000190 5a 0b 2a 3e f5 0a 90 be 7e 67 b8 be 0f 36 8e bd
       0.16605893 -0.2813336 -0.36016458 -0.069439046
0001a0 d2 25 06 be b7 04 b3 3f 7e b9 0a bf f1 57 4c bd
       -0.13100365 1.3985814 -0.5418929 -0.049888555
0001b0 ce eb b7 3e 96 55 83 bc ee 54 ab be 35 10 10 3f
       0.35922092 -0.016032021 -0.33463234 0.5627473
0001c0 44 fb c5 bd 08 9f 1c 3e 1c a9 3e 3e 41 1d 6c bf
       -0.09667066 0.1529504 0.18619198 -0.9223214
0001d0 15 98 60 3f b0 42 11 3f 4d 38 5d 3e 7f a3 2b bf
       0.8773206 0.5674238 0.21603508 -0.6704635
0001e0 28 37 e7 be 50 c1 d3 3e e8 52 4d 3f 7f ba b2 3e
       -0.45159268 0.41358423 0.8020463 0.3490791
0001f0 69 f0 be bd 18 97 81 3e 72 ed 06 3f bc 74 cd 3e
       -0.09323198 0.25310588 0.5270606 0.40128124
000200 fd 46 ab be 32 e0 0f be db 7b d7 3d 5b 56 3e bb
       -0.33452597 -0.14050367 0.105216704 -0.002904317
000210 a7 8d 09 be 67 4d 00 3e 2f 04 02 3d d8 b2 fd bd
       -0.13432942 0.12529527 0.03174227 -0.12387627
000220 fb 0e 9b 3e a8 17 da bd 34 b1 15 be 9f b7 c6 3d
       0.30284867 -0.10649043 -0.14618379 0.09702992
000230 79 df d7 3e 28 23 96 3d 6e cf 57 be 36 ae 30 3e
       0.42162684 0.07330924 -0.21075222 0.17253956
000240 5f 6b ee be a7 0f 03 bd 85 3e 71 bd 9f b9 23 3e
       -0.46566293 -0.03199735 -0.058897514 0.15988778
000250 07 c3 5a 3d 12 23 b6 bb e6 49 47 be 7d 80 f5 bd
       0.05340865 -0.00555838 -0.19461784 -0.11987398
000260 c6 1d 74 3e 50 89 10 3d 0e ea 16 bd c4 ae fc be
       0.23839483 0.0352872 -0.036844306 -0.49352086
000270 6e 3a 93 bc 3a 23 c9 3d b9 90 dd bc 0c 72 c9 be
       -0.017972197 0.09821172 -0.027046548 -0.39344823
000280 91 2d 0b bf 30 9e 6c be 8e 1d 0d 3e e6 5e a5 bd
       -0.54366404 -0.23107219 0.13780805 -0.08074741
000290 d0 85 bf 3d 67 9b 24 3e d8 a3 00 3f 61 90 af 3c
       0.093516946 0.16074906 0.50250006 0.02143115
0002a0 f1 ab 10 be d9 39 8b bd ca 25 16 3d c3 34 f5 3d
       -0.1412809 -0.06798143 0.036657132 0.11972954
0002b0 b3 35 a2 be e8 13 66 be 1c a7 d8 bb fc c5 d0 be
       -0.31681594 -0.22468531 -0.006611718 -0.4077605
0002c0 84 bf 0a be e0 85 98 3d 54 ea 3b 3e dd 17 91 bd
       -0.1354962 0.0744741 0.18351108 -0.0708463
0002d0 14 e0 65 be 7d 31 59 3e 9e 74 fa 3c db b3 32 3e
       -0.2244876 0.21210285 0.030573186 0.17451422
0002e0 ca da e0 3e 77 78 8f 3e 01 88 62 3c 4e c3 a4 bc
       0.43916923 0.28021595 0.013826371 -0.02011266
0002f0 a9 50 d5 bd 38 de 50 bd d5 76 c0 3d 40 d0 14 3e
       -0.10415775 -0.050993174 0.093976654 0.14532566
000300 7e 86 b2 bd a2 3b 8e be d6 25 75 bc 41 cb 0d be
       -0.087170586 -0.2777987 -0.014962634 -0.13847066
000310 26 3e 4a 3d c7 1e 39 bf 6d 05 bb be 5c 7b 70 be
       0.049375676 -0.7231259 -0.36527577 -0.23484558
000320 36 35 60 3e e9 6a de be 1c cd d7 3d c3 ec 12 bd
       0.21895298 -0.4344094 0.105371684 -0.035870325
000330 d5 9f 37 bc f5 df 84 3e d8 1a 22 bf 26 17 0e 3e
       -0.0112075405 0.25952116 -0.6332221 0.13876018
000340 9b 4e f6 bd 7f a9 fc 3d cc 0b 62 3d 2b fd 29 be
       -0.120267116 0.12337016 0.05518703 -0.16600482
000350 d9 49 ac 3d 8e b4 67 3e ae f4 ab be 4a 7e af be
       0.08412523 0.2262747 -0.33585113 -0.34276038
000360 ff bf 25 be db 1b bb be 0b 22 f7 bd 88 da e6 3d
       -0.16186522 -0.3654469 -0.1206704 0.1127215
000370 72 a3 a6 be 7b e3 83 be 0b 08 96 3d 09 ea de bc
       -0.32546574 -0.2575949 0.07325753 -0.027211206
000380 bf 67 ac be c7 35 23 3e 0c d9 39 3e 0c 74 02 be
       -0.33672902 0.15938483 0.18149203 -0.12739581
000390 d3 12 8a be 55 91 fd 3c a4 98 70 be f1 bc 65 3e
       -0.26967487 0.030953089 -0.23495728 0.22435357
0003a0 d2 5e 9c be d4 38 c6 bc 2b ac bb 3e 0f d4 bf bd
       -0.30541092 -0.02419702 0.3665479 -0.09366619
0003b0 f6 30 74 be 06 8d c6 3e a2 e5 1c b9 9d 94 0f bf
       -0.23846802 0.38779467 -0.00014962864 -0.5608614
0003c0 7c 52 72 be 25 06 b6 3b 04 f2 6f bd bc 70 56 3e
       -0.23664278 0.0055549317 -0.058580413 0.20941442
0003d0 6a 05 d1 bd 5a fa da 3c 70 df d3 3d 30 7f dd 3d
       -0.10206111 0.026730705 0.10345352 0.10815275
0003e0 a7 bd c0 3d 54 c1 ad 3e 5c 49 e7 be e8 19 1d 3b
       0.09411173 0.3393656 -0.45173156 0.002397174
0003f0 c4 e9 a9 be 4e b9 fe bd 86 01 95 be 83 a6 bf 3d
       -0.33186162 -0.12437688 -0.29102725 0.093579315

head_move.bias f4 [8]
000000 09 62 41 bf 51 7f 62 3e 0b 87 0d 3e 3d 8a a3 be
       -0.75540215 0.2211888 0.13821046 -0.31941405
000010 39 12 ce 3d a1 ee 26 c0 ee 44 2b c0 fc 37 32 c0
       0.100620694 -2.6083148 -2.6760821 -2.784667

head_comm.weight f4 [8, 128]
000000 e7 04 0c be 35 ce 9e be 3a 4e 81 be f9 d3 97 3d
       -0.13673745 -0.31016698 -0.25254995 0.074134775
000010 68 c8 3c 3e 99 83 9d 3d f9 80 80 3e c5 96 d6 3d
       0.18435824 0.07691116 0.25098398 0.10477976
000020 f4 2c ab be 63 3f 5b be df 3f 3b 3e 7f cb d8 be
       -0.33432734 -0.21410899 0.18286084 -0.42342755
000030 56 39 67 3e df 30 6b 3c 8a c3 cd 3d f9 29 5f be
       0.22580466 0.0143549135 0.10047062 -0.21793355
000040 92 cd 63 3e 88 53 54 3e f8 3f 37 3e fd 69 80 bd
       0.22246388 0.2073499 0.17895496 -0.06270216
000050 68 b8 e7 3d a0 b6 c7 3b 7a 24 99 3e 2d 0d a5 3d
       0.113144696 0.0060947686 0.29910642 0.08059154
000060 d8 13 27 3f 85 40 20 3d 1a 23 f1 3b 6a 68 03 3f
       0.65264654 0.03912403 0.0073589208 0.513312
000070 a3 64 7e be 43 51 5c be 66 56 4f 3e 0c 7e e8 be
       -0.24843077 -0.21515374 0.20247802 -0.45408666
000080 08 57 08 bf 5b 21 7a 3e 09 28 18 3d 3c 26 8e be
       -0.532578 0.24426787 0.037147556 -0.27763546
000090 3e 9a 15 bd 5c 2a ad 3c f2 b9 f8 be 63 50 98 bd
       -0.03652405 0.021138363 -0.48579365 -0.074372075
0000a0 8b 3b 65 3d 83 a3 17 be ac b5 29 3e 71 0a 4d be
       0.055964988 -0.14808469 0.16573209 -0.20023514
0000b0 f2 1b 84 be e4 46 a5 be a6 91 87 bd ae db 86 bd
       -0.2580257 -0.32280648 -0.06619577 -0.06584869
0000c0 4e 57 f1 3d 42 a9 98 3c 99 63 56 3d 71 21 16 3e
       0.1178423 0.018635396 0.052341077 0.14661194
0000d0 90 e4 63 be 18 f3 22 be 23 4c 1b 3e 7e 97 54 be
       -0.22255158 -0.15913045 0.15165763 -0.20760915
0000e0 77 d0 07 bf ab 8b f5 bd ec 8b 7b bc 09 c8 f6 3c
       -0.5305247 -0.1198953 -0.015353184 0.030124681
0000f0 d2 5e 24 be d1 15 5b be 52 55 af bd 64 0e a4 bd
       -0.16051796 -0.21395041 -0.085611954 -0.08010557
000100 e9 ac 4b 3c 96 49 52 be 16 0d 7a be 30 98 fc 3d
       0.012431362 -0.20535883 -0.24419054 0.12333715
000110 9b 63 09 3c 74 41 05 3f 36 1b a6 be ca ff b8 be
       0.008385564 0.52053 -0.32442635 -0.36132652
000120 61 3f 9e 3e 9f 7d c2 bd 94 ed c7 bc 41 b2 28 3e
       0.3090773 -0.094966166 -0.024405278 0.16474248
000130 de 78 be bc 9b a9 e2 bc ba 1f 0f bf cb ef 65 3e
       -0.023250993 -0.027668765 -0.55907786 0.22454755
000140 fc 3e 63 3e 29 31 94 3e 10 d1 28 3e 64 22 4c 3e
       0.22191995 0.28943756 0.16486001 0.19934994
000150 c2 d8 2d be f5 52 1e 3e e5 16 d2 3d 1d 49 96 3b
       -0.16977218 0.15461333 0.10258273 0.0045863525
000160 d5 ef 09 bc 13 5b f7 3e 51 29 d0 bc 7a 10 f6 3d
       -0.008418997 0.48311672 -0.025410326 0.120148614
000170 fe 3b 85 be 75 9d 23 3e c3 f8 af 3d 00 53 9a 3e
       -0.26022333 0.15978034 0.085923694 0.3014145
000180 66 84 0c bf c4 b6 67 3d 49 69 06 3e 3e 8f 14 be
       -0.54889524 0.056570783 0.131261 -0.14507768
000190 22 7c 52 be 3c 19 05 3d d7 83 59 be 2d 4d 28 3c
       -0.20555165 0.03249477 -0.21241699 0.010272306
0001a0 65 30 e7 3f 8b f2 49 3e 69 80 5a bd fb 67 8e 3d
       1.8061644 0.19721429 -0.053345118 0.069534265
0001b0 74 0e f7 bd b9 b1 26 be c4 56 f2 3d e4 a5 c4 be
       -0.120633036 -0.16278733 0.118329555 -0.38407815
0001c0 3b 8c 70 bd d6 93 f7 bd 5a 2c e6 3d 2f 0b 22 be
       -0.058727484 -0.12088744 0.11238928 -0.15824579
0001d0 ff 2b ee 3c f1 bc 11 be 01 47 0a 3e bd d8 f2 3d
       0.029073713 -0.14232232 0.13503648 0.11857746
0001e0 f5 05 01 3d 0b 55 32 bd 10 13 8a be 11 f7 91 be
       0.03149982 -0.043538135 -0.2696767 -0.2850881
0001f0 48 9a 85 3e f8 b7 06 be ff 43 29 be e1 71 b8 3d
       0.2609427 -0.13156116 -0.16529845 0.09006096
000200 67 72 28 bd 1b d1 a4 3e 91 34 84 3e cc 70 88 be
       -0.041124728 0.32190785 0.25821355 -0.26648557
000210 03 8a 91 be 1c 3a 4f be 9e 43 01 be bc 19 21 be
       -0.28425607 -0.2023701 -0.1262345 -0.15732473
000220 3b 82 d8 3e 42 50 8b 3d 48 4d 59 be 2f 3f c9 3e
       0.42286858 0.06802417 -0.21220887 0.39306018
000230 69 28 c2 bd 3c 72 22 3d 5f 8b 94 bc 7c c1 ce bd
       -0.09480364 0.039659724 -0.018132864 -0.10095498
000240 ef 30 9b be 82 05 d6 bd 8f 4a b2 bd ff 4a 35 3e
       -0.3031077 -0.10450269 -0.08705627 0.1770439
000250 52 74 28 be 00 76 b0 bd 54 b6 02 be 4c f1 9e bc
       -0.16450623 -0.08616257 -0.12764865 -0.019402169
000260 3b 94 31 bf fe cd 06 3d 68 b0 98 be 49 34 26 bf
       -0.69366807 0.032911293 -0.29822087 -0.6492353
000270 17 4c 3d 3d 87 12 8d 3e fc 51 48 bd bc 0c f6 3e
       0.046215143 0.27553198 -0.04890631 0.4805659
000280 e3 8b c9 3e 0b 60 42 be 61 02 b6 be 2d b0 ba 3e
       0.39364538 -0.1898195 -0.3554869 0.36462536
000290 e7 3e 78 3e d8 a7 be bd 07 e7 0d 3f a1 60 6f be
       0.24242745 -0.093093574 0.55430645 -0.23376705
0002a0 7b 0f d9 bd d5 71 5d 3e 21 94 3a 3d 44 a1 d0 3d
       -0.10598656 0.21625455 0.045551423 0.10187009
0002b0 50 e0 f4 bd 0d 85 64 3e 16 ca 26 be d7 64 72 3e
       -0.11956847 0.2231638 -0.16288027 0.2367128
0002c0 be 09 13 be 9e 7e 3a 3e 58 f4 85 bd 3d 95 99 bd
       -0.14359185 0.18212363 -0.065407455 -0.07499168
0002d0 59 76 5a 3e 2a 25 93 3e 14 d7 51 3d b1 ae 39 bb
       0.21334209 0.2873929 0.051230505 -0.0028332884
0002e0 c6 ba 10 3f eb 27 90 3e 06 df c2 3c d0 ac 9c be
       0.56534994 0.28155455 0.023787986 -0.30600595
0002f0 cd 46 88 3d bc e9 1a bc 55 3b 8b 3d d4 11 69 bd
       0.06654129 -0.009455141 0.06798426 -0.056901768
000300 d7 f0 de bd 90 de 98 bd 21 7f 96 3e 92 9e c9 bd
       -0.1088578 -0.074643254 0.29393867 -0.09844698
000310 6a 0d 8c bc a6 92 0a bf 47 c6 3c 3e 4b 1e 00 3f
       -0.01709624 -0.5413002 0.18435012 0.50046223
000320 f3 89 8d be 7a f5 90 3d e3 f6 a8 3d 5c e6 e3 3d
       -0.2764431 0.07078071 0.08250215 0.11127922
000330 2e 5d 25 bc b5 fe fb bd a7 90 fd 3e 2a 68 12 be
       -0.010093017 -0.12304441 0.49524423 -0.14297548
000340 d3 f2 ff bd ac 79 38 be 9d 85 49 be a3 c5 79 3d
       -0.12497487 -0.18015164 -0.19679876 0.060979497
000350 fa a2 3c 3d 98 7e 28 bc d6 ec 3a be d4 0c 1a 3c
       0.046053864 -0.010284089 -0.18254408 0.0094024725
000360 08 7b 8e 3a d3 11 f4 be 99 97 09 be 5d c7 05 be
       0.0010870406 -0.4766985 -0.13436736 -0.13064332
000370 d8 d3 fd 3e 91 82 27 3c 6c 2a 66 bd d3 db 8b be
       0.49575686 0.010224001 -0.0561928 -0.2731615
000380 a7 97 89 3e f0 35 ad 3c 33 b7 5b 3d 7d a3 23 bd
       0.26873514 0.021143883 0.05364151 -0.039950836
000390 34 25 51 3e 7a d5 8f 3e 20 1c 2e 3e d1 8a cb 3d
       0.20424348 0.28092557 0.17002916 0.099385865
0003a0 4c 36 da bf d3 87 91 be 56 ba 88 3d 00 f6 54 3d
       -1.704782 -0.28423938 0.06676166 0.051992416
0003b0 49 91 31 3c e1 cc a1 3e 9f 49 a7 3d 33 7c bd 3e
       0.010837861 0.31601623 0.08168339 0.3700882
0003c0 2b b0 82 3e 7d 80 cf 3d e0 e7 52 be b2 dd 40 bc
       0.2552503 0.10131929 -0.20596266 -0.011771606
0003d0 7a b9 44 3c f0 bb fd bd db c2 41 3d 4b ed 33 bd
       0.012007112 -0.12389362 0.04730497 -0.043927472
0003e0 63 a9 a3 3c c9 37 aa 3e fa c3 9a 3e 9b 1b 84 bd
       0.01997823 0.33245686 0.30227643 -0.06450578
0003f0 95 75 53 be 50 e6 f1 bc 29 99 c8 3d 32 6f 58 be
       -0.20650323 -0.029528767 0.09794838 -0.21136168

head_comm.bias f4 [8]
000000 05 3d 9b bd f5 a8 4c 3e 72 79 d1 bf 24 7b c6 bf
       -0.07579998 0.19986327 -1.6365187 -1.550633
000010 6d df c9 bf 49 23 ba bf cd b2 cc bf 2a 7d cd bf
       -1.5771309 -1.4542018 -1.5992066 -1.6053822

head_mode.weight f4 [2, 128]
000000 5b 63 ad bd 67 da d4 be a2 4b 87 be da 26 f1 3d
       -0.08466216 -0.41572878 -0.2642489 0.117749885
000010 8f cf 27 3e e8 d5 b7 3e 6e f6 45 3e 37 be c6 3d
       0.16387771 0.35905385 0.19332287 0.09704249
000020 f0 f1 b3 be 27 17 41 be 10 e7 3a 3e 99 f6 fd be
       -0.3514552 -0.18856488 0.18252206 -0.49602202
000030 75 26 7a 3d 2b c7 8d 3d 98 77 ae 3d 5a 2c 66 bd
       0.06107183 0.06922754 0.085189044 -0.05619464
000040 41 5a b7 3e 7c 7c 10 3e 37 4e 57 3e dc 71 83 be
       0.35811046 0.14109987 0.2102593 -0.25672805
000050 c8 b1 39 bb a7 04 8d bc 50 3f 2e 3e 04 ee 12 3d
       -0.0028334726 -0.017214132 0.1701634 0.03587152
000060 5d 3d 33 3f b3 90 69 3c 3d ba 94 3c f8 72 29 3f
       0.7001551 0.01425569 0.018155212 0.66191053
000070 06 8f 22 be fe a9 b7 be 88 69 49 3e 9a 43 c8 be
       -0.15874872 -0.3587188 0.19669163 -0.39114076
000080 79 c7 fa be 99 51 50 3e e4 50 d2 3d 0a 31 cc be
       -0.4898031 0.20343627 0.10269335 -0.39881164
000090 f3 b1 0e be 5d 9f 89 bd 80 a4 e8 be 2b a4 cc 3d
       -0.1393507 -0.06719849 -0.45438004 0.0999225
0000a0 61 94 fc 3d b3 84 86 bd 09 c9 ef 3d 5f a1 d8 bd
       0.123329885 -0.06568279 0.11708266 -0.10577654
0000b0 d3 4b 1b be 54 dd d0 be da 4b 91 bc c7 40 9d be
       -0.15165643 -0.4079386 -0.017736364 -0.30713484
0000c0 d5 c5 3a 3e 76 6e 76 bd d2 38 2c 3d 10 90 16 3d
       0.1823953 -0.060163938 0.042046376 0.036758482
0000d0 81 61 ae be ce 8a 2d be 94 e4 5a bc 7a c2 07 be
       -0.34058765 -0.16947481 -0.013360161 -0.1325778
0000e0 78 59 00 bf 88 da 8f be 5b 82 ae bc 78 41 61 3e
       -0.5013652 -0.28096414 -0.021302393 0.2199763
0000f0 f7 1e 1a bd 04 7d 42 be b3 78 19 be 1b c0 1b 3d
       -0.037627187 -0.18993002 -0.1498745 0.038025003
000100 6d 65 f1 3d 23 d5 1a be b7 a6 65 be be 3e 27 3e
       0.117869236 -0.15120368 -0.22426878 0.16332528
000110 25 43 ff 3d db 5f 17 3f f1 d1 3b be 7e fe ed be
       0.12463979 0.5913064 -0.18341805 -0.46483225
000120 be 5a 7e 3e ca 1c 05 bd e7 9a ac bd 0c 2e dc bd
       0.24839303 -0.03249816 -0.08427983 -0.1075097
000130 01 29 48 3d a1 5d 61 bd 68 1e 07 bf d7 77 23 3e
       0.04886723 -0.055020932 -0.5278077 0.15963684
000140 ea 2d 0c 3e 08 af 93 3e 49 3b 77 3e 01 aa a3 3c
       0.1368939 0.28844476 0.24143709 0.019978525
000150 8d e8 b4 bd c6 4c 2a 3e 8d da d2 3d e2 40 90 bd
       -0.08833418 0.16630849 0.102955915 -0.070436254
000160 4b 2a b5 bd 22 1b 17 3f 6a 1f f1 3d 90 d1 8a 3c
       -0.08845957 0.59025776 0.1177357 0.01694563
000170 9e d4 87 be f2 07 31 3e db 3e ef 3b 02 d9 d2 3e
       -0.26529402 0.17288187 0.007301194 0.4118119
000180 6d 2f c2 be 90 47 00 bd bd 7f 3b 3d ce 97 40 be
       -0.37926808 -0.031318247 0.045776118 -0.18807909
000190 94 ed a8 be c3 cc 85 bd 7f 66 19 be c8 18 66 ba
       -0.32993758 -0.06533196 -0.14980505 -0.00087774964
0001a0 2a 1b ea 3f 43 cf b0 3e 9b b8 58 3c 23 bb 8f 3c
       1.828954 0.34533128 0.013227607 0.017545288
0001b0 b7 43 3b bd 9e d4 69 be ee 3c 92 3d d9 b6 be be
       -0.045718875 -0.22835013 0.07140528 -0.37248877
0001c0 66 4f 81 bd 21 a5 10 be d2 15 b8 3d 22 d9 e7 bd
       -0.06313972 -0.14125492 0.08988537 -0.11320712
0001d0 f1 33 8d 3d 4c 84 2e bd 9e 8b 8f bb 8b eb c8 3c
       0.06894673 -0.042606637 -0.0043806573 0.024526378
0001e0 9d bf 38 bd 1c b7 5f be 06 3d e2 be bc 66 31 be
       -0.04510461 -0.21847194 -0.44187182 -0.17324346
0001f0 27 ac 26 3e 0c 90 63 be 67 d6 d4 bd 15 5d a3 3d
       0.16276608 -0.22222918 -0.103924565 0.07976738
000200 43 52 7d 3d 76 f9 9f 3e 6e 0e 81 3e 01 b6 7b bd
       0.06184603 0.3124501 0.2520632 -0.06145287
000210 e7 27 96 be 2f 50 a1 be 9f 9c 66 be fc 9e 14 be
       -0.29327318 -0.31506488 -0.22520684 -0.14513773
000220 bc ab d7 3e 1a 20 80 3e c4 47 e6 bd de e2 17 3f
       0.4212321 0.25024492 -0.11244157 0.59330547
000230 1a 2f d7 bd 72 b9 bd 3d fc cf 06 be 15 f4 87 3d
       -0.10507031 0.092638865 -0.13165277 0.06638352
000240 b7 ed 9c be d9 7f df bd 02 be 5a be dc b2 29 3e
       -0.30650112 -0.10913057 -0.21361545 0.16572136
000250 89 55 f3 bd 62 c8 b2 3c 0a 32 9e be 5b 93 42 bd
       -0.11881549 0.021824066 -0.30897552 -0.04750381
000260 8b 92 31 bf f5 68 f3 3d 45 d5 2b be 16 60 20 bf
       -0.6936423 0.11885253 -0.16780575 -0.62646616
000270 54 53 d3 3d 56 e2 db 3e 89 d2 91 be b2 61 cb 3e
       0.10318628 0.42946118 -0.28480938 0.39722973
000280 c8 6f 0a 3f 54 6f 41 be 87 31 a3 bd ff 75 ac 3e
       0.54076815 -0.18890125 -0.07968431 0.33683774
000290 ab 1b 13 3e 76 f2 8f bd 0e 34 e1 3e 72 0c cc bd
       0.14366023 -0.07028668 0.43985027 -0.09963311
0002a0 8e d2 c6 bd 1e e7 0a 3e 31 fc 2d 3c 0e 54 3b 3e
       -0.09708129 0.13564727 0.010619209 0.18293783
0002b0 ad 3d b7 3d e3 da c3 3e 83 29 4b 3c d4 48 8a 3e
       0.089473106 0.38252935 0.012400034 0.27008688
0002c0 4b d9 9c bd b5 9d 31 3e 14 0f 46 3d 58 ab 2f be
       -0.07658633 0.17345317 0.048354223 -0.17155206
0002d0 60 bd 6e 3e ba 9a 9a 3e 05 aa 98 bb d5 6a 0c 3b
       0.23314428 0.30196172 -0.00465894 0.0021425982
0002e0 14 d3 04 3f f2 f0 88 3e 29 4e 44 bd b5 00 0e be
       0.5188458 0.26746327 -0.0479261 -0.13867457
0002f0 17 0e 0e 3e eb 12 b3 3c b8 10 df 3d bc bb 4d bd
       0.13872562 0.021859607 0.10891861 -0.050227866
000300 69 f7 5c be 3c 2a 3e 3e cb bc 8c 3e f7 62 dc bd
       -0.21578754 0.18570799 0.27487788 -0.107610635
000310 f3 fc 8b bd 43 b7 09 bf b1 0b 70 3e d7 c7 b5 3e
       -0.068353556 -0.5379526 0.2344196 0.35504028
000320 f9 00 85 be 01 8e c3 3d 71 3f 90 b9 5c 4a 20 3e
       -0.25977305 0.095485695 -0.00027513088 0.15653366
000330 4f 68 a7 bb 78 61 51 bd 68 47 20 3f 0d 36 47 be
       -0.00510887 -0.051118344 0.6260896 -0.19454212
000340 c2 85 52 be 7d 9a ba be e4 23 6f be 9a 90 b9 bd
       -0.20558837 -0.3644599 -0.23353535 -0.09060784
000350 dc c2 c9 3d f8 b0 6a bd f9 05 a3 bd 46 1d 6e 3d
       0.098516196 -0.057297677 -0.079601236 0.058133386
000360 28 0b 9b 3d 36 53 f4 be 36 b9 e3 bd 11 06 c3 bd
       0.07570487 -0.47719735 -0.111193106 -0.095226415
000370 e7 07 cb 3e 3b 5a 8c bd 56 33 49 3d eb db a1 be
       0.39654467 -0.068531476 0.049121223 -0.31613097
000380 85 98 d4 3e 00 0b e7 bc 32 cc 10 be e3 b6 71 3e
       0.41522613 -0.028203487 -0.14140394 0.23604922
000390 59 3b a3 3e d7 b3 2f 3e 94 a8 48 3e 6d f4 b2 3c
       0.31881216 0.17158447 0.19595557 0.021845067
0003a0 ae ab ea bf 09 db 87 be b6 b5 c2 3d 09 17 81 3d
       -1.8333642 -0.26534298 0.09507315 0.06303222
0003b0 9a a8 97 3d 49 29 5b 3e 33 bd e7 b9 a9 69 c5 3e
       0.07405205 0.21402468 -0.00044200718 0.38557175
0003c0 71 c7 2c 3e af 79 3a 3e a6 4e a6 bd d0 c9 7f 3d
       0.16872956 0.18210481 -0.0812047 0.062448323
0003d0 eb 0b 49 bd 76 24 6f 3b ac 2c 0e bc 98 89 dc 3d
       -0.04908363 0.0036490238 -0.008677643 0.107684314
0003e0 de 35 50 bc d2 27 b0 3d f9 77 ee 3e 46 7f fe 3d
       -0.012708155 0.08601345 0.46575907 0.12426619
0003f0 ee 2b 50 be 24 25 aa 3e fd 9c f8 3d d0 9a 02 bd
       -0.20329258 0.3323146 0.12139318 -0.031885922

head_mode.bias f4 [2]
000000 e1 ec 21 be 1f b7 34 3e
       -0.15813018 0.1764798
