outputs/checkpoints/mappo_task_only_stage1.pt (torch, 481429 bytes, 17 tensors)

net.0.weight f4 [128, 44]
0	0x3b619486	0.0034420802
1	0x3eece070	0.46264982
2	0x3dc70432	0.09717597
3	0xbee703fa	-0.4512022
4	0x3f2c6940	0.673481
5	0x3dba75c3	0.091044925
6	0x3ed62956	0.41828412
7	0xbd23e337	-0.04001161
8	0xbe9d79f1	-0.30757096
9	0xbe6db82b	-0.23214786
10	0x3c42de35	0.011893799
11	0xbe7df85a	-0.2480177
12	0x3e16a274	0.14710408
13	0xbd189afa	-0.037257172
14	0xbd9481be	-0.07251309
15	0xbe8a07e1	-0.26959136
16	0x3e1fcdd5	0.15605862
17	0x3dc466b1	0.09589899
18	0xbb9ee8f8	-0.0048495494
19	0xbea40afb	-0.32039627
20	0x3d4be20f	0.049776133
21	0x3c8b5be9	0.0170116
22	0x3e014428	0.12623656
23	0x3dd6daf6	0.10490982
24	0xbe0801fa	-0.13282004
25	0x3e8200ae	0.25391144
26	0xbd184f6e	-0.037185125
27	0x3ea4f3d2	0.3221727
28	0xbd23b442	-0.03996683
29	0x3ed87a30	0.42280722
30	0xbdffd39f	-0.124915354
31	0x3f0520f1	0.5200339
32	0xbc7e72a8	-0.015530266
33	0x3de06eca	0.10958631
34	0x3c4a66dd	0.012353626
35	0xbdf4026b	-0.11914524
36	0xbd56bbcb	-0.052425187
37	0xbe856677	-0.26054737
38	0xbe1ee180	-0.15515709
39	0xbe0f27d1	-0.13980033
40	0xbcb6182c	-0.022228323
41	0x3cc63eeb	0.024199924
42	0x3e4c6f9c	0.1996445
43	0x3bee15fc	0.0072658043
44	0xbf5fd695	-0.874368
45	0x3f3ef0a2	0.74585927
46	0x3cc95c24	0.024580069
47	0x3eb19d49	0.34690312
48	0x3f0d39a1	0.5516606
49	0xbb5662cb	-0.0032712694
50	0x3e30ff29	0.17284836
51	0x3b589567	0.0033048035
52	0xbe333202	-0.17499545
53	0xbddf331a	-0.10898419
54	0x3e8644ff	0.26224515
55	0xbcbe922a	-0.023263056
56	0x3f041861	0.515997
57	0xbe6cfeb7	-0.23144041
58	0x3e61592e	0.22006676
59	0xbe2b7b7f	-0.16746329
60	0xbcaf9396	-0.02143268
61	0xbd293cb0	-0.04131764
62	0xbe5d86ca	-0.21633449
63	0xbe309704	-0.17245108
64	0xbe196748	-0.14980805
65	0xbe326ed9	-0.17425098
66	0x3cbfa751	0.023395212
67	0xbde082a7	-0.1096242
68	0x3d9b63a5	0.07587365
69	0x3c85ff5f	0.016357122
70	0xbe5fb711	-0.21847178
71	0xbe7325c2	-0.23744872
72	0xbe64e37c	-0.22352403
73	0x3d1a4d72	0.037671514
74	0xbc8dc179	-0.017304169
75	0x3e6a20dd	0.22864099
76	0xbdb31a3d	-0.08745239
77	0xbd576ca5	-0.052593846
78	0xbde8cf8f	-0.11367714
79	0x3e1c4ed0	0.1526444
80	0x3cbeddd6	0.023299139
81	0x3e2c4e7d	0.16826816
82	0x3d1dbfbc	0.03851293
83	0x3c67fabd	0.014158902
84	0xbe9ed9c1	-0.31025508
85	0xbb90510d	-0.0044041933
86	0x3d1a6ca3	0.03770126
87	0x3e5ef3c8	0.21772683
88	0xbe763eaf	-0.2404735
89	0xbf3433c2	-0.70391476
90	0x3e0e4fca	0.13897625
91	0x3de5575f	0.11198305
92	0xbf9dd059	-1.2329208
93	0xbdb90f2d	-0.09036098
94	0x3eb61c03	0.35568246
95	0xbe543ddf	-0.20726727
96	0xbf244d31	-0.64180285
97	0xbd7fdc73	-0.062466096
98	0xbb2cc1a0	-0.0026360527
99	0x3d488432	0.048954196
100	0x3e196b16	0.14982256
101	0xbcccb4ea	-0.02498861
102	0x3e574c6c	0.21025246
103	0xbd82454e	-0.06360875
104	0x3e3702e8	0.17872202
105	0x3e6ff583	0.23433499
106	0xbe196506	-0.14979944
107	0xbe6d28e0	-0.23160124
108	0xbd15247f	-0.03641176
109	0xbd143559	-0.03618369
110	0x3e3e88fb	0.18606941
111	0x3e04f349	0.12983431
112	0x3e2a447b	0.16627686
113	0xbe8f32fe	-0.2796859
114	0xbf2ef6b7	-0.68345207
115	0xbe272c64	-0.16325527
116	0xbd6dbe09	-0.05804256
117	0xbca3f714	-0.020015277
118	0x3da531ba	0.08066125
119	0x3dcf30d8	0.10116738
120	0xbdb6d11a	-0.08926602
121	0x3e398511	0.18117167
122	0x3d97deda	0.074155524
123	0xbd670d3d	-0.05640911
124	0x3ea45c19	0.32101515
125	0xbde9bed7	-0.11413353
126	0x3ef4c1c1	0.47804072
127	0xbe3bd537	-0.18343054
128	0x3f2bbc03	0.6708376
129	0x3e6f6c5e	0.23381183
130	0x3e827b15	0.2548453
131	0x3e18188f	0.14853118
132	0xbdeb270d	-0.11482058
133	0xbdfe8888	-0.12428385
134	0xbe5e76ad	-0.21724959
135	0xbd5a0bda	-0.05323396
136	0x3fa516e6	1.2897613
137	0x3e1c859e	0.15285346
138	0xbe4ce5d9	-0.20009555
139	0xbd9a0871	-0.07521141
140	0xbbf2e199	-0.0074121472
141	0xbe030275	-0.12793906
142	0xbd8c04ee	-0.06836878
143	0x3d9c776c	0.076399654
144	0xbde540ab	-0.11193975
145	0xbe792441	-0.24330236
146	0xbd4d94a9	-0.0501906
147	0x3d9e1255	0.0771834
148	0x3e28f01b	0.16497843
149	0x3dcbbd62	0.09948231
150	0x3ea759c9	0.32685688
151	0x3e1295ee	0.14315006
152	0x3cad425e	0.02114981
153	0x3d3ef1cf	0.046617325
154	0xbe2bf049	-0.1679088
155	0xbe2bb4df	-0.16768216
156	0xbd435b5b	-0.047694545
157	0x3e97713c	0.29578578
158	0x3e684856	0.22683844
159	0x3d971f24	0.073789865
160	0x3c4d593e	0.012533484
161	0xbd891d5e	-0.066950545
162	0x3d24dd25	0.040249962
163	0x3cf2fe0d	0.029662156
164	0xbd908d6e	-0.070582256
165	0x3d017fc9	0.031616006
166	0xbc66e106	-0.014091736
167	0xbc4812dd	-0.012211529
168	0x3e15f0ca	0.14642635
169	0xbe8741ce	-0.26417392
170	0x3db39e78	0.0877046
171	0xbe06c642	-0.13161567
172	0xbd80d3d7	-0.06290405
173	0x3d95d174	0.07315341
174	0x3dbe6ae6	0.09297733
175	0x3d82cd1f	0.0638678
176	0x3defd512	0.11710562
177	0xbf7b89c0	-0.98257065
178	0x3e3ab31f	0.18232392
179	0x3e0f617f	0.14002036
180	0xbf7b808c	-0.9824302
181	0xbe754691	-0.239527
182	0xbddcd432	-0.107826605
183	0xbe15071d	-0.14553495
184	0xbc0d3248	-0.008617945
185	0xbe373db6	-0.17894635
186	0xbd46936b	-0.048480432
187	0x3e34e9fc	0.17667383
188	0x3e25e460	0.162004
189	0x3e1f7487	0.15571795
190	0x3d01b3ba	0.03166554
191	0x3dab886a	0.08375628
192	0xbde509f4	-0.11183539
193	0xbe98b611	-0.29826406
194	0xbeec2892	-0.46124703
195	0x3e7ae850	0.24502683
196	0xbdc3e3f3	-0.09564962
197	0x3c954f46	0.018226277
198	0x3d95bf76	0.07311909
199	0x3d470a6b	0.04859392
200	0xbc3ff1ea	-0.011715392
201	0xbd79f0be	-0.061020605
202	0xbed96660	-0.42460918
203	0x3e55fc71	0.2089708
204	0xbe93f637	-0.28898785
205	0x3cf54b1a	0.029943038
206	0xbd903ce6	-0.070428655
207	0x3dd54811	0.10414136
208	0x3e169a10	0.14707208
209	0xbe12259c	-0.1427216
210	0xbbbe2c22	-0.005803601
211	0xbed89c3f	-0.42306706
212	0x3e8c3830	0.27386618
213	0xbe8aa61e	-0.27079862
214	0x3eae57c5	0.34051338
215	0xbe7c30a4	-0.2462793
216	0x3ec1f3c4	0.3788129
217	0xbe15e4d1	-0.14638068
218	0xbbc02434	-0.0058636907
219	0xbdb792f8	-0.08963579
220	0x3ee4c74a	0.44683295
221	0x3f194995	0.598779
222	0xbd579329	-0.052630577
223	0x3f8160d6	1.0107677
224	0x3d872c8b	0.06600293
225	0x3cce23a3	0.025163477
226	0x3e2735f9	0.16329183
227	0xbc6ab5d9	-0.014325582
228	0x3db35fa7	0.087584786
229	0xbd950455	-0.07276217
230	0xbdc1fbc8	-0.094718516
231	0xbe2c5dbf	-0.16832636
232	0x3cd145c6	0.025545966
233	0x3a7b2353	0.0009580154
234	0x3c936fe6	0.017997693
235	0xbcb71f6d	-0.022353852
236	0xbd398758	-0.04529509
237	0xbe8524ed	-0.26004735
238	0x3db60e03	0.08889391
239	0x3e3b8985	0.18314178
240	0x3d9d346a	0.07676013
241	0x3e289a78	0.16465175
242	0x3d9fd629	0.0780452
243	0x3cbc016d	0.022949899
244	0x3cde1439	0.027109252
245	0x3e53acba	0.20671359
246	0x3ef8e73f	0.48613927
247	0x3d9b2c26	0.0757678
248	0xbdef49a0	-0.11683965
249	0xbc9362d1	-0.017991455
250	0xbd8d1e39	-0.0689053
251	0xbe8efc9e	-0.27927107
252	0x3d6bba4e	0.05755072
253	0x3dbcc64b	0.09217509
254	0x3b88ddf7	0.004176851
255	0xbdbd6be1	-0.09249092

net.0.bias f4 [128]
0	0x3d0fb76b	0.03508703
1	0x3d85b74a	0.065291
2	0x3def9c5a	0.116997436
3	0xbe2de240	-0.16980839
4	0x3d0ea6b0	0.034826934
5	0xbd80cec2	-0.06289436
6	0xbd8d21a3	-0.06891181
7	0xbe526fc4	-0.20550448
8	0x3db88c4d	0.09011135
9	0xbde08be3	-0.10964181
10	0x3b5631a0	0.0032683387
11	0x3bb0b8ac	0.0053931084
12	0x3e15b72f	0.1462066
13	0x3e26b7a6	0.16280994
14	0xbda3ccc9	-0.07998044
15	0xbd819a4e	-0.063282594
16	0xbe005c6d	-0.12535258
17	0x3dab0084	0.08349708
18	0xbd006eed	-0.031355787
19	0x3c91c03a	0.017791856
20	0x3e66f8b3	0.22555809
21	0xbd8d61d8	-0.06903428
22	0x3db0392b	0.08604654
23	0x3db50fce	0.08840905
24	0x3e11b51f	0.14229248
25	0x3d2d6938	0.042336673
26	0x3d90cb3b	0.07070013
27	0x3d0f1e68	0.034941107
28	0xbe08c6b5	-0.1335705
29	0xbd873845	-0.066025294
30	0x3c1aad31	0.009440706
31	0xbd866a59	-0.06563253
32	0xbd5e5fba	-0.05429051
33	0x3d98a89a	0.07454033
34	0xbd7908c4	-0.060799375
35	0xbbb67881	-0.0055685644
36	0xbe27b1d2	-0.16376427
37	0xbd5cc277	-0.053896394
38	0xbcd2660d	-0.025683427
39	0xbdf079cb	-0.1174198
40	0xbdeeacf1	-0.1165408
41	0xbd2ac058	-0.04168734
42	0x3d5b76bf	0.053580042
43	0xbdf00548	-0.11719757
44	0xbcbf85b3	-0.023379182
45	0xbd3d5666	-0.046224974
46	0xbe18f686	-0.14937791
47	0xbd1cc7f6	-0.038276635
48	0x3cbc35b9	0.022974836
49	0x3e1ae780	0.15127373
50	0x3c837642	0.0160476
51	0x3d96b3a8	0.073584855
52	0x3c1c86e7	0.009553648
53	0xbdd9eca4	-0.10640839
54	0x3d00187e	0.031273358
55	0xbb999266	-0.0046866415
56	0x3e14d46f	0.14534162
57	0x3da412c7	0.08011394
58	0x3d9423e4	0.07233408
59	0xbd4114d4	-0.047139004
60	0xbd87a9df	-0.06624197
61	0x3baf28f8	0.00534546
62	0xbcc73612	-0.024317775
63	0x3df3c726	0.11903219
64	0x3e2ec67b	0.17067902
65	0xbddeac6d	-0.10872731
66	0x3d05828f	0.032595214
67	0xbdff74f0	-0.12473476
68	0x3c17a511	0.0092556635
69	0x3da20752	0.079115525
70	0x3da315c4	0.07963136
71	0x3d21933c	0.039447054
72	0xbdb2cd27	-0.08730536
73	0xbd401deb	-0.046903532
74	0x3b6ad95a	0.0035835118
75	0xbe0cc042	-0.13745216
76	0x3e21e0a0	0.15808344
77	0x3e3398d8	0.17538774
78	0xbdf0520e	-0.11734401
79	0x3b48e4db	0.0030653987
80	0xbdf0f828	-0.11766082
81	0x3e5cc3ea	0.2155911
82	0x3b74e74e	0.0037369314
83	0xbe0048bd	-0.12527747
84	0xbdbcee32	-0.0922512
85	0x3dfc6112	0.12323202
86	0x3c46c4f5	0.012131919
87	0x3e2a6952	0.16641739
88	0xbd909e0f	-0.07061397
89	0x3d46bb9f	0.048518773
90	0x3df3dca6	0.1190732
91	0x3cea90f9	0.028633581
92	0x3e4bfbcb	0.1992027
93	0xbd64dad3	-0.05587275
94	0xbc6bab9f	-0.014384179
95	0x3e38fae3	0.18064456
96	0xbe14ed0b	-0.1454355
97	0x3d5e913c	0.054337725
98	0x3d9ad4f7	0.07560151
99	0x3d2aa5bf	0.041661974
100	0x3ad02758	0.0015880866
101	0xbd7bca83	-0.061472427
102	0xbe1bba46	-0.15207776
103	0xbd969ebd	-0.07354496
104	0x3cac47cd	0.021030331
105	0xbdefb19b	-0.117037974
106	0xbdb2cd10	-0.08730519
107	0x3d4af2f3	0.0495481
108	0x3d1cfb94	0.03832586
109	0x3d3034d6	0.04301914
110	0xbdb07756	-0.086165115
111	0xbde2d282	-0.110753074
112	0x3df0b717	0.117536716
113	0x3db35b8f	0.08757698
114	0x3dd89d6d	0.105769016
115	0xbda1e8cf	-0.07905733
116	0xbe008918	-0.12552297
117	0xbde960ce	-0.11395417
118	0x3d81ee09	0.0634423
119	0x3d4ce2d4	0.050021008
120	0x3df1b868	0.11802751
121	0xbde13ef5	-0.10998336
122	0x3e8fd0f6	0.28089112
123	0xbe07183f	-0.13192843
124	0x3c3d3889	0.011549124
125	0x3c3b4305	0.011429553
126	0x3db38985	0.08766464
127	0xbe499028	-0.19683897

net.2.weight f4 [128, 128]
0	0x3e4a559e	0.19759223
1	0xbe432c58	-0.19059885
2	0x3e76e5ba	0.24111071
3	0xbda48619	-0.080333896
4	0xbba413ee	-0.0050072586
5	0xbe882cbb	-0.26596627
6	0x3d8cbd63	0.0687206
7	0xbd38ecd0	-0.045147717
8	0x3e1f4bb3	0.1555622
9	0x3c34a21d	0.011024979
10	0xbd43f513	-0.047841143
11	0x3e703544	0.23457819
12	0x3eb77504	0.35831463
13	0x3dcc6da3	0.09981849
14	0x3cfd9742	0.030955914
15	0x3d0134f2	0.031544633
16	0x3b235eb0	0.0024928264
17	0x3e567a11	0.20945002
18	0xbe8443d3	-0.25832996
19	0xbd991915	-0.07475487
20	0x3c873d05	0.016508589
21	0xbe9de6e7	-0.30840227
22	0xbe16b239	-0.14716424
23	0x3e37862f	0.1792228
24	0xbdc77fbc	-0.0974116
25	0x3ec069fb	0.37580857
26	0xbe751bd3	-0.23936395
27	0x3e6aa330	0.22913814
28	0x3e708e89	0.23491873
29	0xbde3cade	-0.11122678
30	0xbbd90bd5	-0.006623725
31	0x3d11b44e	0.035572343
32	0xbdc82bd9	-0.09773988
33	0xbdba4921	-0.090959795
34	0xbd3be1e5	-0.045869727
35	0xbdda1319	-0.10648174
36	0x3d93f41f	0.07224297
37	0xbe69599f	-0.22788094
38	0xbea79311	-0.3272939
39	0x3d24fdb1	0.040281
40	0xbcf2fc97	-0.02966146
41	0xbde2400e	-0.11047374
42	0xbe404948	-0.18777955
43	0x3ebcc384	0.36867917
44	0xbe093823	-0.1340032
45	0x3e95e40a	0.29275542
46	0xbed798b5	-0.42108694
47	0xbed7a100	-0.4211502
48	0x3e723885	0.23654373
49	0x3bd3ae64	0.006459998
50	0xbd26259f	-0.040563222
51	0xbe3dd878	-0.18539608
52	0x3efd091d	0.49421015
53	0xbe0f7e03	-0.14012913
54	0x3e551092	0.20807102
55	0xbe116d1f	-0.14201783
56	0x3db33b87	0.08751588
57	0xbd99776f	-0.07493483
58	0x3eeb570b	0.45964846
59	0x3e6df9f8	0.23239887
60	0xbe56e2ee	-0.20985004
61	0xbcd7b8ac	-0.026333176
62	0x3bffb031	0.007802986
63	0xbdb94fe2	-0.090484396
64	0xbd2f6b99	-0.042827222
65	0xbe637707	-0.22213374
66	0x3df20378	0.11817068
67	0x3e209b87	0.15684329
68	0x3e812318	0.25222087
69	0xbd3dabee	-0.046306543
70	0xbd086809	-0.03330234
71	0x3f3f4dfd	0.74728376
72	0x3e8a14fb	0.26969132
73	0x3e65a055	0.22424443
74	0x3e2fa52a	0.17152849
75	0xbee2dbe1	-0.4430838
76	0xbd8f16e2	-0.069867864
77	0x3ec0e9c3	0.37678346
78	0xbf00913c	-0.5022161
79	0x3e1b7252	0.15180328
80	0x3f00625f	0.501501
81	0x3e1e0e2d	0.15435095
82	0x3e5aa82e	0.21353218
83	0x3d96f0e3	0.07370164
84	0xbdb24d73	-0.087061785
85	0x3e2964d5	0.1654237
86	0xbda99f53	-0.08282342
87	0x3d800a42	0.062519565
88	0x3cb7c5cb	0.022433182
89	0xbd89da1d	-0.06731055
90	0x3e4f72ce	0.20258638
91	0x3dd668fe	0.104692444
92	0x3e81cff2	0.25353962
93	0xbd8fe3cc	-0.07025871
94	0xbded5e92	-0.115903035
95	0xbe81247a	-0.25223142
96	0x3ede5ac0	0.43428612
97	0x3ead46c2	0.33843046
98	0xbe93185c	-0.28729522
99	0x3e167bd1	0.1469567
100	0x3d4ed68c	0.050497577
101	0x3bd08956	0.006364028
102	0xbebff1c2	-0.37489134
103	0xbe295ea3	-0.16540007
104	0x3e68be83	0.22728924
105	0xbe0e1c62	-0.13878015
106	0x3e9b7543	0.303629
107	0x3d712a3f	0.05887818
108	0x3db7118e	0.08938895
109	0x3e5e09b4	0.21683389
110	0x3dda585e	0.10661386
111	0x3c5f8dee	0.0136446785
112	0xbcab52b8	-0.020913467
113	0x3e15c3a2	0.14625409
114	0x3eb9c18e	0.36280483
115	0xbe7e1c6e	-0.24815533
116	0x3d33a769	0.043860827
117	0xbe96476b	-0.29351363
118	0xbe3b12f1	-0.18268944
119	0x3df8ef26	0.12154989
120	0xbcdd3042	-0.02700055
121	0xbe0ac3d0	-0.13551259
122	0x3e6379fe	0.22214505
123	0x3cc9d975	0.024639824
124	0x3ea53281	0.32265094
125	0x3dfb8b69	0.1228245
126	0xbea593f2	-0.32339436
127	0x3e97c11b	0.29639515
128	0x3ea03871	0.3129306
129	0x3e9cfefa	0.30663282
130	0xbedc7519	-0.43058088
131	0x3ea90327	0.33010218
132	0xbef91800	-0.48651123
133	0x3ea51b92	0.32247597
134	0x3ec99044	0.39367878
135	0xbd7dc187	-0.06195214
136	0xbe106e73	-0.14104633
137	0xbca95af9	-0.020673262
138	0x3e6f4669	0.23366703
139	0xbd886c1b	-0.066612445
140	0xbe80f0dc	-0.2518376
141	0x3e854bcb	0.26034388
142	0x3cb1b0fd	0.02169084
143	0xbeecfade	-0.46285146
144	0x3d4da298	0.05020389
145	0x3e62c65e	0.22145984
146	0x3ea6c709	0.32573727
147	0x3eb42932	0.3518768
148	0x3ed6c775	0.4194905
149	0xbdd94a0d	-0.10609827
150	0xbd667c29	-0.056270752
151	0x3ebf2067	0.3732941
152	0xbe2f8c35	-0.17143328
153	0xbc9ec408	-0.019380584
154	0xbe8eeb1a	-0.27913743
155	0x3e0a4b5f	0.13505314
156	0xbeaebc8a	-0.3412822
157	0x3a8356d6	0.0010020386
158	0xbe994f02	-0.2994309
159	0x3ee4db71	0.4469867
160	0x3ef46bab	0.47738394
161	0x3e23e0ad	0.16003676
162	0x3f0ee01d	0.5581072
163	0xbe49fa7e	-0.19724461
164	0x3da122dd	0.07867978
165	0xbe1615f2	-0.14656809
166	0x3e42d81c	0.19027752
167	0x3d3649f9	0.04450414
168	0xbb09663d	-0.002096548
169	0x3e8753b6	0.26431054
170	0x3e359057	0.17730843
171	0xbe31f50c	-0.17378634
172	0xbc8b6769	-0.017017083
173	0x3b1325b6	0.0022452897
174	0x3e03eff0	0.12884498
175	0x3ecae591	0.3962827
176	0xbd8eda02	-0.069751754
177	0x3c9d06a8	0.019168213
178	0xbe200eb5	-0.1563061
179	0xbbc58cd2	-0.00602875
180	0xbea3d0fa	-0.31995374
181	0xbe113d9a	-0.14183655
182	0xbe54d36f	-0.2078378
183	0xbe5c389e	-0.21505973
184	0x3e677050	0.22601438
185	0xbdd12bd3	-0.10213437
186	0xbdf8f2b2	-0.121556655
187	0xbe72a676	-0.23696312
188	0x3e849dd2	0.25901657
189	0xbe5144db	-0.20436423
190	0x3eacb93f	0.33735082
191	0xbe9f07dc	-0.31060684
192	0xbddcea8b	-0.10786923
193	0xbe03c4b7	-0.1286801
194	0x3e04aa7d	0.12955661
195	0x3e7cf3ed	0.24702425
196	0x3d98ab91	0.07454599
197	0xbd9eec80	-0.077599525
198	0xbee31269	-0.44349983
199	0xbdf6ca5b	-0.12050315
200	0x3ece7e11	0.40330556
201	0x3ef0268c	0.4690441
202	0xbe4f5381	-0.20246698
203	0x3deadd04	0.11467937
204	0xbe5b7d5f	-0.21434544
205	0xbe41df5f	-0.18932866
206	0x3dacc86e	0.084366664
207	0xbe573e68	-0.210199
208	0x3e8a2d95	0.269879
209	0x3e9780c2	0.29590422
210	0xbe117d70	-0.14208007
211	0x3dee9e61	0.11651302
212	0xbeb649df	-0.35603234
213	0xbf5671a4	-0.8376715
214	0xbe6f4070	-0.23364425
215	0x3dcd6b38	0.10030216
216	0x3cf26071	0.029587002
217	0xbbee149a	-0.0072656395
218	0xbef56ece	-0.479361
219	0xbdc5da88	-0.09660822
220	0xbf1fb265	-0.62381583
221	0x3d995972	0.074877635
222	0x3e32523b	0.17414181
223	0x3ebc5b5e	0.36788458
224	0xbd08acc1	-0.033367876
225	0x3db66733	0.089064024
226	0xbdfcb8a2	-0.123399034
227	0xbd8ab7d2	-0.06773342
228	0x3e32db7a	0.17466536
229	0x3dc43fc9	0.095824786
230	0xbe87b279	-0.2650335
231	0x3e881f47	0.26586363
232	0xbeb2c9a1	-0.34919456
233	0x3ecc6b55	0.39925638
234	0xbdb291b9	-0.08719201
235	0x3cc54384	0.024080046
236	0x3e37c8cf	0.17947696
237	0x3e2dc169	0.16968311
238	0x3eab3588	0.3343928
239	0xbdf03dd8	-0.11730546
240	0xbbf57cba	-0.007491675
241	0x3bf43176	0.0074521853
242	0x3d46ded0	0.048552334
243	0x3e220ca5	0.15825136
244	0xbeba719d	-0.36414805
245	0xbe1ddbf7	-0.15415941
246	0x3da176a4	0.07883957
247	0xbef111ec	-0.47083986
248	0xbdee6e6a	-0.116421536
249	0xbeca6b81	-0.39535144
250	0x3eae52cd	0.34047547
251	0x3efc0405	0.49221817
252	0xbe418eb2	-0.1890209
253	0xbe78c5fa	-0.24294272
254	0x3e414f1e	0.18877837
255	0x3e6e4458	0.23268259

net.2.bias f4 [128]
0	0xbc7a6de5	-0.01528499
1	0xbe762bb2	-0.24040106
2	0x39435892	0.00018629644
3	0xbc505f84	-0.012718085
4	0x3ea0087a	0.31256467
5	0xbe477440	-0.1947794
6	0x3dab795c	0.08372757
7	0x3e8bee8f	0.27330443
8	0xbe2c8336	-0.16846928
9	0xbe79cbfd	-0.24394222
10	0xbea52d21	-0.32260993
11	0x3ecd1e93	0.4006239
12	0xbe3570eb	-0.17718856
13	0x3c2b1bde	0.010443656
14	0x3e163e92	0.14672306
15	0xbdc89bc5	-0.09795336
16	0x3ead8f8f	0.3389859
17	0x3c116688	0.008874543
18	0xbdf88ec2	-0.12136604
19	0xbd4df096	-0.05027827
20	0xbe2bfa36	-0.16794667
21	0xbdcec2c3	-0.100957416
22	0xbdfbfba5	-0.12303857
23	0xbd74b1aa	-0.059739746
24	0xbd701fe4	-0.058624163
25	0x3ed231b7	0.41053554
26	0x3d4e07f9	0.050300572
27	0x3d93baee	0.072133884
28	0xbd64599c	-0.05574952
29	0x3dcda030	0.10040319
30	0x3d2d2cfa	0.04227922
31	0x3e0b4f83	0.1360455
32	0x3e000f28	0.12505782
33	0x3c070163	0.008240077
34	0xbdf52268	-0.11969453
35	0xbe225db9	-0.15856065
36	0xbe86ef11	-0.26354268
37	0x3e9f0dec	0.3106531
38	0xbe76c509	-0.240986
39	0xbdcd4e12	-0.10024656
40	0xbeafe0ac	-0.343511
41	0xbe1223b1	-0.14271428
42	0x3d41b20b	0.047288936
43	0xbe0715ae	-0.13191864
44	0xbe911c75	-0.28342023
45	0xbe92f413	-0.2870184
46	0x3e93c83a	0.28863698
47	0xbd455220	-0.048174024
48	0xbe5b1f5a	-0.21398678
49	0x3e87c621	0.26518348
50	0x3e1edab9	0.15513124
51	0xbe5913db	-0.2119898
52	0x3ea1e4ef	0.31619975
53	0xbe88f315	-0.26747957
54	0xbe8aecef	-0.2713389
55	0x3e40bffb	0.18823235
56	0x3e85dca6	0.26144904
57	0xbd61529a	-0.055010416
58	0xbd7b36eb	-0.06133167
59	0x3e3e60e6	0.18591651
60	0x3d6dca6a	0.058054365
61	0x3ead56f7	0.3385541
62	0x3e37af08	0.17937863
63	0xbe145d10	-0.14488626
64	0x3e8df5a1	0.27726462
65	0x3e552113	0.20813398
66	0x3e29d769	0.16586079
67	0x3e02aaf8	0.12760532
68	0xbe4468bc	-0.19180578
69	0xbe3904ba	-0.1806821
70	0x3e8b145b	0.27163967
71	0xbd6658e9	-0.056237135
72	0xbe1390ad	-0.14410658
73	0x3e9201fc	0.2851714
74	0xbeb3e575	-0.35136
75	0xbeaf2a1e	-0.3421182
76	0xbe5c3ed5	-0.21508344
77	0xbee05ac1	-0.4381924
78	0x3d15473d	0.03644489
79	0xbe3e70cc	-0.18597716
80	0x3e478659	0.19484843
81	0xbe0c9b2f	-0.13731073
82	0x3e3c0ea0	0.18364954
83	0x3d742cfa	0.059613205
84	0x3e536a0f	0.20645927
85	0x3d39f684	0.04540111
86	0xbc2becfd	-0.010493514
87	0x3ea1e499	0.3161972
88	0xbe0fa28c	-0.1402685
89	0xbe9c4274	-0.3051945
90	0x3e0f055d	0.1396689
91	0xbc82b467	-0.015955163
92	0x3e92a4b0	0.28641272
93	0x3e56d6e6	0.20980415
94	0x3ca34ac5	0.019933114
95	0x3e1dc883	0.1540852
96	0xbeb435fd	-0.3519744
97	0x3dc5ea7e	0.096638665
98	0x3e703aca	0.23459926
99	0x3e41ee03	0.1893845
100	0xbe4eba3c	-0.2018823
101	0x3e87ec2a	0.26547366
102	0x3e64b05c	0.22332901
103	0xbba1c740	-0.0049370825
104	0xbe956c0f	-0.29184005
105	0xbe7762de	-0.24158809
106	0xbe21ae9b	-0.15789263
107	0x3d5e8283	0.054323684
108	0x3e896dbd	0.26841536
109	0x3e8665b9	0.26249483
110	0x3e3eb5e4	0.18624073
111	0xbe962990	-0.29328585
112	0x3e67ddc5	0.22643192
113	0xbeb63b4d	-0.35592118
114	0x3d897bb9	0.06713051
115	0x3e85f658	0.26164508
116	0x3dbdab8c	0.092612356
117	0xbd77c94e	-0.060494713
118	0xbdcad7ae	-0.09904419
119	0xbcf20609	-0.029543893
120	0xbeea7424	-0.45791733
121	0x3e90c5fa	0.28276044
122	0x3cbdc338	0.023164377
123	0x3e36e5e7	0.17861138
124	0x3df848bc	0.12123248
125	0x3de0ac20	0.1097033
126	0x3df5162b	0.11967119
127	0xbad98cb6	-0.0016597721

head_task.weight f4 [11, 128]
0	0x3e3d88be	0.18509194
1	0x3cbf8ba3	0.023382014
2	0x3e5cefd2	0.21575859
3	0xbecf5209	-0.40492275
4	0x3d8fae7f	0.07015704
5	0x3ef2e9f7	0.47444126
6	0x3ec9581c	0.39325035
7	0xbd35c089	-0.04437307
8	0x3c7308aa	0.014833609
9	0x3e8dc51c	0.27689445
10	0x3e9c8895	0.30572954
11	0xbf9bfbba	-1.2186196
12	0x3e831805	0.25604263
13	0x3e0d6b70	0.13810515
14	0xbe5def6a	-0.2167336
15	0x3e34efaa	0.1766955
16	0xbc185476	-0.009297481
17	0x3d2f6833	0.04282398
18	0x3e1e0646	0.1543208
19	0x3e02b2ba	0.12763491
20	0x3c07dd88	0.008292563
21	0x3e1b1586	0.1514493
22	0xbe25f352	-0.162061
23	0x3e578ed2	0.21050575
24	0x3d4d08ac	0.0500571
25	0x3d1cd321	0.038287286
26	0xbdc12605	-0.0943108
27	0x3e33d024	0.17559868
28	0x3dc8e451	0.09809173
29	0x3d39e169	0.045380984
30	0x3dbbcdff	0.0917015
31	0x3dcbbb02	0.09947778
32	0xbe31a911	-0.1734965
33	0xbd84a874	-0.064774424
34	0xbe40c452	-0.1882489
35	0x3c75d183	0.015003565
36	0xbe9fa0a2	-0.3117724
37	0xbe1f21e5	-0.15540273
38	0x3c1f1e75	0.009711851
39	0xbe365f11	-0.17809702
40	0x3dbb4967	0.0914486
41	0x3ec5a54a	0.38602668
42	0xbd924c3d	-0.071434475
43	0xbe909d8c	-0.282452
44	0x3eae35fc	0.34025562
45	0x3e96f910	0.29486895
46	0xbdf2f35f	-0.118628256
47	0x3ef8c58c	0.48588216
48	0xbe548423	-0.20753531
49	0xbda4bac2	-0.08043434
50	0xbd1bb66e	-0.038015775
51	0x3eb2e527	0.34940454
52	0xbd65841c	-0.056034192
53	0x3ee7c2af	0.4526572
54	0x3d9216ed	0.07133279
55	0x3d05b580	0.032643795
56	0x3c23e679	0.010003679
57	0xbd16bb7d	-0.036799897
58	0x3d9211f4	0.071323305
59	0x3ddb2813	0.10701003
60	0x3bcfdfb7	0.0063438076
61	0xbe945909	-0.28974178
62	0x3efacede	0.48985952
63	0xbe051859	-0.12997569
64	0xbf0fe406	-0.5620731
65	0x3e21f171	0.15814759
66	0xbe7a809c	-0.24463123
67	0xbd96e251	-0.07367385
68	0x3da6c841	0.08143664
69	0xbe2d6f08	-0.16936886
70	0xbd6e593a	-0.05819056
71	0x3b8e061e	0.0043342253
72	0xbdc482f0	-0.09595287
73	0x3dbe7b8b	0.09300908
74	0xbd50726d	-0.050890375
75	0x3e230ff0	0.15924048
76	0x3da7c1f2	0.08191289
77	0xbe197a93	-0.14988165
78	0xb9bd40bc	-0.0003609712
79	0xbe63d4ec	-0.22249192
80	0xbdaae111	-0.08343709
81	0xbcb7428e	-0.022370603
82	0xbd1207b2	-0.03565187
83	0x3db54915	0.0885183
84	0xbd916b71	-0.07100571
85	0xbd791c16	-0.0608178
86	0x3d8f69fa	0.07002635
87	0xbca6fb48	-0.020383492
88	0x3ed92923	0.42414197
89	0xbd632d1e	-0.05546295
90	0x3e7f438f	0.24928115
91	0x3da5971b	0.08085462
92	0xbd978367	-0.0739811
93	0x3e413f82	0.18871883
94	0xbd8e2e07	-0.06942373
95	0xbe9cbb16	-0.30611485
96	0x3d06e606	0.03293421
97	0x3db315ba	0.087443784
98	0xbe870179	-0.2636831
99	0xbd951a52	-0.07280411
100	0xbcd428fd	-0.025898451
101	0x3d13a258	0.036043495
102	0xbd00b210	-0.031419814
103	0xbc86d7fe	-0.016460415
104	0xbcac0b30	-0.021001428
105	0xbd5b4fa9	-0.053542767
106	0x3efd3a9b	0.49458775
107	0x3e568091	0.20947482
108	0xbebbd526	-0.36686057
109	0x3e05ac2b	0.13053958
110	0xbefcca39	-0.49373034
111	0x3ef5f132	0.4803558
112	0x3cc491c7	0.023995293
113	0x3d292430	0.041294277
114	0x3eff4dc4	0.49864018
115	0xbea42ba3	-0.32064542
116	0xbdca78a4	-0.098862916
117	0x3e5d3130	0.21600795
118	0x3dd8ba5d	0.10582421
119	0xbeaf7f0d	-0.3427662
120	0x3f19919f	0.59987825
121	0xbe9118d1	-0.28339246
122	0xbe7c6705	-0.24648674
123	0xbe0c3a3c	-0.1369409
124	0x3e4f4a93	0.20243292
125	0xbbfdd0f3	-0.007745856
126	0xbd5c71a4	-0.053819314
127	0xbcc86f28	-0.024467066
128	0x3c27bc65	0.010237788
129	0xbdd0b8df	-0.10191511
130	0xbe704ec7	-0.23467551
131	0xbe447848	-0.19186509
132	0x3c1c42ce	0.009537412
133	0xbda5f1fd	-0.08102796
134	0x3e126439	0.14296044
135	0xbc9e93b5	-0.019357542
136	0xbe4912d0	-0.19636083
137	0xbd1d9318	-0.038470358
138	0x3e9407fe	0.28912348
139	0x3e1573b7	0.14594923
140	0x3da447aa	0.08021481
141	0xbf0dcfac	-0.5539501
142	0xbc2fe918	-0.010736726
143	0x3e9ca760	0.30596447
144	0x3e1c3796	0.1525558
145	0x3e1422a3	0.14466338
146	0xbd6a65fb	-0.057226162
147	0xbe80dd31	-0.25168756
148	0x3e71378e	0.23556349
149	0xbe793110	-0.24335122
150	0xbdde242a	-0.108467415
151	0x3dad5741	0.08463908
152	0xbd90d9f7	-0.070728235
153	0x3da28bc2	0.07936813
154	0xbe8a93a0	-0.27065754
155	0x3ee0cdde	0.43907064
156	0x3ce74c61	0.028234662
157	0x3d06d4d8	0.032917827
158	0x3ea605f9	0.32426432
159	0x3da7599d	0.08171389
160	0xbde78f76	-0.1130666
161	0x3e8af49a	0.2713974
162	0xbe8458b5	-0.25848928
163	0xbd9b869c	-0.07594034
164	0x3e2d4dde	0.16924235
165	0x3e13d42c	0.14436406
166	0xbd835cfe	-0.06414221
167	0x3c91c6f5	0.017795065
168	0xbd448fcc	-0.047988698
169	0xbd9a8318	-0.075445354
170	0xbc96208f	-0.018326072
171	0xbe18590b	-0.14877717
172	0xbe64ad17	-0.22331654
173	0x3e2e468d	0.170191
174	0x3c96f2f4	0.018426396
175	0x3d224e39	0.03962538
176	0xbe2559bb	-0.1614751
177	0x3dfddc78	0.12395567
178	0xbeb15773	-0.3463703
179	0x3ceaca34	0.028660871
180	0xbd10c433	-0.03534336
181	0x3e58f38d	0.21186657
182	0x3c4ac133	0.012375164
183	0xbe0a2b77	-0.13493143
184	0x3b34d20b	0.0027591016
185	0xbd368eb7	-0.044569697
186	0xbce0599d	-0.027386481
187	0x3e00d064	0.12579495
188	0xbe102754	-0.14077502
189	0xbe8ec8f4	-0.2788769
190	0x3e658293	0.22413091
191	0x3d96c5be	0.07361935
192	0xbeb99102	-0.36243445
193	0xbde53c67	-0.111931615
194	0xbe9524b8	-0.29129577
195	0x3eba5033	0.36389312
196	0xbd0f6a16	-0.03501328
197	0xbe9bfe59	-0.3046749
198	0xbd873941	-0.06602717
199	0xbdddc8d3	-0.1082932
200	0x3a8a42b7	0.0010548447
201	0x3ed85251	0.42250302
202	0xbdb3add7	-0.08773392
203	0x3e358db4	0.17729837
204	0x3ea407eb	0.3203729
205	0xbe789608	-0.24275982
206	0x3daf6626	0.08564405
207	0x3e30ffd1	0.17285086
208	0x3e58155f	0.21101902
209	0xbe4f0ab8	-0.20218933
210	0xbdb92ef2	-0.09042157
211	0x3ceb5b0e	0.028729942
212	0xbea5f166	-0.32410735
213	0x3d4b873f	0.049689528
214	0x3d6559b1	0.05599374
215	0x3dd66b10	0.10469639
216	0x3e12fe44	0.14354807
217	0x3e197893	0.14987402
218	0x3c82d4e2	0.015970651
219	0x3b19ce90	0.0023469068
220	0x3e836bf0	0.25668287
221	0xbe38139d	-0.17976232
222	0xbe658fc0	-0.22418118
223	0xbe87a75e	-0.2649488
224	0x3de3c6e4	0.1112192
225	0xbd158f3f	-0.036513563
226	0xbee3ce16	-0.4449317
227	0xbe8c21d5	-0.27369562
228	0xbd672151	-0.056428257
229	0xbe8c1625	-0.27360645
230	0xbca35b1c	-0.019940905
231	0x3e8332b7	0.2562463
232	0x3b3bfb28	0.0028683636
233	0xbe58e534	-0.21181184
234	0x3d14229d	0.036165822
235	0x3e706487	0.23475848
236	0xbe338057	-0.17529427
237	0xbd6ea7c4	-0.058265463
238	0x3d368db3	0.04456873
239	0xbdc2fd49	-0.095209666
240	0x3da6e83b	0.08149763
241	0x3c5be270	0.013420686
242	0x3dd2b54d	0.10288487
243	0xbea4b78a	-0.3217128
244	0xbd504b51	-0.050853077
245	0x3ed5585f	0.41668984
246	0x3b4b8122	0.003105231
247	0x3d2c5b31	0.042079154
248	0x3db47ae6	0.088125035
249	0xbf4d8df3	-0.8029472
250	0xbed6fcb3	-0.4198967
251	0xbe5d4606	-0.21608743
252	0xbe91e9b1	-0.28498605
253	0xbc17c697	-0.009263656
254	0xbe4120c5	-0.18860157
255	0xbbd7c125	-0.006584304

head_task.bias f4 [11]
0	0x3caff068	0.02147694
1	0x3c8aad1b	0.016928246
2	0x3de88f4a	0.11355455
3	0x3dfca659	0.12336416
4	0x3df83264	0.12118986
5	0xbda8fa50	-0.08250868
6	0x3d528057	0.051391926
7	0x3e0f3d41	0.1398821
8	0x3e043a19	0.12912787
9	0xbd04a199	-0.032380674
10	0x3dae1f5e	0.085020766

head_move.weight f4 [8, 128]
0	0x3e916e69	0.2840455
1	0x3e8b4e88	0.27208352
2	0x3e9739fb	0.29536423
3	0xbee30901	-0.44342807
4	0xbe1a5823	-0.15072684
5	0x3f1eb2e0	0.6199169
6	0x3e5c7d10	0.21532083
7	0xbe291b0f	-0.16514228
8	0x3c174433	0.009232569
9	0x3e2a25d7	0.16615997
10	0x3dfbd491	0.12296403
11	0xbfac32ef	-1.3453044
12	0x3e97f10f	0.296761
13	0x3e81dc90	0.25363588
14	0xbe8fa6fb	-0.28057083
15	0xbc8abd71	-0.016936036
16	0xbe51bddd	-0.20482583
17	0xbe1e17c8	-0.1543876
18	0xbdacadfb	-0.08431622
19	0x3e92a873	0.28644142
20	0x3dd7fb16	0.10545938
21	0x3dbf472d	0.093397476
22	0x3e51be86	0.20482835
23	0x3ea72402	0.3264466
24	0x3c62fee2	0.013854714
25	0xbdfecb37	-0.12441104
26	0xbe06fa57	-0.13181435
27	0x3cf95764	0.030437179
28	0x3ca5f8e0	0.020260274
29	0x3d47349a	0.04863415
30	0x3d4262d0	0.047457516
31	0x3e8f39f2	0.27973896
32	0x3dca466f	0.098767154
33	0xbd5ef7af	-0.05443543
34	0xbd9e42cd	-0.07727585
35	0xbd8f5d1f	-0.07000183
36	0xbedd9235	-0.4327561
37	0xbe1404ec	-0.14455003
38	0xbd93a3a3	-0.072089456
39	0xbd628809	-0.055305514
40	0x3e8ec4e3	0.27884588
41	0x3e721f46	0.23644742
42	0xbb80615e	-0.003917857
43	0xbe9df0f6	-0.308479
44	0x3ee8243e	0.4534015
45	0x3f0fabf2	0.5612174
46	0xbe9c049c	-0.30472267
47	0x3ec2c617	0.38041756
48	0xbc874269	-0.016511159
49	0xbe69a9fa	-0.22818747
50	0x3e1ceef2	0.15325525
51	0x3eb0fd5e	0.34568304
52	0xbcda07ca	-0.026615042
53	0x3e9d2355	0.3069102
54	0x3dfd0d67	0.12356072
55	0xbe0e0ff6	-0.13873276
56	0xbce160d9	-0.027512
57	0xbb85d3b0	-0.004084073
58	0xbdac2abc	-0.084065884
59	0xbb5c7607	-0.0033639686
60	0x3d9e8e25	0.07741956
61	0xbe319cf7	-0.17345034
62	0x3e9f79d4	0.31147635
63	0xbdbfb413	-0.09360518
64	0xbed6ad5b	-0.41929135
65	0xbdafbb79	-0.085806794
66	0xbd4b2fd5	-0.049606163
67	0xbeb7eb91	-0.3592191
68	0x3e248c0c	0.16069049
69	0xb90d92cb	-0.00013501493
70	0x3dade500	0.08490944
71	0xbcfe71d7	-0.031060142
72	0xbd677af2	-0.056513734
73	0xbe47136c	-0.19441003
74	0x3e6d7f09	0.23192991
75	0x3dfb16ef	0.122602336
76	0x3e19e7ee	0.1502988
77	0x3e0ab690	0.13546205
78	0xbe167fd7	-0.14697205
79	0xbdde20e4	-0.10846117
80	0xbe29ff19	-0.16601218
81	0x3dafca38	0.08583492
82	0x3d06bb8c	0.032893702
83	0x3ddf8bf1	0.109153636
84	0x3e09e5ab	0.13466518
85	0xbe1dee5e	-0.15422961
86	0x3e06648f	0.13124298
87	0xbddd43f4	-0.10803977
88	0x3e60fdfe	0.2197189
89	0xbcddb694	-0.0270646
90	0x3da6775b	0.08128234
91	0x3d451de9	0.048124228
92	0xbe01178d	-0.1260664
93	0x3e94be89	0.29051617
94	0xbd471500	-0.04860401
95	0xbda98089	-0.08276469
96	0xbd1bcbcf	-0.038036164
97	0x3cecb5aa	0.028895218
98	0xbe076b46	-0.13224515
99	0x3d05857c	0.032598004
100	0x3e1ab120	0.1510663
101	0xbdcba4f9	-0.099435754
102	0xbe4e7a25	-0.20163782
103	0x3d0e8b7b	0.034800988
104	0x3c257d29	0.010100641
105	0xbce97ef2	-0.028502915
106	0x3eba886a	0.364322
107	0xbd2f6108	-0.042817146
108	0xbedeaf1a	-0.43492967
109	0x3deb29c5	0.11482576
110	0xbf11b674	-0.56919026
111	0x3f2d929a	0.6780182
112	0xbe28952e	-0.16463158
113	0x3dff43bc	0.12464091
114	0x3e8279cc	0.2548355
115	0xbbe702ce	-0.007049895
116	0x3b017bb4	0.001975757
117	0xbe47dd07	-0.19517909
118	0xbc6b8aa1	-0.014376313
119	0xbee00347	-0.437525
120	0x3f376774	0.7164223
121	0xbd954633	-0.0728878
122	0xbb4ef5d2	-0.0031579626
123	0xbcd90002	-0.026489262
124	0x3ebdf4fb	0.37100968
125	0x3d4f1df7	0.050565686
126	0xbd853b76	-0.06505482
127	0x3c84da5e	0.016217407
128	0x3c2601dc	0.010132279
129	0x3d43670f	0.047705706
130	0x3d8be96b	0.0683163
131	0x3d047312	0.032336302
132	0xbc375a3a	-0.011190945
133	0xbda921fa	-0.08258434
134	0x3dd103aa	0.10205777
135	0xbea4db35	-0.32198492
136	0xbe6599ba	-0.22421923
137	0x3cd94f44	0.026527055
138	0x3d24ed43	0.040265333
139	0x3ddd392b	0.108019195
140	0xbc3774e1	-0.0111973
141	0xbe3de214	-0.18543273
142	0x3d13aeb1	0.03605527
143	0xbcb153e6	-0.021646451
144	0x3ed1c467	0.40970156
145	0xbd63387e	-0.055473797
146	0x3e037ce6	0.12840614
147	0x3caf47fa	0.021396626
148	0x3cbae870	0.022815913
149	0x3e41744e	0.18892023
150	0x3d9bb42a	0.07602723
151	0x3de126e9	0.1099375
152	0xbe936ae4	-0.2879249
153	0xbe8db6e1	-0.27678588
154	0xbd79ddfa	-0.06100271
155	0x3bd9e169	0.0066491854
156	0x3e17a552	0.14809158
157	0xbd36a8fc	-0.04459475
158	0x3d0ed678	0.034872502
159	0x3834cc4c	4.310561e-05
160	0x3e155e77	0.14586817
161	0xbd17c029	-0.037048493
162	0x3c71dc06	0.01476193
163	0xbdb3f1cc	-0.087863535
164	0xbd3cb449	-0.04607037
165	0x3d98d379	0.0746221
166	0xbf18a068	-0.5961976
167	0x3d523feb	0.05133049
168	0xbec62daf	-0.3870673
169	0x3c4395a0	0.011937529
170	0xbd695cc8	-0.05697325
171	0x3d95aa78	0.07307905
172	0x3d49b84a	0.049248017
173	0xbd6ad8be	-0.057335608
174	0x3c78fa92	0.015196459
175	0x3d8c0d47	0.0683847
176	0xbdc13172	-0.09433259
177	0x3e9e95a0	0.3097353
178	0x3cf7990f	0.030224351
179	0xbeb7ec91	-0.35922673
180	0xbefed74b	-0.4977363
181	0xbd17f216	-0.037096106
182	0xbe632042	-0.22180274
183	0xbe644d50	-0.22295117
184	0x3ea55d57	0.32297775
185	0xbe0b812e	-0.13623497
186	0xbc6dda79	-0.01451742
187	0x3e416e55	0.18889745
188	0x3d79a640	0.060949564
189	0xbc9fcd62	-0.019507114
190	0xbe261f0c	-0.16222781
191	0xbe6f4740	-0.23367023
192	0xbdfdae87	-0.12386804
193	0xbd118531	-0.03552741
194	0x3bf03735	0.0073308
195	0x3d08385e	0.03325688
196	0x3eb9d881	0.36297992
197	0xbe0907b5	-0.13381846
198	0x3e2d767f	0.16939734
199	0x3d782a00	0.06058693
200	0x3e0637ec	0.1310727
201	0xbd10aa61	-0.035318736
202	0xbe9498c3	-0.29022798
203	0xbe16846a	-0.1469895
204	0xbe5f706a	-0.21820226
205	0xbda4efed	-0.08053575
206	0xbd146330	-0.036227405
207	0xbd841812	-0.064499035
208	0x3c9bdba5	0.019025633
209	0x3ed27362	0.41103655
210	0xbe914f0a	-0.28380615
211	0x3bc036b6	0.005865897
212	0xbe598ff1	-0.21246316
213	0x3e764d8d	0.24053021
214	0xbeb23a32	-0.34810024
215	0x3d4ce578	0.050023526
216	0x3cf31da3	0.029677218
217	0xbdb43430	-0.087990165
218	0xbec7f47c	-0.39053714
219	0x3db5d194	0.088778645
220	0xbec494d3	-0.38394794
221	0xbc28df5d	-0.01030716
222	0x3e64df7a	0.22350875
223	0xbd651c20	-0.055935025
224	0xbe7bed30	-0.24602199
225	0xbea658dc	-0.3248967
226	0xbcffb8d3	-0.03121606
227	0x3c01a0b8	0.0079118535
228	0xbe40fb5d	-0.18845887
229	0xbe018122	-0.12646917
230	0x3ea42bcd	0.32064667
231	0xbd399cbc	-0.04531549
232	0x3e84e221	0.25953773
233	0xbc95f8e3	-0.018307155
234	0xbd92fb3b	-0.07176825
235	0xbceb2917	-0.028706117
236	0x3da516b7	0.08060973
237	0x3d49c4e0	0.04926002
238	0x3e4acd81	0.19804956
239	0xbd4df462	-0.05028189
240	0x3c23bf41	0.009994329
241	0xbd2ade42	-0.041715868
242	0xbd7fcd21	-0.062451486
243	0xbc81cede	-0.015845712
244	0x3dc15a5e	0.09441064
245	0x3dd68b2d	0.104757644
246	0x3d714a8a	0.058908977
247	0x3d39a31d	0.045321573
248	0xbddcbb5e	-0.10777925
249	0xbe06fe02	-0.13182834
250	0xbc96ff59	-0.018432306
251	0x39d5fa5e	0.00040813064
252	0xbe7cdfb5	-0.24694712
253	0x3e25de47	0.16198073
254	0xbe0b73f2	-0.13618448
255	0xbe1a1b9b	-0.15049593

head_move.bias f4 [8]
0	0xbed725ae	-0.42020935
1	0x3e04578b	0.1292402
2	0xbac7b658	-0.0015236838
3	0x3e01638f	0.12635635
4	0x3e257d90	0.1616118
5	0xbfa2a218	-1.2705717
6	0xbf9de2e6	-1.2334869
7	0xbf98ff93	-1.1952995

head_comm.weight f4 [8, 128]
0	0xbe1ea785	-0.15493591
1	0xbe1a9bf1	-0.1509855
2	0x3e8d061c	0.27543724
3	0x3d83e4c9	0.06440122
4	0x3dd28e53	0.102810524
5	0xbd1da598	-0.038488
6	0x3e2a96e2	0.1665912
7	0xbea65463	-0.32486257
8	0xbea709f4	-0.3262478
9	0xbd813caf	-0.063104026
10	0xbd8965cc	-0.06708869
11	0x3e5b17bb	0.21395771
12	0xbd31ef9d	-0.043441404
13	0xbdf3e54d	-0.1190897
14	0xbddb559a	-0.107096866
15	0xbdded2ae	-0.10880028
16	0x3e4835b9	0.19551744
17	0x3ecc62d7	0.3991916
18	0x3e469d88	0.19396031
19	0xbdd6191e	-0.104540095
20	0x3e036ada	0.1283373
21	0x3e9e4304	0.30910504
22	0xbe0bd5ad	-0.1365573
23	0xbe7a5972	-0.24448183
24	0xbe8f1597	-0.2794616
25	0x3e530fb8	0.20611465
26	0xbe546cda	-0.20744649
27	0x3cffdbe7	0.031232787
28	0xbf3ddd2d	-0.7416561
29	0xbea7d220	-0.327775
30	0x3cf59593	0.02997855
31	0x3bc475df	0.0059954966
32	0xbc1bfb92	-0.009520428
33	0x3db048db	0.08607646
34	0xbd264447	-0.040592458
35	0xbd8d160d	-0.068889715
36	0xbb4c01d3	-0.0031129017
37	0x3e5672ad	0.20942183
38	0xbe3bade6	-0.18328056
39	0x3cc7e35b	0.024400404
40	0xbed6037c	-0.41799533
41	0xbd9b201e	-0.07574485
42	0x3d099f2c	0.033599064
43	0xbd7ea315	-0.062167246
44	0x3c34fac1	0.0110461125
45	0x3e6cd23a	0.2312707
46	0x3de66f05	0.11251644
47	0xbea19c11	-0.31564382
48	0xbe372d30	-0.17888331
49	0xbe929f21	-0.2863703
50	0xbe1abd50	-0.1511128
51	0xbe32220f	-0.17395805
52	0x3ece2833	0.40265045
53	0x3e024cd1	0.12724616
54	0x3e7a4d6c	0.24443597
55	0xbee02b6e	-0.43783134
56	0x3ebfa609	0.37431362
57	0x3f32a7da	0.6978737
58	0xbf49bd71	-0.7880469
59	0xbe11bca2	-0.14232114
60	0xbece8288	-0.40333962
61	0x3e356b95	0.1771682
62	0xbd9e9f34	-0.07745209
63	0x3e223284	0.15839583
64	0x3e34d443	0.17659096
65	0x3d13909b	0.03602658
66	0xbc00969c	-0.007848408
67	0xbd752fef	-0.059860166
68	0xbe3edbf4	-0.18638593
69	0x3d7ccdf4	0.06171985
70	0xbe68ab06	-0.2272149
71	0xbed32c60	-0.41244793
72	0xbe6b3587	-0.22969638
73	0x3e2fda71	0.17173173
74	0xbe466216	-0.19373354
75	0x3bcbdb10	0.0062211826
76	0xbe513333	-0.20429687
77	0xbd73ad62	-0.059491523
78	0x3dfc8207	0.12329488
79	0xbb1b0fde	-0.002366058
80	0x3dee90d9	0.11648721
81	0xbe7e3809	-0.24826063
82	0xbeb12b04	-0.3460313
83	0xbf0e3118	-0.5554366
84	0x3c785ebc	0.015159305
85	0x3eb9561e	0.36198515
86	0xbebb4e24	-0.36583054
87	0x3dc5ad6d	0.09652219
88	0xbdae9ab0	-0.08525598
89	0xbed62d8b	-0.41831622
90	0xbebaacad	-0.36459866
91	0xbef2fe1b	-0.47459492
92	0x3e7ae39d	0.2450089
93	0xbd3bc030	-0.04583758
94	0xbc0f98d9	-0.008764469
95	0xbcaa880e	-0.020816829
96	0xbef11749	-0.47088078
97	0x3de3f16c	0.11130032
98	0x3d7f8b67	0.062388804
99	0x3c549317	0.012974522
100	0x3ebdf150	0.3709817
101	0x3ea1d347	0.31606504
102	0x3e982d29	0.29721954
103	0x3e2d9258	0.16950357
104	0xbecf88fb	-0.40534195
105	0xbdbafd09	-0.09130294
106	0xbe6c3157	-0.23065697
107	0xbde6f151	-0.11276496
108	0xbc8ec11c	-0.017426066
109	0xbde7c826	-0.11317472
110	0x3d04ac4e	0.032390885
111	0xbc4765eb	-0.012170295
112	0xbd5784cc	-0.05261688
113	0x3e777361	0.24165107
114	0x3dbf53ae	0.093421325
115	0x3dfd5651	0.12369979
116	0xbe068dc9	-0.13140024
117	0xbe401360	-0.18757391
118	0xbe2846ff	-0.16433333
119	0x3e0aafdb	0.13543646
120	0xbd95b43c	-0.073097676
121	0x3c30aaef	0.010782941
122	0xbd94e8ff	-0.07271003
123	0xbd5c928c	-0.053850695
124	0x3d285a3c	0.04110168
125	0xbea80383	-0.3281518
126	0xbd2bb7cd	-0.041923333
127	0x3ec9a974	0.39387095
128	0xbd03130d	-0.03200059
129	0xbd4ef8ae	-0.05053013
130	0xbdd628fe	-0.104570374
131	0x3e424e3f	0.18975161
132	0x3d87c18b	0.06628712
133	0xbe25423f	-0.16138552
134	0xbdbfe791	-0.0937034
135	0x3ec9f248	0.39442658
136	0x3e64b705	0.22335441
137	0xbde863d1	-0.113471635
138	0xbcce2768	-0.025165275
139	0x3e0fae3f	0.14031313
140	0xbc8a2a4e	-0.016865876
141	0x3da3ec20	0.08004022
142	0x3e4cf391	0.20014788
143	0x3e1954b9	0.14973725
144	0xbe8105be	-0.25199693
145	0xbebb3ec9	-0.3657134
146	0xbe2ac92b	-0.16678302
147	0x3e002329	0.12513413
148	0xbe68bc8f	-0.2272818
149	0xbe9a06c1	-0.30083278
150	0xbc1f8c37	-0.00973802
151	0x3dba8a06	0.09108357
152	0x3e8a4943	0.2700902
153	0xbd9a88d7	-0.075456314
154	0x3e319af8	0.17344272
155	0x3aa4d303	0.0012575093
156	0x3f35d546	0.71028554
157	0x3e97917c	0.29603183
158	0x3e1ab13c	0.15106672
159	0xbb1397e3	-0.0022520951
160	0xbdfac386	-0.122443244
161	0x3e1407bf	0.1445608
162	0xbce302e3	-0.027711337
163	0x3bb2e726	0.005459684
164	0x3e10feb4	0.14159662
165	0xbd744cc6	-0.05964353
166	0x3ead8c64	0.33896172
167	0x3e032bc8	0.1280967
168	0x3e3bae56	0.18328223
169	0x3d805806	0.06266789
170	0xbdd45dae	-0.103694305
171	0x3d94f7fc	0.07273862
172	0xbdd3b27d	-0.10336778
173	0xbe4c715b	-0.19965117
174	0x3db90111	0.090334065
175	0xba26ec4f	-0.000636761
176	0x3e7d7ca8	0.24754584
177	0x3e9b6893	0.3035322
178	0x3e1b05f3	0.15138988
179	0x3e471673	0.19442157
180	0xbe820fa5	-0.2540256
181	0xbe4f99f7	-0.20273577
182	0xbea4db1b	-0.32198414
183	0x3efda213	0.49537715
184	0xbe9c134f	-0.3048348
185	0xbf42ed9e	-0.76143825
186	0x3f562475	0.8364938
187	0x3e4eb34a	0.20185581
188	0x3ef5aae3	0.4798194
189	0xbd0e0ebb	-0.034682017
190	0x3dee8094	0.11645618
191	0x3cc9a5f4	0.024615265
192	0x3d77e286	0.060518764
193	0xbc9b4435	-0.018953422
194	0xbdc64e83	-0.09682944
195	0xbd999c4d	-0.07500515
196	0x3e364397	0.17799221
197	0xbdcf079a	-0.10108872
198	0x3e7c85b0	0.24660373
199	0x3efd55a4	0.494794
200	0x3e4eacc8	0.20183098
201	0x3d90b38a	0.07065494
202	0x3df22cc0	0.11824942
203	0xbe4f18d1	-0.2022431
204	0x3dea4b4d	0.11440144
205	0xbe0f8205	-0.14014442
206	0x3cb154c6	0.021646868
207	0x3e470515	0.19435532
208	0x3d7ec28d	0.062197257
209	0x3e206a67	0.1566559
210	0x3ed51fdd	0.41625872
211	0x3effcee7	0.4996254
212	0x3c50e219	0.012749218
213	0xbec51908	-0.3849566
214	0x3e82c76b	0.2554277
215	0x3c623698	0.0138069615
216	0xbd80f02f	-0.062958114
217	0x3e4684e6	0.19386634
218	0x3ee0d32f	0.4391112
219	0x3ebf04b5	0.3730828
220	0xbe32a70c	-0.17446536
221	0xbe0131ca	-0.1261665
222	0x3e581f9f	0.21105812
223	0xbd4652ca	-0.048418798
224	0x3ec2fca5	0.38083377
225	0xbe0684c5	-0.13136585
226	0xbe101f03	-0.1407433
227	0xbe1ab6e5	-0.15108831
228	0xbf0237fc	-0.50866675
229	0xbd680c89	-0.05665258
230	0xbdea18e5	-0.114305295
231	0xbe52aa10	-0.20572686
232	0x3e96a789	0.29424694
233	0x3e139df4	0.14415723
234	0x3d1db0b0	0.03849858
235	0x3dcb1e85	0.099179305
236	0x3dcf8f1d	0.101347186
237	0xbd920bf1	-0.07131184
238	0x3e35692b	0.177159
239	0xbe0b73f0	-0.13618445
240	0x3c904744	0.017612107
241	0xbecb191d	-0.39667597
242	0xbd93e571	-0.07221497
243	0xbdf69bf6	-0.12041466
244	0x3cdfa841	0.02730191
245	0x3e2548c4	0.16141039
246	0x3e8de03e	0.27710146
247	0x3dca434f	0.09876119
248	0xbddfa1f6	-0.109195635
249	0x3e01f527	0.12691174
250	0x3d5e9c73	0.05434842
251	0x3d020be3	0.031749617
252	0xbe3e19d4	-0.1856454
253	0x3eb58ffb	0.3546141
254	0xbd8611a5	-0.06546334
255	0xbeb78f43	-0.35851488

head_comm.bias f4 [8]
0	0x3e1ae008	0.15124524
1	0x3da0d933	0.078539275
2	0xbf424737	-0.75889915
3	0xbf3210ed	-0.69557077
4	0xbf2fb699	-0.68637997
5	0xbf346897	-0.7047209
6	0xbf3d77b0	-0.74010754
7	0xbf46dfbb	-0.77685136

head_mode.weight f4 [2, 128]
0	0xbd282049	-0.041046415
1	0xbdebb5e3	-0.115093015
2	0x3e34ce30	0.1765678
3	0xbde21fae	-0.11041199
4	0x3d4e99bd	0.050439585
5	0x3dad0e38	0.08449978
6	0x3e12861e	0.14308974
7	0xbec18178	-0.3779409
8	0xbe7b0ea7	-0.24517308
9	0x3d0e70d7	0.03477558
10	0xbdcd0111	-0.10009969
11	0x3da50b84	0.08058837
12	0xbd9a98e4	-0.07548693
13	0xbd7042ce	-0.05865746
14	0xbe51cea1	-0.20488979
15	0xbd07821e	-0.033083074
16	0x3e4986d1	0.19680335
17	0x3e8d985e	0.2765531
18	0x3e40cfa4	0.18829209
19	0xbd409f58	-0.047026962
20	0x3e3a46c2	0.18191054
21	0x3eb95a28	0.36201596
22	0x39c76dff	0.0003803819
23	0xbe2f0608	-0.17092144
24	0xbeac1937	-0.33612987
25	0x3e26d430	0.1629188
26	0xbe31c625	-0.17360742
27	0xbd8b669f	-0.06806683
28	0xbf3db853	-0.7410938
29	0xbeb9aaea	-0.3626321
30	0xbd4f6a1d	-0.050638307
31	0xbdb9bba8	-0.09068996
32	0x3d949ef1	0.07256878
33	0xbc8b9152	-0.017037068
34	0x3dc3909c	0.095490664
35	0xbcc24ba8	-0.023717716
36	0xbdc73ba1	-0.0972817
37	0x3dd5abc5	0.10433153
38	0xbe8264b1	-0.25467446
39	0xbd6fdaca	-0.058558263
40	0xbe93df5f	-0.28881356
41	0xbda21871	-0.07914818
42	0xbcd1fbe2	-0.025632802
43	0x3c318aa5	0.010836278
44	0xbce0fc9c	-0.027464204
45	0x3e63ad26	0.2223402
46	0x3d8bf555	0.06833903
47	0xbe71328f	-0.23554443
48	0xbe47001b	-0.19433634
49	0xbe2f8292	-0.17139652
50	0xbe0d4e58	-0.13799417
51	0xbdfcfbe3	-0.12352731
52	0x3eb7c675	0.35893598
53	0x3e84449d	0.25833598
54	0x3eb2e32b	0.3493894
55	0xbed477e2	-0.41497713
56	0x3eb57859	0.3544338
57	0x3f4ce8a8	0.80042505
58	0xbf5a336c	-0.85234714
59	0xbe237d3c	-0.15965742
60	0xbecf6907	-0.40509817
61	0x3e2c77ff	0.1684265
62	0x3c30f5ce	0.010800792
63	0x3e014787	0.12624942
64	0x3db1d597	0.08683317
65	0x3d0355a1	0.032064084
66	0x3df1e8e5	0.11811999
67	0xbd9469ad	-0.072467186
68	0xbe1f10b6	-0.15533718
69	0x3df351dd	0.118808486
70	0xbe94e09d	-0.29077616
71	0xbee35195	-0.4439818
72	0xbe5c7925	-0.21530588
73	0x398be546	0.00026682968
74	0xbe5e48ca	-0.21707454
75	0x3b94a145	0.0045358264
76	0xbe3b0ba1	-0.18266155
77	0x3dcb55c6	0.09928469
78	0xbcb63f91	-0.022247108
79	0xbdb3055d	-0.08741257
80	0x3a7e5907	0.0009702597
81	0xbe6e9223	-0.23297934
82	0xbe906b05	-0.2820665
83	0xbef5db0e	-0.48018688
84	0x3dad98cf	0.084764116
85	0x3eb6cfee	0.35705513
86	0xbe8dede1	-0.2772055
87	0x3def7468	0.116921246
88	0xbbc3f096	-0.005979608
89	0xbe8da83a	-0.2766741
90	0xbed37a82	-0.41304404
91	0xbf06f711	-0.52720743
92	0x3e1d5630	0.15364909
93	0xbc38fc75	-0.011290659
94	0xbe16b985	-0.14719208
95	0xbbcffd5b	-0.006347341
96	0xbeb9cbaa	-0.36288196
97	0x3df2a14d	0.11847172
98	0x3d7f044e	0.062259965
99	0x3d37cf95	0.0448757
100	0x3eecc897	0.46246788
101	0x3de36b06	0.111043975
102	0x3e801de8	0.25022817
103	0x3e6445b1	0.2229221
104	0xbeadb7b2	-0.3392921
105	0xbe022a31	-0.12711407
106	0xbdb60e75	-0.08889476
107	0xbdc1656c	-0.09443173
108	0xbd4c6310	-0.04989916
109	0xbc63ad69	-0.013896325
110	0xbdd3888e	-0.1032878
111	0x3e13f730	0.14449763
112	0xbcb24d5d	-0.021765405
113	0x3ebe6ac5	0.37190834
114	0xbca0fa37	-0.019650562
115	0x3e5094ee	0.20369312
116	0xbdef1918	-0.11674708
117	0xbe020bc1	-0.12699796
118	0xbe84097d	-0.2578849
119	0xbcb5791f	-0.022152482
120	0x3bd3ccdc	0.00646363
121	0xbdf16da3	-0.1178849
122	0xbdadd35e	-0.08487581
123	0xbd91e935	-0.07124559
124	0x3e27d0b3	0.16388206
125	0xbe9b5fb1	-0.30346444
126	0xbce1d733	-0.027568435
127	0x3eb3ef66	0.35143584
128	0x3c9bde0d	0.01902678
129	0x3dde42ab	0.1085256
130	0xbe3834f5	-0.17988952
131	0xbd5573f4	-0.052112535
132	0xbc8b38e0	-0.016994894
133	0xbd691ea8	-0.056914
134	0xbe28baa4	-0.16477448
135	0x3ead9d5b	0.33909115
136	0x3e9366d9	0.28789404
137	0xbcb09dbb	-0.021559587
138	0x3cef5314	0.02921442
139	0xbc5b5717	-0.013387463
140	0xbd59c9ff	-0.053171154
141	0x3cdc85c3	0.026919251
142	0x3e60df92	0.21960285
143	0x3e0ea115	0.13928635
144	0xbe515135	-0.20441134
145	0xbec63ba4	-0.38717377
146	0xbe4034db	-0.18770163
147	0x3d795b71	0.06087822
148	0xbe10933f	-0.1411867
149	0xbe88d558	-0.26725268
150	0x3cd6a6ed	0.026202643
151	0x3e05fcee	0.13084766
152	0x3e45557e	0.19270894
153	0xbe273d25	-0.16331919
154	0x3e8077b6	0.25091332
155	0xbcbe206e	-0.023208823
156	0x3f4f74b2	0.8103744
157	0x3e85ec20	0.26156712
158	0x3db7d7b4	0.08976689
159	0x3d145c88	0.036221057
160	0xbdc1016b	-0.094240986
161	0x3bd7888d	0.0065775574
162	0xbd0cd9a7	-0.034387257
163	0xbd795efc	-0.0608816
164	0xbd2d9e6f	-0.042387422
165	0xbe192506	-0.1495553
166	0x3e9bb4b8	0.30411315
167	0xbcc5fb37	-0.02416764
168	0x3e89fc0e	0.26950115
169	0x3e0af9ad	0.13571806
170	0xbd84db29	-0.06487114
171	0x3d9e82ad	0.07739768
172	0x3ce07290	0.027398378
173	0xbe8ac5de	-0.27104086
174	0x3c14a9a8	0.009073652
175	0x3e0ecc52	0.1394513
176	0x3e20c4e2	0.15700105
177	0x3e9f88e8	0.3115914
178	0x3df147d6	0.1178128
179	0x3e124477	0.1428393
180	0xbea74398	-0.32668757
181	0xbe5a46ef	-0.21316122
182	0xbe65d1a0	-0.22443247
183	0x3ecf0f12	0.40441185
184	0xbe9c76be	-0.30559343
185	0xbf5a6167	-0.85304874
186	0x3f4e695b	0.8062951
187	0x3e2f1973	0.17099552
188	0x3ef48e7d	0.4776496
189	0xbe0553a5	-0.13020189
190	0x3ddc56b3	0.10758724
191	0xbd2f754a	-0.042836465
192	0xbd950e2e	-0.07278095
193	0x3d0f7c9e	0.035030954
194	0xbdaa3f16	-0.08312814
195	0xbd0d42db	-0.034487586
196	0x3e86463f	0.2622547
197	0xbe1136bc	-0.14181036
198	0x3e8ce2c3	0.27516755
199	0x3ee6078a	0.44927627
200	0x3e419a53	0.18906526
201	0x3a0339bc	0.00050058565
202	0x3e32c5e4	0.17458302
203	0xbe060cb0	-0.13090777
204	0x3e2ea4e7	0.17055093
205	0xbd3c85fd	-0.04602622
206	0xbc83911a	-0.0160604
207	0x3db30957	0.08742016
208	0x3d38a972	0.04508347
209	0x3e26b2d8	0.16279161
210	0x3ebae69c	0.36504066
211	0x3f04fd33	0.5194885
212	0x3da71d64	0.08159903
213	0xbecbae5f	-0.39781472
214	0x3e81da5e	0.25361913
215	0x3cdb862b	0.026797375
216	0xbc9fab9f	-0.019491015
217	0x3ec8e10b	0.39234194
218	0x3ed3b867	0.41351625
219	0x3f081356	0.53154504
220	0xbdd7f2a9	-0.105443306
221	0xbd8cd64c	-0.068768114
222	0x3e310cd8	0.17290056
223	0xbd1a6e63	-0.03770293
224	0x3eea575e	0.4576978
225	0xbe2f2424	-0.1710363
226	0xbda3cd1e	-0.079981074
227	0xbdf825a2	-0.12116553
228	0xbee5be8a	-0.44871932
229	0xbe115a73	-0.1419466
230	0xbe953681	-0.29143146
231	0xbe05e39a	-0.13075104
232	0x3eb16689	0.3464854
233	0x3e42d845	0.19027813
234	0x3de4b3b4	0.11167088
235	0x3ddda009	0.1082154
236	0x3d83b586	0.06431107
237	0x3c9d9518	0.019236133
238	0x3c571c57	0.013129315
239	0xbc7101ae	-0.014709873
240	0xbc29a97f	-0.010355352
241	0xbe95224a	-0.29127723
242	0xbc890fa3	-0.016731089
243	0xbe0e29e4	-0.13883168
244	0x3dd1efcf	0.10250818
245	0x3de59871	0.112107165
246	0x3e885ed9	0.26634863
247	0xbdebeb25	-0.1151946
248	0xbd2c8c3e	-0.042125933
249	0x3e110e64	0.14165646
250	0x3b9a05ca	0.004700397
251	0x3d5710e8	0.052506357
252	0xbdddb82c	-0.108261436
253	0x3eb0d638	0.34538436
254	0x3d4e15e6	0.050313853
255	0xbea274df	-0.3172979

head_mode.bias f4 [2]
0	0x3d280b15	0.041026194
1	0x3c325de7	0.010886646
