outputs/checkpoints/mappo_stage1.pt (torch, 481125 bytes, 17 tensors)

net.0.weight f4 [128, 44]
0.75144064 -0.43779284 0.09836154 1.3961298 0.07811295 -0.0039735925 -0.11279736 -0.07624675
-0.1950365 0.09168358 -0.27179527 -0.010224511 -0.20604505 0.13820343 -0.063910365 -0.0009525847
0.07464409 0.063909 0.04317266 -0.06978215 -0.010269802 0.06676835 -0.10752869 -0.034028962
0.008493542 0.012003829 0.2327531 -0.13026549 0.015750047 -0.20932308 -0.0047587594 -0.011336469
-0.058894753 0.16664812 -0.0953581 -0.28346723 0.059518874 -0.18778531 0.037952412 -0.18205135
-0.07579469 -0.055915173 0.093718596 0.101061836 -1.1292566 0.32867014 0.14204417 -0.4642579
0.59278375 0.07399844 -0.43973508 0.11834991 0.27430117 -0.1764719 0.37521702 -0.17176127
0.59794724 0.049902458 0.32319865 -0.4590547 -0.07097527 -0.15495363 -0.11577221 0.34127885
0.12838979 0.050580267 0.21648595 0.040294793 0.10482367 0.03235098 -0.23035641 0.38927352
-0.17947362 0.1777769 -0.17582135 -0.030388366 0.15938932 0.12273373 0.25638276 0.13765028
-0.248898 0.23358838 -0.02615157 0.3509968 -0.39037684 0.07170603 -0.06323142 -0.07571187
-0.27210173 -0.51291174 -0.030643336 0.80645967 0.14185922 -0.13582644 -0.4203954 0.4633414
-0.42693982 0.1608106 -0.2142836 -0.19270663 0.1789884 -0.31912863 0.0033315232 -0.21080674
-0.2803728 -0.444604 -0.32511222 0.020832896 -0.07525578 -0.16124381 0.09897815 0.07093406
-0.08224458 -0.34878474 -0.20544666 0.41713527 -0.3325688 0.13840288 -0.19440047 -0.24326202
0.048757125 0.10512798 0.10936303 -0.50850147 0.0038378467 -0.26720813 -0.09178594 -0.08491223
-0.13251439 -0.04343998 -0.0960813 0.02876941 0.41482246 -0.6512723 -0.10583495 0.9145361
-0.045507926 0.050969068 -0.11158441 0.12301492 -0.16721001 -0.2745341 0.04870975 -0.21790482
-0.063276365 0.03716814 -0.08605539 0.054691598 0.079944655 0.11328463 -0.12043483 0.08630973
-0.14099063 0.020771936 -0.08557383 -0.2044697 -0.1917115 0.10825519 0.20788036 -0.12706135
0.007476165 -0.20414548 0.2891499 0.10167188 -0.17495745 0.051457595 0.039279517 -0.20056692
0.32736555 -0.15948495 0.34017175 -0.20056051 0.35148847 -0.044456083 0.016391456 0.022392401
0.13934635 -0.16928032 -0.13860342 -0.8976774 0.5210692 -0.14159533 0.09212284 -0.27729717
0.062387757 0.021140011 0.2647595 -0.010202775 0.015364725 -0.035382707 0.1383865 -0.17668594
0.06830813 0.110532224 -0.11580155 0.09143667 0.15095918 0.12220296 0.035888974 0.010936838
0.14677067 0.4912399 -0.067999706 0.17352317 0.09327278 0.25867045 0.01572331 0.07785898
0.15276892 -0.037775513 0.0028184582 0.19468848 0.24045016 0.12934887 -0.06306618 -0.039685417
-0.062153343 -0.11730346 -0.1417556 -0.03146467 -1.1898624 0.9130388 0.3222695 0.029162949
-0.27678448 0.015141885 -0.27035385 0.4298977 0.065771796 -0.11123876 0.22702086 -0.15874432
0.18754528 -0.25181052 0.08206402 -0.27716058 0.19685738 0.008801172 0.034564763 -0.020184932
-0.23987238 0.018543296 0.057549786 -0.02113687 -0.019750146 -0.051465414 -0.13031009 -0.0003906154
0.27323583 -0.27107203 -0.16949649 0.080757126 0.07819724 0.15035273 0.08111946 0.6768317
00000000: 6a5e 403f 6226 e0be c671 c93d 62b4 b23f
00000010: aff9 9f3d e934 82bb 4d02 e7bd 4227 9cbd
00000020: a6b7 47be 9ac4 bb3d c028 8bbe b584 27bc
00000030: 79fd 52be 3385 0d3e 70e3 82bd e1b6 79ba
00000040: 00df 983d b9e2 823d d1d5 303d f2e9 8ebd
00000050: ac42 28bc d8bd 883d 0038 dcbd f461 0bbd
00000060: 7f28 0b3c b5ab 443c d456 6e3e 5164 05be
00000070: 3e06 813c ca58 56be 5eef 9bbb 99bc 39bc
00000080: a03b 71bd cea5 2a3e 1c4b c3bd 9e22 91be
00000090: 10ca 733d cb4a 40be fd73 1b3d ab6b 3abe
000000a0: 3f3a 9bbd 4f07 65bd 89ef bf3d 82f9 ce3d
000000b0: 7b8b 90bf 7447 a83e 0774 113e 36b3 edbe
000000c0: adc0 173f 7e8c 973d f524 e1be 7061 f23d
000000d0: 3471 8c3e 0db5 34be 721c c03e 30e2 2fbe
000000e0: 1213 193f 8566 4c3d 4b7a a53e 3809 ebbe
000000f0: 7b5b 91bd 2aac 1ebe fb19 edbd 1abc ae3e
00000100: 9d78 033e 412d 4f3d 7eae 5d3e 270c 253d
00000110: cbad d63d 7682 043d 8de2 6bbe dc4e c73e
00000120: efc7 37be 260b 363e 830a 34be 06f1 f8bc
00000130: f436 233e d25b fb3d 9a44 833e 32f4 0c3e
00000140: 1edf 7ebe cb31 6f3e d13b d6bc dab5 b33e
00000150: 79df c7be 9cda 923d 7a7f 81bd d30e 9bbd
00000160: eb50 8bbe 2f4e 03bf bc07 fbbc 2474 4e3f
00000170: 8b43 113e 1616 0bbe 113e d7be 153b ed3e
00000180: db97 dabe 89ab 243e 296d 5bbe e354 45be
00000190: bc48 373e d464 a3be af55 5a3b b9dd 57be
000001a0: 068d 8fbe 23a3 e3be 1c75 a6be c0a9 aa3c
000001b0: b41f 9abd 191d 25be 0eb5 ca3d e045 913d
000001c0: d96f a8bd ea93 b2be 9c60 52be c192 d53e
000001d0: 7546 aabe 7cb9 0d3e eb10 47be ae19 79be
000001e0: 8db5 473d 574d d73d b9f9 df3d 272d 02bf
000001f0: 6284 7b3b 81cf 88be 44fa bbbd 77e6 adbd
00000200: dab1 07be 1fee 31bd 46c6 c4bd d3ad eb3c
00000210: 9c63 d43e c8b9 26bf ffbf d8bd 0a1f 6a3f
00000220: 8566 3abd f1c4 503d 5e86 e4bd 3fef fb3d
00000230: 1a39 2bbe bc8f 8cbe e083 473d 7122 5fbe
00000240: 0a97 81bd 9f3d 183d cf3d b0bd 4c04 603d
00000250: 06ba a33d c601 e83d 89a6 f6bd 28c3 b03d
00000260: d95f 10be e829 aa3c 5541 afbd 8160 51be
00000270: 0550 44be e6b4 dd3d 97de 543e 5f1c 02be
00000280: 9efa f43b 830b 51be 750b 943e 5939 d03d
00000290: 0c28 33be 33c5 523d 8fe3 203d 6a61 4dbe
000002a0: 759c a73e 0650 23be fe2a ae3e bc5f 4dbe
000002b0: 4cf6 b33e 9517 36bd 6047 863c 4570 b73c
000002c0: cfb0 0e3e d257 2dbe 0eee 0dbe 30ce 65bf
000002d0: cb64 053f 5efe 10be e6aa bc3d e5f9 8dbe
000002e0: 4e8a 7f3d d12d ad3c 8f8e 873e 8a29 27bc
000002f0: 54bc 7b3c 75ed 10bd 31b5 0d3e 29ed 34be
00000300: 22e5 8b3d b85e e23d 5d29 edbd 2643 bb3d
00000310: 0b95 1a3e 8c45 fa3d 5100 133d 6c30 333c
00000320: 0d4b 163e cc83 fb3e 6e43 8bbd 0fb0 313e
00000330: cd05 bf3d 7470 843e 2cce 803c 8774 9f3d
00000340: 756f 1c3e 7fba 1abd e2b5 383b 6b5c 473e
00000350: 9138 763e 0874 043e d728 81bd 2d8d 22bd
00000360: 8194 7ebd cc3c f0bd 6128 11be 19e1 00bd
00000370: 694d 98bf e9bc 693f 8200 a53e 23e7 ee3c
00000380: b2b6 8dbe ab15 783c d26b 8abe 8d1b dc3e
00000390: 5db3 863d 26d1 e3bd 2878 683e df8d 22be
000003a0: df0b 403e 4fed 80be 2e11 a83d fee7 8dbe
000003b0: fb94 493e ca32 103c c893 0d3d df5a a5bc
000003c0: 1ba1 75be 1ce8 973c 53b9 6b3d 3b27 adbc
000003d0: 0fcb a1bc 66cd 52bd 0270 05be 83cb ccb9
000003e0: 91e5 8b3e f4c9 8abe 7d90 2dbe fe63 a53d
000003f0: e025 a03d 11f6 193e f621 a63d d844 2d3f

net.0.bias f4 [128]
0.014928496 0.27149248 -0.11069375 -0.04075054 -0.13093439 -0.047700807 -0.20357955 0.14351252
0.045920286 0.12089632 -0.20364206 -0.11619388 0.059493683 -0.0805741 -0.030120868 0.08470299
-0.020673307 -0.05943828 -0.08154043 -0.19304335 -0.0537824 0.14519422 -0.046478637 -0.050116416
-0.122709185 0.05696041 0.075079925 0.02945237 -0.0142480275 -0.11529252 0.028345961 0.14707194
-0.07663424 -0.07367273 -0.06742859 0.090254284 0.08820817 0.016808303 -0.15713687 0.002406303
-0.15054601 0.07561108 -0.04299498 -0.08024308 0.071857855 -0.23828432 -0.07843662 0.058803238
0.06072158 0.12424865 0.28445235 0.034096688 0.0406979 -0.22351934 -0.018819952 0.03636435
0.0755389 -0.16948745 -0.11031271 -0.021771548 0.03791022 0.08291104 0.018088683 -0.10487821
0.067889966 0.07863444 -0.029364342 -0.18561083 0.14004754 -0.124137126 -0.10429324 -0.14380604
-0.10788011 -0.03804583 0.16252969 0.18707252 0.16228876 0.04495817 -0.059302192 0.16527773
-0.072375335 -0.18652865 -0.020275755 0.2012054 0.043057907 0.017822064 0.0058534183 0.17083322
0.05549534 -0.15236242 0.016892252 0.14704353 -0.09909978 -0.027971182 0.05415791 0.07741189
0.07326196 -0.20325758 -0.0772931 -0.07659879 0.082308725 0.094549105 0.08003333 0.18225941
-0.009000926 0.06668749 -0.1578699 -0.104639694 -0.06443461 0.14332566 0.123997085 0.0034329742
0.023283226 0.14792356 -0.018201008 0.2590197 -0.035146665 -0.052404832 -0.04051414 0.019836118
-0.1403676 0.07966924 -0.12876172 0.16386157 -0.0676711 -0.034101546 0.078210115 -0.12777275
00000000: a796 743c 1001 8b3e 68b3 e2bd 0aea 26bd
00000010: aa13 06be ec61 43bd 2877 50be f2f4 123e
00000020: e916 3c3d 7d98 f73d 8b87 50be 0ff7 edbd
00000030: a6af 733d 0904 a5bd 0ac0 f6bc c378 ad3d
00000040: 115b a9bc 8e75 73bd abfe a6bd 28ad 45be
00000050: ef4a 5cbd cbad 143e 6260 3ebd df46 4dbd
00000060: f44e fbbd 524f 693d 81c3 993d 1946 f13c
00000070: 8f70 69bc 7c1e ecbd ca35 e83c 079a 163e
00000080: 6af2 9cbd bae1 96bd 0018 8abd 3dd7 b83d
00000090: 7ca6 b43d 91b1 893c 7de8 20be 11b3 1d3b
000000a0: bc28 1abe fbd9 9a3d 811b 30bd 7c56 a4bd
000000b0: 362a 933d ce00 74be 61a3 a0bd aadb 703d
000000c0: 31b7 783d 1476 fe3d bda3 913e f8a8 0b3d
000000d0: d7b2 263d 41e2 64be 4d2c 9abc c9f2 143d
000000e0: 24b4 9a3d 1e8e 2dbe a1eb e1bd 3f5a b2bc
000000f0: bf47 1b3d 43cd a93d b82e 943c 63ca d6bd
00000100: e509 8b3d 180b a13d 7d8d f0bc c410 3ebe
00000110: 9f68 0f3e 9b3b febd b297 d5bd e441 13be
00000120: 3ff0 dcbd f2d5 1bbd 2f6e 263e f08f 3f3e
00000130: 062f 263e 0f26 383d dbe6 72bd 913e 293e
00000140: 8539 94bd 5e01 3fbe 5719 a6bc ca08 4e3e
00000150: 7d5d 303d 94ff 913c 08ce bf3b e7ee 2e3e
00000160: 154f 633d e504 1cbe 9f61 8a3c 9492 163e
00000170: d3f4 cabd d223 e5bc afd4 5d3d 208a 9e3d
00000180: 5e0a 963d c122 50be d84b 9ebd d4df 9cbd
00000190: 7a91 a83d f6a2 c13d 84e8 a33d 36a2 3a3e
000001a0: 9f78 13bc 7393 883d a6a8 21be 564d d6bd
000001b0: 4bf6 83bd f6c3 123e 2ff2 fd3d c0fb 603b
000001c0: 77bc be3c 4679 173e 481a 95bc 3b9e 843e
000001d0: f3f5 0fbd 73a6 56bd 28f2 25bd 5b7f a23c
000001e0: 86bc 0fbe a029 a33d 1dda 03be 54cb 273e
000001f0: 2597 8abd 10ae 0bbd a02c a03d dcd6 02be

net.2.weight f4 [128, 128]
0.15183286 0.084427014 -0.08872601 0.29889283 0.24464193 -0.1240301 0.22075222 -0.1537655
-0.26713023 -0.04942356 -0.07416927 0.16910006 0.2640578 0.38462257 -0.15277065 0.21689276
0.12613423 -0.268445 0.3227025 -0.19433983 0.39299515 0.04753459 -0.07207586 -0.3990332
0.0900607 -0.179654 0.1821481 -0.11088538 0.057879712 0.12125509 0.36530748 -0.23598939
0.37131038 0.15595967 -0.0043307845 -0.2059513 -0.053924114 0.02576545 -0.03383056 -0.051000167
0.036008395 0.15751788 0.28719774 -0.16504449 -0.13531807 -0.49654073 -0.3406837 0.21520351
-0.08933011 -0.2878512 -0.3110156 0.26428884 -0.2186215 0.32998365 0.12267886 0.028854314
-0.041242685 0.25323403 0.31619987 0.02908782 -0.029350113 0.23357937 -0.17928386 -0.4965181
-0.14670901 0.033390444 0.05999522 -0.098689795 0.038962424 0.35198826 -0.09183964 0.027235622
0.3345085 0.13147448 0.5312832 0.1405712 0.08732415 -0.07183873 0.13272008 -0.07241292
0.7487231 -0.06644445 -0.13778271 0.051750835 0.39566672 -0.07198504 -0.0492595 -0.2165495
-0.32849225 -0.11644519 -0.24309015 -0.023413343 -0.16079897 -0.106759325 -0.051902704 0.2315684
-0.4239232 -0.20167518 0.1019785 0.25864884 -0.2225032 -0.16488986 0.1298753 0.28700736
-0.0037718196 0.0025504814 -0.065504625 -0.21635285 -0.35043812 -0.18245648 0.45485651 0.1947111
-0.2806744 -0.13855381 0.042830266 0.22104588 -0.38198143 0.6526056 0.044420555 -0.04609077
0.23340733 -0.019933617 -0.28817302 -0.22419393 0.28352782 0.169328 -0.5592414 0.055337813
-0.121472664 0.67817044 0.111155815 -0.21306011 0.40487102 -0.30677682 -0.06513793 -0.055084597
0.007070671 0.060870674 -0.19249618 0.2461754 0.22272496 -0.047957443 0.4628799 0.16075546
0.14361785 -0.16424061 0.06528641 0.17612424 0.27595 0.23269157 -0.2440649 -0.12240184
-0.06829594 0.41060862 -0.18375713 -0.06049286 0.19155227 0.13926792 0.042159833 -0.21134819
-0.351374 -0.01889319 -0.2771877 0.06874136 0.3435117 0.3692288 0.05807855 0.14415672
0.3624128 -0.100348435 0.12743083 -0.109236546 -0.11207743 -0.27579027 0.031648926 -0.045421593
0.16295405 0.23378626 0.26995876 0.3602056 0.029155595 -0.10252895 -0.11917322 -0.0044987667
0.40250856 -0.107688874 0.054143555 -0.06717944 0.015958691 0.062782444 -0.22482182 -0.39786804
0.0805304 -0.22325476 0.16783957 -0.14936629 -0.34185755 -0.043491792 0.14488553 -0.31477186
-0.33606887 -0.0063542696 0.025606586 -0.058809392 0.015808327 -0.6265914 -0.118250586 -0.014208785
-0.012080471 -0.061555322 0.13731875 0.29224548 0.01855331 -0.18634708 0.08699406 -0.027206065
-0.29030535 0.12464861 -0.8544286 -0.28501576 0.14070582 0.05554964 -0.56846863 0.24178134
-0.06697165 -0.13572748 0.22137049 -0.026060887 -0.030601893 0.15452681 0.09424266 0.28083295
-0.07863878 -0.3155517 0.16907206 -0.03440552 -0.11367085 0.2943819 0.23086254 -0.24900603
0.16737641 -0.019703759 0.3648597 0.0498467 0.16899778 0.10184614 -0.27098006 0.0777248
0.1952701 -0.14380378 0.08961379 0.19559552 0.06795717 -0.1061141 -0.49687722 0.22769673
00000000: 137a 1b3e 12e8 ac3d fbb5 b5bd 7b08 993e
00000010: 6a83 7a3e 7e03 febd df0c 623e b474 1dbe
00000020: 4bc5 88be 5c70 4abd 0fe6 97bd 9128 2d3e
00000030: 9532 873e 40ed c43e e96f 1cbe 2319 5e3e
00000040: 5529 013e 9f71 89be 4339 a53e 0501 47be
00000050: a936 c93e a1b3 423d 829c 93bd 144e ccbe
00000060: bf71 b83d 38f7 37be 0885 3a3e e017 e3bd
00000070: 4713 6d3d 9754 f83d 9509 bb3e 34a7 71be
00000080: 651c be3e e4b3 1f3e 41e9 8dbb e6e4 52be
00000090: 88df 5cbd 1112 d33c ea91 0abd 8de5 50bd
000000a0: 8a7d 133d 5e4c 213e 950b 933e 6c01 29be
000000b0: d290 0abe 963a febe 186e aebe 4f5e 5c3e
000000c0: b4f2 b6bd 3c61 93be 703d 9fbe de50 873e
000000d0: 51de 5fbe 9ef3 a83e 0e3f fb3d e25f ec3c
000000e0: 17ee 28bd e4a7 813e f3e4 a13e 9449 ee3c
000000f0: a66f f0bc 6e2f 6f3e 3096 37be 9f37 febe
00000100: e33a 16be 6bc4 083d 8cbd 753d e01d cabd
00000110: 1097 1f3d ce37 b43e 6c16 bcbd 3d1d df3c
00000120: b344 ab3e 3fa1 063e 2d02 083f e6f1 0f3e
00000130: 01d7 b23d 2f20 93bd c6e7 073e 3a4d 94bd
00000140: 51ac 3f3f 0714 88bd e916 0dbe aff8 533d
00000150: d494 ca3e e56c 93bd 54c4 49bd 27bf 5dbe
00000160: 2330 a8be d17a eebd a0ec 78be 57cd bfbc
00000170: 7ca8 24be a2a4 dabd ee97 54bd 4420 6d3e
00000180: 760c d9be f083 4ebe 1bda d03d 9f6d 843e
00000190: e1d7 63be e3d8 28be 08fe 043e a1f2 923e
000001a0: a230 77bb fa25 273b 4a27 86bd 9a8b 5dbe
000001b0: a06c b3be dfd5 3abe f4e2 e83e 5962 473e
000001c0: 8eb4 8fbe 0de1 0dbe ca6e 2f3d da59 623e
000001d0: 1293 c3be 2911 273f 54f2 353d adc9 3cbd
000001e0: 5502 6f3e d34b a3bc 6a8b 93be 1893 65be
000001f0: 8f2a 913e 5264 2d3e 722a 0fbf e7a9 623d
00000200: a9c6 f8bd 949c 2d3f a9a5 e33d 6e2c 5abe
00000210: 414b cf3e da11 9dbe 0967 85bd 63a0 61bd
00000220: 16b1 e73b 8753 793d b81d 45be 6715 7c3e
00000230: 0312 643e 066f 44bd 98fe ec3e 149d 243e
00000240: 8f10 133e b12e 28be e2b4 853d ea59 343e
00000250: 5249 8d3e b346 6e3e 26ec 79be d1ad fabd
00000260: bede 8bbd 4b3b d23e d42a 3cbe 5cc7 77bd
00000270: 4726 443e 409c 0e3e caaf 2c3d a96b 58be
00000280: 4be7 b3be e4c5 9abc 8ceb 8dbe 45c8 8c3d
00000290: c4e0 af3e 8f0b bd3e c6e3 6d3d d29d 133e
000002a0: 2c8e b93e 7b83 cdbd 3a7d 023e 69b7 dfbd
000002b0: da88 e5bd 6234 8dbe 4ea2 013d fe0b 3abd
000002c0: 6ddd 263e aa65 6f3e 0938 8a3e de6c b83e
000002d0: b7d7 ee3c b3fa d1bd 1711 f4bd 646a 93bb
000002e0: 9a15 ce3e fc8b dcbd a2c5 5d3d 6095 89bd
000002f0: cdbb 823c 1594 803d b137 66be 5cb5 cbbe
00000300: 1fed a43d e59c 64be 23de 2b3e 7af3 18be
00000310: f407 afbe 7324 32bd df5c 143e c729 a1be
00000320: 3811 acbe 7a37 d0bb e7c4 d13c 1ee2 70bd
00000330: 7780 813c 4b68 20bf 5d2d f2bd f7cb 68bc
00000340: 2bed 45bc 6f21 7cbd 499d 0c3e 33a1 953e
00000350: 1cfd 973c c5d1 3ebe f129 b23d 41df debc
00000360: e7a2 94be c547 ff3d d5bb 5abf 96ed 91be
00000370: 3015 103e 0588 633d 2987 11bf 8795 773e
00000380: 6f28 89bd 25fc 0abe f2ae 623e a47d d5bc
00000390: d2b0 fabc 473c 1e3e 4c02 c13d 56c9 8f3e
000003a0: 5e0d a1bd fe8f a1be 3a21 2d3e cdec 0cbd
000003b0: 43cc e8bd 39b9 963e 3b67 6c3e 70fb 7ebe
000003c0: b964 2b3e c769 a1bc e4ce ba3e 0e2c 4c3d
000003d0: c10d 2d3e b694 d03d e6bd 8abe 2e2e 9f3d
000003e0: e3f4 473e 4c41 13be 6f87 b73d 314a 483e
000003f0: 212d 8b3d 5952 d9bd b166 febe 5529 693e

net.2.bias f4 [128]
-0.1015351 0.30438337 -0.21518433 0.3790764 -0.2965953 -0.44160527 -0.05851836 0.05197271
0.08723918 -0.05804971 -0.15731817 -0.34887102 -0.15791805 -0.5307852 0.18012561 0.02115714
-0.080915466 0.3273026 -0.10233427 0.06292029 0.03589269 -0.407099 -0.108530305 -0.23423608
0.20545486 0.13935278 -0.29012308 0.22339936 -0.23737013 -0.028474512 0.2382131 0.23880562
-0.27099243 0.3815362 0.28356203 -0.3087644 0.0040285136 -0.006486203 -0.11663009 0.20589401
-0.095713735 -0.11431395 -0.2724024 0.212281 0.28938037 -0.3276249 0.13256742 -0.064397156
-0.04410335 0.18141288 -0.056769073 0.27673197 -0.16535561 0.15247901 -0.028715683 0.020021202
-0.06036983 -0.31757322 0.2297334 0.21007168 -0.1362115 0.23101817 0.15485889 -0.0699036
0.0027378523 0.064515404 -0.0890524 0.04386448 0.0015228023 0.20537288 0.2402697 -0.0144488895
0.17518932 0.04518943 0.087421685 -0.1004432 -0.047323328 -0.005722711 0.2796756 -0.11459683
-0.10530277 0.2238105 0.18646449 -0.09946393 -0.10821239 -0.19401203 -0.2971198 0.06009429
0.2742371 -0.12910914 0.3648029 -0.12356544 -0.04618646 -0.082824536 -0.14493337 0.21064043
-0.11995713 -0.018191794 -0.23910901 -0.05267597 -0.094864555 -0.11241064 0.12608638 -0.09312221
-0.0021861477 0.4727063 -0.0043075336 -0.21663812 -0.32713667 -0.053773787 0.041627403 -0.40891322
-0.13459384 -0.3172519 -0.45449764 -0.29637548 0.44721463 0.041580338 -0.053850565 -0.04399944
0.34783098 0.25229865 0.53885996 -0.023751238 0.0023051426 0.22320104 0.32136643 -0.23652706
00000000: a2f1 cfbd 23d8 9b3e 4859 5cbe 4d16 c23e
00000010: 57db 97be 161a e2be f3b0 6fbd 56e1 543d
00000020: 75aa b23d 88c5 6dbd 0418 21be 399f b2be
00000030: 45b5 21be 8ae1 07bf d972 383e bd51 ad3c
00000040: 02b7 a5bd 3594 a73e a194 d1bd 5adc 803d
00000050: 3704 133d 486f d0be 2345 debd 95db 6fbe
00000060: c262 523e 7fb2 0e3e 038b 94be cdc2 643e
00000070: 2811 73be 6143 e9bc 23ee 733e 7689 743e
00000080: 85bf 8abe b658 c33e 0b2f 913e 5e16 9ebe
00000090: 9f01 843b 378a d4bb c2db eebd e1d5 523e
000000a0: 9005 c4bd 6f1d eabd 5478 8bbe 3160 593e
000000b0: aa29 943e 73be a7be c1bf 073e a8e2 83bd
000000c0: b7a5 34bd 4cc4 393e b086 68bd d0af 8d3e
000000d0: fb52 29be 7523 1c3e 273d ebbc 8103 a43c
000000e0: 5b46 77bd f598 a2be 3b3f 6b3e 081d 573e
000000f0: 077b 0bbe 0790 6c3e 5493 1e3e 9e29 8fbd
00000100: 8a6d 333b a720 843d 1b61 b6bd 3eab 333d
00000110: c498 c73a 454d 523e 4309 763e 09bb 6cbc
00000120: d464 333e 8d18 393d 240a b33d 2ab5 cdbd
00000130: 1bd6 41bd 9485 bbbb a431 8f3e beb1 eabd
00000140: fba8 d7bd 942e 653e 8cf0 3e3e bfb3 cbbd
00000150: 759e ddbd 17ab 46be 1620 98be 6e25 763d
00000160: ce68 8c3e 3035 04be 72c7 ba3e e10f fdbd
00000170: 032e 3dbd e99f a9bd 6a69 14be 20b2 573e
00000180: 15ac f5bd f506 95bc fed8 74be c2c2 57bd
00000190: 5948 c2bd 8d37 e6bd ca1c 013e dbb6 bebd
000001a0: 7945 0fbb 8f06 f23e 3626 8dbb 62d6 5dbe
000001b0: 757e a7be e741 5cbd 7f81 2a3d 135d d1be
000001c0: f8d2 09be d76e a2be eab3 e8be 87be 97be
000001d0: 51f9 e43e 2550 2a3d 6992 5cbd c238 34bd
000001e0: e716 b23e 4a2d 813e baf2 093f f591 c2bc
000001f0: e011 173b d08e 643e 248a a43e 2634 72be

head_task.weight f4 [11, 128]
-0.4432288 -0.37423506 -0.3448801 0.18771362 -0.1280829 0.11054488 0.135756 -0.146501
-0.02302609 0.11127668 0.4022534 -0.0772027 0.26289016 -0.057143442 -0.09975858 -0.25264832
0.057331562 -0.025018808 -0.29158878 -0.06023644 -0.305324 0.066108264 0.044249862 -0.13409406
-0.119697675 -0.36830804 -0.08234829 0.25222963 -0.2280252 -0.17305256 0.27725303 0.03952297
-0.051357675 0.22349776 0.0029482085 -0.2112132 0.18536252 0.14486344 -0.17062753 0.074441984
0.122854 0.014121305 -0.20515831 0.54711694 0.11913678 -0.0889713 0.04212102 -0.25494888
-0.13886374 0.025888406 0.01955221 0.09462376 0.61051404 -0.33202705 -0.054493453 -0.07415499
-0.17632453 -0.118160814 0.15922433 -0.2841057 0.10690814 -0.14253339 -0.22655506 -0.104278475
0.27521163 -0.025308771 -0.053656906 -0.100858055 0.0029906745 -0.027307184 -0.14160015 -0.24102564
-0.39120048 -0.12292251 -0.15658745 0.026403027 -0.12088011 -0.27793437 0.033902485 -4.949709e-05
0.15554443 0.10780655 0.12343505 0.1766839 -0.109128654 0.110882185 0.5044287 -0.020502772
-0.16559134 -0.026010578 -0.19970913 -0.032790605 -0.27454215 0.018133258 0.20713189 0.2787589
0.31664076 0.41146445 0.10597791 -0.17860475 -0.0031719203 -0.025494719 0.10378665 -0.033713415
0.3455392 -0.43013152 -0.07014457 0.031070977 -0.077843815 0.40377888 0.0072145 0.54075
0.16853671 -0.0058831596 0.91490006 0.27021626 -0.27448472 0.21236858 0.016169038 -0.15265983
0.25304687 -0.2784808 -0.30828178 -0.01814064 0.3369327 0.1450794 -0.097146116 -0.024254693
0.14200972 -0.42534843 0.0009954207 -0.011138119 0.08700169 0.06289054 -0.1753676 0.13184305
-0.07687141 0.027291177 0.21200143 0.2069494 0.20706803 -0.15584439 0.19393544 0.021579588
-0.040784825 0.08646715 -0.1057157 -0.18534368 0.30563334 -0.091987826 0.026516626 -0.2386733
-0.046284143 -0.52683073 0.024059623 0.04440364 -0.24191184 -0.2295519 0.009881499 0.10385801
-0.13418885 0.17524736 0.1090883 -0.1614813 0.008133468 -0.034035005 -0.19249256 -0.0260107
-0.14158365 0.060522363 0.21412851 0.14676511 0.041161582 -0.07725217 0.36357585 -0.20269401
-0.13273421 0.23866156 -0.013722859 0.21169615 -0.011444929 -0.7158467 0.11954892 0.06858078
-0.09114044 -0.018544279 -0.04299694 -0.3851807 -0.05291307 -0.06034458 -0.08361093 -0.05711339
0.051479466 -0.016863449 -2.4661535e-05 -0.101610206 -0.2580559 -0.029170427 -0.099366955 0.31609702
-0.27219275 0.27306098 0.05852008 0.19819435 -0.056126714 -0.262539 -0.009730255 -0.16225311
0.06920684 0.20235026 0.022390235 0.14031878 -0.20831518 -0.19671962 0.60398006 -0.13358727
-0.008030912 -0.11794605 0.26860377 -0.08418334 -0.0115522975 0.0820235 -0.007129177 0.34257168
0.36361438 0.019688956 -0.29451978 -0.19607638 0.22281657 -0.08095742 0.15633519 -0.17917551
0.23360294 -0.42817372 -0.13609606 0.14812665 -0.021693354 -0.20133437 0.08382703 -0.16994093
0.19601509 -0.09950476 -0.029244479 -0.05387577 -0.54451567 0.18444847 -0.42993715 -0.17778201
0.054496486 -0.1578012 0.044997506 -0.14347863 0.20382316 0.03819069 -0.156373 0.026834672
00000000: e3ee e2be bd9b bfbe 2094 b0be 0038 403e
00000010: 2a28 03be 5b65 e23d 9f03 0b3e 5c04 16be
00000020: 36a1 bcbc 07e5 e33d 28f4 cd3e 731c 9ebd
00000030: 8a99 863e 3e0f 6abd 3a4e ccbd 1f5b 81be
00000040: 80d4 6a3d 3ef4 ccbc 204b 95be 7cba 76bd
00000050: 6d53 9cbe c563 873d 583f 353d f44f 09be
00000060: 0e24 f5bd df92 bcbe 38a6 a8bd 3e24 813e
00000070: 707f 69be b134 31be 1cf4 8d3e d6e2 213d
00000080: 6d5c 52bd 99dc 643e bb36 413b 4648 58be
00000090: accf 3d3e 1557 143e fcb8 2ebe 0a75 983d
000000a0: e19a fb3d 0c5d 673c 0515 52be db0f 0c3f
000000b0: fcfd f33d 9636 b6bd 1787 2c3d a988 82be
000000c0: 4c32 0ebe ec13 d43c f52b a03c 1aca c13d
000000d0: a64a 1c3f 73ff a9be 8734 5fbd 92de 97bd
000000e0: 6b8e 34be 4cfe f1bd b40b 233e 4d76 91be
000000f0: a8f2 da3d 46f4 11be 0dfe 67be f48f d5bd
00000100: 8ae8 8c3e 5754 cfbc 58c7 5bbd ab8e cebd
00000110: 31ff 433b 51b3 dfbc a1ff 10be 6dcf 76be
00000120: 6e4b c8be ccbe fbbd 7658 20be 294b d83c
00000130: fe8f f7bd 6a4d 8ebe 55dd 0a3d 189b 4fb8
00000140: 0a47 1f3e aec9 dc3d 84cb fc3d a0ec 343e
00000150: d87e dfbd 3316 e33d 3d22 013f 6ef5 a7bc
00000160: c790 29be 2314 d5bc 8d80 4cbe 714f 06bd
00000170: ca90 8cbe 338c 943c 621a 543e 7db9 8e3e
00000180: bd1e a23e 78ab d23e f20a d93d 2ae4 36be
00000190: fedf 4fbb 4dda d0bc 188e d43d 1417 0abd
000001a0: 84ea b03e 333a dcbe f5a7 8fbd 9088 fe3c
000001b0: 946c 9fbd 1bbc ce3e 9d67 ec3b 986e 0a3f
000001c0: e394 2c3e 85c7 c0bb e436 6a3f c959 8a3e
000001d0: 4389 8cbe 2677 593e ee74 843c dc52 1cbe
000001e0: 5c8f 813e 0995 8ebe 1cd7 9dbe ae9b 94bc
000001f0: 7182 ac3e b28f 143e 8bf4 c6bd c7b1 c6bc
00000200: ff6a 113e 45c7 d9be c778 823a a87c 36bc
00000210: f12d b23d c1cc 803d 9093 33be dd01 073e
00000220: c26e 9dbd bf91 df3c e716 593e 8bea 533e
00000230: a409 543e ac95 1fbe 0397 463e adc7 b03c
00000240: fd0d 27bd b015 b13d 7981 d8bd bcca 3dbe
00000250: f97b 9c3e 1d64 bcbd 6539 d93c c666 74be
00000260: 7194 3dbd 61de 06bf b018 c53c 97e0 353d
00000270: bdb7 77be a70f 6bbe 03e6 213c 82b3 d43d
00000280: cd68 09be 0b74 333e b069 df3d 5b5b 25be
00000290: 3d42 053c 4a68 0bbd c51c 45be 6414 d5bc
000002a0: 4efb 10be 4ce6 773d 8144 5b3e 9849 163e
000002b0: 0c99 283d 6336 9ebd 9d26 ba3e 058f 4fbe
000002c0: 7aeb 07be b263 743e d8d5 60bc e0c6 583e
000002d0: 8383 3bbc bb41 37bf 10d6 f43d 1474 8c3d
000002e0: d7a7 babd 2cea 97bc 8f1d 30bd 6836 c5be
000002f0: 60bb 58bd e12b 77bd 353c abbd bbef 69bd
00000300: 22dc 523d 3725 8abc 3ee0 ceb7 0319 d0bd
00000310: e71f 84be d2f6 eebc e780 cbbd 78d7 a13e
00000320: d95c 8bbe a6ce 8b3e c0b2 6f3d 76f3 4a3e
00000330: 20e5 65bd 836b 86be a66b 1fbc ae25 26be
00000340: 51bc 8d3d e834 4f3e ba6b b73c baaf 0f3e
00000350: 9350 55be de70 49be 709e 1a3f 1acb 08be
00000360: 1694 03bc b38d f1bd 6f86 893e 5168 acbd
00000370: d945 3dbc f0fb a73d df9b e9bb 8e65 af3e
00000380: aa2b ba3e bc4a a13c 4ccb 96be 3fc8 48be
00000390: 072a 643e 01cd a5bd 5516 203e c979 37be
000003a0: 9c35 6f3e 9639 dbbe c45c 0bbe 83ae 173e
000003b0: 43b6 b1bc 992a 4ebe 82ad ab3d ff04 2ebe
000003c0: 2eb8 483e 27c9 cbbd 1e92 efbc d7ac 5cbd
000003d0: 6165 0bbf 0fe0 3c3e b920 dcbe 7d0c 36be
000003e0: b537 5f3d a396 21be 4e4f 383d 10ec 12be
000003f0: 05b7 503e d76d 1c3d 3e20 20be 63d4 db3c

head_task.bias f4 [11]
0.09005305 -0.095942505 0.118232004 0.19065471 0.12351281 0.019597368 0.17854932 -0.029156711
0.15133536 -0.0058038644 -0.07221677
00000000: bc6d b83d 817d c4bd 9f23 f23d fd3a 433e
00000010: 49f4 fc3d a98a a03c a2d5 363e 0eda eebc
00000020: a8f7 1a3e 582e bebb 63e6 93bd

head_move.weight f4 [8, 128]
-0.31414762 -0.22866714 -0.19265524 0.15178595 -0.20040956 0.24101862 0.103501506 -0.34016594
-0.05800219 0.1746416 0.37429297 -0.08044134 0.15514226 0.16890904 -0.46131763 -0.103666045
-0.033883877 -0.22139363 -0.09360897 0.12024449 -0.39509124 0.018370032 -0.08902822 0.11471699
-0.13788064 -0.13894854 0.010494506 0.1292425 -0.070001 -0.07712971 0.16711034 -0.04877065
0.025579164 0.017912881 0.08503518 0.008421666 0.12232581 0.10165166 -0.11294317 0.004967427
0.1035326 0.12829067 -0.14608754 0.7136875 0.015320554 0.114082806 -0.23633006 -0.066461116
-0.02650929 -0.07616873 0.14533204 -0.03954984 0.7499238 -0.050672166 -0.041805305 -0.123275764
0.13132279 0.14052549 0.14947158 -0.25071004 0.28428435 -0.22690229 -0.47497517 -0.055823375
0.17031528 0.0303925 0.0135970665 -0.08110262 0.21917158 -0.0476716 -0.24468718 -0.43814808
-0.28356096 -0.18511325 -0.14689183 -0.14011921 -0.14688283 -0.3104006 -0.1248792 0.29398352
0.13973077 -0.016366135 -0.03514027 -0.02779632 0.19218326 0.30413836 0.28336704 0.08811287
-0.15821578 0.13115485 -0.38094446 0.091159426 -0.27871662 0.069510445 0.34073108 0.18161488
0.29670537 0.44934115 0.36886135 -0.0065024593 -0.03481775 0.14119749 0.16882904 -0.12402812
0.3332706 -0.2897405 -0.1941386 -0.009257783 -0.031085024 0.35066608 0.030919615 0.75821406
0.16971496 0.17623712 0.968635 0.30243173 -0.21621126 0.096466884 0.18657465 -0.10336777
0.09474788 -0.16340391 -0.37038743 0.093153544 -0.044133663 0.006479292 -0.24252164 0.03442638
0.096525654 -0.09088095 -0.07358651 0.19576675 0.038382024 -0.36878952 0.10113112 -0.047204837
0.12738192 -0.07522735 -0.053132467 -0.2981134 0.2646118 0.040172398 0.123502865 -0.0688784
-0.11943167 0.43735167 -0.06276005 0.019018028 0.10212203 -0.25338492 0.2153973 0.5176434
0.16372122 0.013791479 -0.45787525 -0.034509335 0.005489355 -0.06124641 -0.18911032 0.065903
0.07975311 0.038076226 -0.14074925 -0.20081863 -0.15779467 -0.0491219 -0.12845762 -0.12894924
0.15485471 0.3123703 -0.06656002 -0.044473194 0.25062805 0.03335214 -0.01919536 -0.0145189855
-0.050810777 -0.15633091 0.0055913045 0.14521798 -0.1103353 -0.062494244 -0.19547617 -0.12113611
-0.100655146 -0.11235735 0.056278024 -0.062722646 0.002654331 0.11785269 0.122423954 0.112550914
0.08332393 0.10499587 0.0017111052 -0.272731 -0.13038127 0.070880435 0.19977598 -0.012224697
-0.0532829 0.032243524 -0.22631162 0.039283734 0.17910886 0.10293471 0.06443758 0.1279707
-0.12630585 0.1256244 0.021954976 0.107088335 0.008359504 0.30038905 0.05446598 -0.05595567
-0.19354329 -0.08360005 0.160783 -0.36956048 -0.0585287 0.13620995 -0.36263198 -0.042673748
-0.24731678 0.04364989 -0.18355693 -0.042706866 0.25240165 -0.012635257 0.01787979 0.02707712
0.07082636 -0.00049275684 -0.20629068 -0.07762394 -0.32501543 -0.02176127 0.10457258 0.037634738
0.044107273 -0.030180223 -0.05567679 -0.0884924 -0.048138347 -0.06579824 0.041789636 -0.025195288
0.3002414 -0.057918496 0.37827742 -0.21953548 -0.03981269 0.08728437 -0.00076389726 0.3662086
00000000: f5d7 a0be b827 6abe 6a47 45be c76d 1b3e
00000010: 2a38 4dbe 96cd 763e 99f8 d33d 3b2a aebe
00000020: b493 6dbd 3fd5 323e 54a3 bf3e 6ebe a4bd
00000030: 9ddd 1e3e 7ef6 2c3e d331 ecbe dd4e d4bd
00000040: d2c9 0abd 03b5 62be 0fb6 bfbd be42 f63d
00000050: 6649 cabe c07c 963c 6d54 b6bd bef0 ea3d
00000060: 9530 0dbe 8748 0ebe 26f1 2b3c 2558 043e
00000070: af5c 8fbd 2ef6 9dbd f91e 2b3e bcc3 47bd
00000080: 658b d13c 09be 923c ed26 ae3d 07fb 093c
00000090: f485 fa3d bf2e d03d c04e e7bd ccc5 a23b
000000a0: e608 d43d a15e 033e f997 15be 39b4 363f
000000b0: 1003 7b3c 3fa4 e93d 8200 72be c41c 88bd
000000c0: 032a d9bc 5afe 9bbd ecd1 143e 03ff 21bd
000000d0: 02fb 3f3f 9e8d 4fbd 0a3c 2bbd 0178 fcbd
000000e0: 7b79 063e eae5 0f3e 140f 193e 115d 80be
000000f0: b88d 913e 1359 68be f22f f3be 0da7 64bd
00000100: 2167 2e3e b1f9 f83c 3bc6 5e3c 2119 a6bd
00000110: 846e 603e 4c43 43bd 478f 7abe f254 e0be
00000120: e72e 91be 548e 3dbe d06a 16be 697b 0fbe
00000130: 7468 16be d4ec 9ebe aac0 ffbd 0285 963e
00000140: 9515 0f3e 4612 86bc 3eef 0fbd 1cb5 e3bc
00000150: b0cb 443e 06b8 9b3e 7c15 913e 8574 b43d
00000160: 5103 22be 754d 063e 270b c3be cbb1 ba3d
00000170: f2b3 8ebe 7e5b 8e3d 4e74 ae3e 40f9 393e
00000180: c4e9 973e 0b10 e63e 65db bc3e 9512 d5bb
00000190: 0f9d 0ebd 1396 103e 85e1 2c3e 7402 febd
000001a0: 72a2 aa3e de58 94be 45cc 46be f5ad 17bc
000001b0: 05a6 febc 818a b33e 224b fd3c 511a 423f
000001c0: c2c9 2d3e 8177 343e 77f8 773f 55d8 9a3e
000001d0: 7c66 5dbe 6e90 c53d 6d0d 3f3e 7bb2 d3bd
000001e0: 2d0b c23d 5b53 27be 6ca3 bdbe 49c7 be3d
000001f0: 80c5 34bd 3e50 d43b 9857 78be ad02 0d3d
00000200: 3eaf c53d cb1f babd 86b4 96bd 1477 483e
00000210: 7836 1d3d fbd1 bcbe d51d cf3d dc59 41bd
00000220: 6870 023e cc10 9abd 6ea1 59bd 52a2 98be
00000230: 337b 873e d08b 243d 12ef fc3d 1e10 8dbd
00000240: 9798 f4bd 8fec df3e 5788 80bd b2cb 9b3c
00000250: 5b25 d13d abbb 81be 1c91 5c3e 4784 043f
00000260: 89a6 273e a8f5 613c a06e eabe a959 0dbd
00000270: 0ce0 b33b 84dd 7abd 23a6 41be 27f8 863d
00000280: 9955 a33d d1f5 1b3d 9220 10be 66a3 4dbe
00000290: ed94 21be 0c34 49bd 658a 03be 450b 04be
000002a0: 3c92 1e3e 00ef 9f3e 9f50 88bd 8629 36bd
000002b0: 5252 803e 419c 083d 963f 9dbc 0ae1 6dbc
000002c0: f61e 50bd 3615 20be 4337 b73b 06b4 143e
000002d0: 79f7 e1bd f7f9 7fbd e82a 48be 3516 f8bd
000002e0: 4924 cebd 9c1b e6bd c983 663d bb74 80bd
000002f0: 49f4 2d3b c05c f13d 69b9 fa3d 1881 e63d
00000300: bda5 aa3d 1308 d73d 2a47 e03a 66a3 8bbe
00000310: ab82 05be c329 913d 1392 4c3e 184a 48bc
00000320: 2c3f 5abd c911 043d 3cbe 67be fbe7 203d
00000330: 5068 373e 6fcf d23d daf7 833d c00a 033e
00000340: 5256 01be afa3 003e ecda b33c 2151 db3d
00000350: 4df6 083c 98cc 993e b817 5f3d c631 65bd
00000360: 3630 46be 8136 abbd 4ca4 243e 0837 bdbe
00000370: cabb 6fbd 9f7a 0b3e e6aa b9be abca 2ebd
00000380: 9c40 7dbe 3aca 323d 59f6 3bbe 65ed 2ebd
00000390: ca3a 813e 1c04 4fbc a378 923c d6d0 dd3c
000003a0: 690d 913d 5a2c 01ba dd3d 53be 4df9 9ebd
000003b0: 6c68 a6be b144 b2bc 262a d63d e226 1a3d
000003c0: d4a9 343d 843c f7bc 590d 64bd 813b b5bd
000003d0: b72c 45bd 3ac1 86bd 9c2b 2b3d 5966 cebc
000003e0: 3eb9 993e f23b 6dbd 94ad c13e e9cd 60be
000003f0: a212 23bd 26c2 b23d 4740 48ba b27f bb3e

head_move.bias f4 [8]
-0.216467 0.030282604 0.0720596 0.14484988 0.102576986 -0.913296 -1.0890328 -1.0599219
00000000: 86a9 5dbe 3913 f83c fc93 933d 8753 143e
00000010: e213 d23d c4cd 69bf 6d65 8bbf 85ab 87bf

head_comm.weight f4 [8, 128]
-0.098889425 0.0016983193 -0.08054473 -0.009763362 -0.09987372 -0.34054005 0.36255902 -0.114854716
0.08640873 0.8887662 -0.123145595 -0.19846141 -0.021462053 -0.1187146 0.0319352 -0.016396483
-0.12157079 0.3298749 0.15604806 -0.0042119836 -0.0970879 -0.14743365 -0.2923401 -0.062853254
0.22701323 0.10850725 -0.54537666 0.04636951 -0.047003116 -0.19613239 -0.2876677 -0.12751344
-0.21617532 -0.19955863 0.32685208 0.0058897217 -0.06859864 0.77514255 -0.26359594 0.3311466
-0.24041632 0.47833192 -0.15159357 -0.25758684 0.16440766 -0.31621423 -0.063115634 -0.05452951
-0.25772983 0.07800166 0.009864123 -0.008010904 -0.15548003 -0.08062848 0.077411845 -0.07508707
0.07636358 -0.061192732 0.07222673 -0.030612338 0.3776935 -0.15816338 0.011285419 -0.26083282
-0.017272813 -0.47988614 -0.06566607 -0.5259672 0.13505746 0.16256274 -0.2960559 0.039363347
0.15593715 0.15669568 0.09456679 -0.08801881 -0.14089909 0.2195025 0.11030665 0.1977731
0.43807098 0.13316125 0.13650471 0.028240046 0.0102473665 -0.19926718 -0.06423913 -0.1641795
-0.19764045 -0.11406619 -0.30434933 -0.440818 -0.051933974 -0.7394395 0.15067513 -0.013284441
-0.17936386 -0.059619818 0.22810078 -0.13366199 0.33366463 0.4791824 -0.16376947 -0.15330076
-0.016183292 0.07733552 -0.16455172 0.23543029 -0.1880107 0.15879966 0.7416551 0.06616754
0.053936195 -0.11774204 0.019185733 0.23243584 0.20895955 -0.1267925 -0.11619792 0.29369146
-0.00537987 0.16543297 -0.014599451 -0.048116967 0.050285432 0.12004421 0.020672161 -0.46606272
0.0073218625 0.04630913 0.062626965 -0.047644753 0.15205881 0.07992071 -0.18844517 0.095195375
-0.050817594 -0.87480205 -0.028604163 0.17353459 -0.0017219584 -0.033156708 0.084426574 0.1922643
-0.0792071 -0.07310272 -0.12485808 0.115948215 0.070770964 0.05886454 0.37833482 0.13206911
-0.1794674 -0.020748949 0.48694003 -0.14260757 -0.086959146 0.23809443 0.30060425 -0.078565784
0.11873671 0.11909916 -0.24392566 -0.08642167 -0.050079357 -0.9487095 0.26876676 -0.24283668
0.11147162 -0.50823927 -0.00072617206 -0.119234495 -0.11661174 0.28101134 0.05534413 -0.1552638
0.24608026 0.08623873 -0.13654555 0.104235806 -0.1967588 0.06394834 0.12183252 0.13494624
-0.1911123 0.004855644 -0.112535715 0.089669906 -0.3994988 0.32038796 0.13822779 0.22363862
-0.008182099 0.52257496 -0.049746778 0.54291135 -0.24138074 -0.019115947 0.24140303 0.049641762
0.11607863 0.039182797 -0.1698339 0.26185772 0.20049869 -0.023294646 0.12685792 -0.2817841
-0.48037246 -0.14127928 0.07008562 0.07177569 -0.08939432 0.0061085704 0.11258298 0.0050876588
0.07224467 0.011050443 0.45512778 0.37372088 0.25206393 0.56837904 -0.37150812 -0.07953059
-0.07187191 -0.04669849 -0.21658623 0.022030631 -0.37397575 -0.370716 0.05083558 0.18571159
-0.20305924 0.0725074 0.2369963 -0.1221808 0.20280293 -0.0069198795 -0.8849117 -0.11248742
-0.17742799 -0.07851592 -0.11176263 -0.27692676 -0.11498682 0.19962998 0.12983395 -0.19133124
-0.05749744 -0.15285714 0.2830446 -0.12887935 -0.009936366 0.029006237 -0.016892552 0.36511356
00000000: 8a86 cabd 249a de3a a3f4 a4bd 82f6 1fbc
00000010: 988a ccbd 445b aebe 56a1 b93e f338 ebbd
00000020: 0ff7 b03d 2f86 633f c233 fcbd 7839 4bbe
00000030: 30d1 afbc a420 f3bd 7cce 023d eb51 86bc
00000040: 1bfa f8bd 5de5 a83e 10cb 1f3e ae04 8abb
00000050: 05d6 c6bd d9f8 16be 9aad 95be 35b9 80bd
00000060: 2876 683e 0d39 de3d ce9d 0bbf f5ed 3d3d
00000070: 5786 40bd eed6 48be 2e49 93be e292 02be
00000080: 105d 5dbe 1959 4cbe 2859 a73e 91fe c03b
00000090: 727d 8cbd be6f 463f 0cf6 86be 0c8c a93e
000000a0: b22f 76be ece7 f43e 583b 1bbe 6ce2 83be
000000b0: 7b5a 283e d5e6 a1be c542 81bd 565a 5fbd
000000c0: 2af5 83be 56bf 9f3d 219d 213c 2b40 03bc
000000d0: 2836 1fbe 8b20 a5bd 1a8a 9e3d 40c7 99bd
000000e0: 8264 9c3d 3ba5 7abd 9ceb 933d bac6 fabc
000000f0: 0b61 c13e 95f5 21be 7ae6 383c e18b 85be
00000100: b77f 8dbc a3b3 f5be ef7b 86bd c9a5 06bf
00000110: 814c 0a3e d976 263e a494 97be 763b 213d
00000120: fdad 1f3e d574 203e 3cac c13d 3543 b4bd
00000130: da47 10be 43c5 603e 74e8 e13d 0885 4a3e
00000140: d74a e03e 6c5b 083e e4c7 0b3e ab57 e73c
00000150: 92e4 273c b20c 4cbe ce8f 83bd ac1e 28be
00000160: 4262 4abe 899b e9bd add3 9bbe e6b2 e1be
00000170: b8b8 54bd e84b 3dbf 954a 1a3e fca6 59bc
00000180: 29ab 37be e933 74bd 4093 693e b0de 08be
00000190: 17d6 aa3e 6557 f53e 2fb3 27be e0fa 1cbe
000001a0: d392 84bc 1662 9e3d 3f80 28be a314 713e
000001b0: e085 40be 619c 223e 1cdd 3d3f d982 873d
000001c0: 33ec 5c3d bd22 f1bd 662b 9d3c a903 6e3e
000001d0: 7ef9 553e e5d5 01be 2df9 edbd ba5e 963e
000001e0: 9f49 b0bb 4367 293e 8932 6fbc 4c16 45bd
000001f0: 19f8 4d3d bdd9 f53d aa58 a93c c69f eebe
00000200: 3cec ef3b a4ae 3d3d 9142 803d 2527 43bd
00000210: 4eb5 1b3e 78ad a33d c5f7 40be cbf5 c23d
00000220: 1c26 50bd 07f3 5fbf 4753 eabc 0db3 313e
00000230: 56b3 e1ba 54cf 07bd d7e7 ac3d efe0 443e
00000240: 5537 a2bd e1b6 95bd 98b5 ffbd 4276 ed3d
00000250: 5ef0 903d f21b 713d 1ab5 c13e 203d 073e
00000260: 4dc6 37be b3f9 a9bc 3450 f93e b807 12be
00000270: a317 b2bd 07cf 733e cde8 993e 19e7 a0bd
00000280: 3b2c f33d 43ea f33d a6c7 79be d8fd b0bd
00000290: 0320 4dbd a0de 72bf cc9b 893e 2eaa 78be
000002a0: 3c4b e43d f81b 02bf 955c 3eba 3731 f4bd
000002b0: 23d2 eebd b8e0 8f3e 87b0 623d 79fd 1ebe
000002c0: 77fc 7b3e ee9d b03d 99d2 0bbe 9579 d53d
000002d0: 247b 49be 59f7 823d 5483 f93d 592f 0a3e
000002e0: f1b2 43be 181c 9f3b 2079 e6bd dba4 b73d
000002f0: 1b8b ccbe e409 a43e 968b 0d3e 8601 653e
00000300: 360e 06bc 79c7 053f 47c3 4bbd 3dfc 0a3f
00000310: 832c 77be 0c99 9cbc 5b32 773e 2955 4b3d
00000320: a2ba ed3d 247e 203d f0e8 2dbe 3712 863e
00000330: 874f 4d3e 6ad4 bebc 0be7 013e 0146 90be
00000340: 61f3 f5be 84ab 10be 0d89 8f3d 22ff 923d
00000350: 5f14 b7bd 672a c83b e891 e63d 60b6 a63b
00000360: 03f5 933d eb0c 353c 8206 e93e 5858 bf3e
00000370: 860e 813e 4a81 113f 5036 bebe efe0 a2bd
00000380: 9431 93bd ea46 3fbd c8c8 5dbe 9579 b43c
00000390: c079 bfbe 7dce bdbe f838 503d 2e2b 3e3e
000003a0: c3ee 4fbe c27e 943d 28af 723e ed39 fabd
000003b0: 92ab 4f3e 28c0 e2bb 9389 62bf ce5f e6bd
000003c0: afaf 35be f4cc a0bd cee3 e4bd 58c9 8dbe
000003d0: 367e ebbd cd6b 4c3e 31f3 043e 56ec 43be
000003e0: 7082 6bbd 9586 1cbe 39eb 903e f3f8 03be
000003f0: 24cc 22bc 7d9e ed3c 4062 8abc 2af0 ba3e

head_comm.bias f4 [8]
0.0673166 0.22366568 -0.37939718 -0.37186193 -0.35200426 -0.44918773 -0.40793842 -0.41467547
00000000: 49dd 893d 9e08 653e 5940 c2be b064 bebe
00000010: e739 b4be effb e5be 4edd d0be 5850 d4be

head_mode.weight f4 [2, 128]
-0.1143627 -0.077206604 0.015914261 0.012819193 -0.13946803 -0.26394856 0.2450673 -0.034834884
0.10544172 0.8804405 -0.0071857274 -0.19764578 0.0010104529 0.019059896 -0.07833127 -0.025203623
-0.08344021 0.2560325 0.1455107 -0.03898219 0.0026736478 -0.0826352 -0.3461432 -0.08602841
0.112691455 0.028213276 -0.57174283 0.15633681 0.09627096 -0.21237287 -0.29716823 0.006360214
-0.21271488 -0.07022056 0.21694602 0.066515975 0.039828338 0.92141837 -0.31082493 0.18581744
-0.15400958 0.44535017 -0.12799513 -0.018760966 0.14073253 -0.23064461 -0.11221436 0.104998514
-0.20751218 -0.030821979 0.07114498 -0.0038732395 -0.034218363 0.017755408 0.008118938 -0.08946909
0.14341845 -0.16739106 0.10955094 -0.037465364 0.3365536 -0.33043128 -0.020196686 -0.25734222
-0.0026112848 -0.45528466 0.02241218 -0.48788998 0.2212016 0.11367883 -0.29083195 -0.07357261
0.016273819 0.06732334 0.13791503 -0.046309333 -0.19129571 0.10188633 -0.014118121 0.18055211
0.4644836 0.08849106 0.021169424 -0.05052443 0.17225459 -0.040553052 -0.0846577 -0.042997673
-0.1003029 -0.112988785 -0.3562625 -0.3543247 -0.19649039 -0.6373074 0.26272327 0.13676447
-0.010891341 -0.07529457 0.20995115 -0.085761614 0.37742636 0.4479671 -0.105456114 -0.19487487
0.11526101 0.02662589 -0.20889819 0.20988673 -0.19614777 0.13789375 0.87458205 0.07358596
0.025510475 -0.025656505 0.084720634 0.2458941 0.17490605 -0.17296825 -0.09410144 0.2647631
0.064285584 0.17369905 -0.16736662 0.037676148 0.12531786 0.06736304 0.033025965 -0.43814856
0.1352765 -0.020821646 0.13132955 -0.06919979 0.20467322 0.28097704 -0.28419924 0.11138633
-0.07071369 -0.80382454 0.05192211 0.16337089 0.031135006 0.026376909 0.023092363 0.14895712
-0.050379988 -0.16228719 -0.062663265 0.04167891 0.14248244 0.18083929 0.23834498 0.10728491
-0.1675954 -0.10583539 0.449441 -0.14787455 -0.053351745 0.26902744 0.31938246 0.034008976
0.18409604 0.18425635 -0.30666754 -0.052436404 -0.029394198 -0.91203284 0.30852735 -0.16588372
0.1833057 -0.43771684 0.098245695 0.04228905 -0.2177121 0.36229077 0.041246094 0.06293581
0.27493674 0.045736585 -0.043046083 0.058527034 -0.11452276 0.10754172 0.048328083 0.086043805
-0.13781227 0.10753644 -0.07345325 0.0464226 -0.37101215 0.20391323 0.13771829 0.26153827
0.03494688 0.43254578 -0.056461006 0.4869157 -0.2496093 -0.13775714 0.29004556 0.016656904
0.015998181 -0.10102679 0.002860674 0.19375534 0.1510678 -0.14018646 -0.0016096748 -0.26511303
-0.437411 -0.17474432 -0.033464093 -0.014276194 -0.018352024 0.18600184 0.05890376 0.10494203
0.11173863 0.053406667 0.45134416 0.42356429 0.14612484 0.69005054 -0.21103936 -0.103662446
-0.014371901 -0.033449635 -0.27134463 0.06981267 -0.35579094 -0.45024896 0.014014023 0.14215563
-0.09074229 -0.082025684 0.2643564 -0.09052264 0.20162356 -0.13022606 -0.7915163 -0.089993306
-0.117597185 0.16757515 -0.025288632 -0.25141087 -0.08453334 0.15228418 0.19300614 -0.15990345
0.067660674 -0.09308459 0.1512742 -0.116241604 -0.025124144 -0.040088683 -0.04926816 0.34784743
00000000: fe36 eabd 7f1e 9ebd a05e 823c 9807 523c
00000010: b5d0 0ebe 4424 87be ecf2 7a3e 06af 0ebd
00000020: d4f1 d73d 8c64 613f 4076 ebbb a863 4abe
00000030: 2c71 843a 8023 9c3c 256c a0bd d477 cebc
00000040: b3e2 aabd b116 833e c200 153e caab 1fbd
00000050: 5e38 2f3b a53c a9bd ae39 b1be aa2f b0bd
00000060: c7ca e63d 871f e73c bd5d 12bf c216 203e
00000070: b629 c53d 4678 59be 6f26 98be 5869 d03b
00000080: eed1 59be cccf 8fbd 1927 5e3e 8739 883d
00000090: 0a23 233d 13e2 6b3f 7224 9fbe ed46 3e3e
000000a0: b0b4 1dbe f004 e43e 2811 03be 99b0 99bc
000000b0: 301c 103e 1a2e 6cbe a4d0 e5bd 7609 d73d
000000c0: 137e 54be 607e fcbc 76b4 913d 2dd6 7dbb
000000d0: 8e28 0cbd ca73 913c 4b05 053c 923b b7bd
000000e0: 49dc 123e 9068 2bbe 3e5c e03d 4875 19bd
000000f0: c150 ac3e 4a2e a9be 8573 a5bc 5cc2 83be
00000100: 1722 2bbb 121b e9be c099 b73c b7cc f9be
00000110: ac82 623e 72d0 e83d ede7 94be 3dad 96bd
00000120: ac50 853c d2e0 893d 9939 0d3e dbae 3dbd
00000130: 06e3 43be c8a9 d03d b14f 67bc a7e2 383e
00000140: cbd0 ed3e cd3a b53d 806b ad3c b4f2 4ebd
00000150: 8263 303e f51a 26bd 0461 adbd 541e 30bd
00000160: 9b6b cdbd aa66 e7bd 0a68 b6be 0c6a b5be
00000170: c734 49be 9426 23bf aa83 863e fc0b 0c3e
00000180: 9871 32bc 0a34 9abd 6ffd 563e c9a3 afbd
00000190: 073e c13e f25b e53e 60f9 d7bd 478d 47be
000001a0: f70d ec3d 8a1e da3c 68e9 55be 8cec 563e
000001b0: f6da 48be 0534 0d3e 9ce4 5f3f 3cb4 963d
000001c0: 58fb d03c 972d d2bc 0382 ad3d aacb 7b3e
000001d0: 921a 333e 971e 31be 41b8 c0bd 078f 873e
000001e0: 29a8 833d 2ade 313e 2862 2bbe 4e52 1a3d
000001f0: 5353 003e a2f5 893d 3c46 073d 0255 e0be
00000200: ec85 0a3e 2892 aabc 417b 063e 9fb8 8dbd
00000210: db95 513e 39dc 8f3e 9082 91be 841e e43d
00000220: 57d2 90bd 72c7 4dbf 47ac 543d b34a 273e
00000230: d70e ff3c 6314 d83c 322c bd3c 3788 183e
00000240: 3f5b 4ebd 9d2e 26be 9955 80bd 81b7 2a3d
00000250: ebe6 113e ef2d 393e b510 743e 31b8 db3d
00000260: 219e 2bbe 3ac0 d8bd 211d e63e 6d6c 17be
00000270: 5c87 5abd f7bd 893e 1986 a33e ff4c 0b3d
00000280: ac83 3c3e b2ad 3c3e 8703 9dbe 8ec7 56bd
00000290: 1acc f0bc fc7a 69bf 4cf7 9d3e 6cdd 29be
000002a0: 7db4 3b3e 6c1c e0be 0a35 c93d 4837 2d3d
000002b0: ecef 5ebe 2d7e b93e aaf1 283d 7de4 803d
000002c0: 82c4 8c3e 4956 3b3d 1751 30bd 0bba 6f3d
000002d0: e98a eabd d53e dc3d abf3 453d bc37 b03d
000002e0: a91e 0dbe 113c dc3d a86e 96bd a025 3e3d
000002f0: 4ef5 bdbe a1ce 503e 0606 0d3e 58e8 853e
00000300: 7624 0f3d a476 dd3e a843 67bd 044d f93e
00000310: 9599 7fbe 3510 0dbe da80 943e 0f74 883c
00000320: 9e0e 833c 22e7 cebd 257a 3b3b cd67 463e
00000330: 84b1 1a3e 0a8d 0fbe b9fb d2ba e5bc 87be
00000340: 56f4 dfbe 2df0 32be a511 09bd b3e6 69bc
00000350: fc56 96bc 4477 3e3e 1245 713d d9eb d63d
00000360: 39d7 e43d f3c0 5a3d 9516 e73e 6bdd d83e
00000370: c0a1 153e 27a7 303f b41a 58be fa4c d4bd
00000380: 1f78 6bbc 7c02 09bd afed 8abe f2f9 8e3d
00000390: 3b2a b6be 0887 e6be 139b 653c 3f91 113e
000003a0: 18d7 b9bd 15fd a7bd b959 873e ef63 b9bd
000003b0: 6876 4e3e fb59 05be d0a0 4abf 694e b8bd
000003c0: cbd6 f0bd d298 2b3e 1b2a cfbc edb8 80be
000003d0: d11f adbd 62f0 1b3e 67a3 453e bbbd 23be
000003e0: ae91 8a3d 22a3 bebd a0e7 1a3e 1410 eebd
000003f0: 26d1 cdbc 0834 24bd 69cd 49bd 0f19 b23e

head_mode.bias f4 [2]
-0.012504084 0.023456454
00000000: eedd 4cbc c027 c03c
