outputs/checkpoints/mappo_routing_only.pt (torch, 481269 bytes, 17 tensors)

net.0.weight f4 [128, 44]
00000000: d81e 593f 5a41 7dbe e8af 273d 3033 d83e
00000010: 7a53 1abe 1cc3 ce3b 1fd1 273e 3752 a4be
00000020: 579f 82bc a12d 3e3f 58d1 c13d 0d5f d03e
00000030: 1d13 04bd f053 cc3d da4a 0d3e 162a cb3d
00000040: ff0b 72bc aac2 923e 2662 c5bd f60c f33b
00000050: 17d3 bcbe 34a2 8abd aa00 a9bd b667 c43d
00000060: 4f87 363c 6fb9 11be dbb3 0e3f 9f9a 48be
00000070: 35c2 6e3e 052c 303d 6638 1a3e c615 f6bd
00000080: 2e1e be3d 3f00 963c 8e61 e5bd b179 babe
00000090: 9ac1 c33e 4ff2 3cbe 2f11 d73e 2391 c3bc
000000a0: a404 8a3e 6269 87bd e834 50bd ec4e e33d
000000b0: e329 1abe 5202 1dbe 8781 503e 4aa0 d3be
000000c0: 5b7a 2a3f 6473 843c 367c 58be 8086 32bf
000000d0: db03 a4be bc08 0b3e a754 79be fb4a abbd
000000e0: a71f 50be 39b2 95bd f0f3 f3bc 89f3 603e
000000f0: daa1 61be 16f7 b5bd f6a6 103d a350 9f3e
00000100: 74cf 4c3e d37e 063d ba5e 7cbd 5a07 27bd
00000110: 520e 1fbe 72e7 eb3d 450c bf3e 01cc 2fbe
00000120: baab 9fbd 4504 9dbd e3cf 5ebe dc18 cfbd
00000130: 6061 69bd 8232 2ebd 13f6 8f3c 0d67 b13e
00000140: 0159 c33d 5a60 40bc ace5 a73e d6b3 033e
00000150: f305 ef3e 9c63 1d3c ced8 0d3e 1e97 77bc
00000160: e14e dbbd e6ca 55be 2d11 c13d 9f60 153f
00000170: c821 87bf 5e2f 043e eea5 ecbe c982 f03b
00000180: e60e 013e d7e1 523e d569 e3bd f6d2 f93d
00000190: 81e1 79bd 86c4 3c3b 98c7 52bc 86e5 df3d
000001a0: b6e8 f1bd 3a26 0dbe 5d79 08be 3811 5dbe
000001b0: efea 2cbe 9cbe df3c 97e5 523d efb8 273d
000001c0: f095 f0bd 5eb5 93be e041 04be f82c 513e
000001d0: 98d2 f73d 28a8 1dbd 5113 5f3d 45fc 213e
000001e0: 7760 8ebb 024c debd 6ed5 52be 0008 9fbd
000001f0: 4a6a 4c3d 8d36 753e 73b7 fb3c 4aec bc3e
00000200: da53 a1bd fc2c 343d e7b9 00bd 4eae 363d
00000210: 6b41 1d3f 980e 353d dd7f 45bd e4c8 dcbe
00000220: 9cf0 bb3e 85ce f93d 89f3 403f 1c1d a0be
00000230: 9617 b4be 9c60 74b9 a76e ccbc bb4b 9e3b
00000240: 692f 0fbe cdc0 f03d 55f6 be3c 30b1 9b3d
00000250: a62a 02bd e434 dc3e ca04 0c3d 645e fd3d
00000260: f5f0 4bbc 37f9 133e 750b ba3d 18b4 68bd
00000270: 7fc6 93bd 93b5 223e 5569 273e d88f 34be
00000280: 7bdc c13e e414 77be 3fbe d93e 48be 93bd
00000290: c8c6 54bd d361 2d3e 4726 2b3e d450 9fbe
000002a0: f73f b73c 50cd c9be f127 6c3d 862a 77be
000002b0: 1cd7 623e cb60 d2bd 9d15 55be 1ecf e6bb
000002c0: 118f 8e3e 83ca a5bd 7c27 40be 8205 133f
000002d0: a78b 67bf 55cb 0bbd 9131 aabe be94 8cbd
000002e0: a156 a33d ac4a 343d 9739 2ebc dd45 23be
000002f0: b000 91bd bac7 ff3c 245d fbbd 1da3 0f3e
00000300: a12b f43d 89c4 e1bc 82e1 a3bd f959 7e3d
00000310: 09bd 43be 27fc f4bd 1366 6e3d 4393 59be
00000320: 4c3c 05be 8238 57bc 9316 f23d 98c5 70bc
00000330: 6695 d63d f560 8abe 810c c23d 5296 c83d
00000340: e492 2bbe c369 1ebe 958f b2bd 94cd eebd
00000350: 9dc8 aa3d 5c1b 143e ebc1 1a3c ef05 8dbb
00000360: ccb8 bcbc 4a6c 2d39 422f 95bc 1980 c3bb
00000370: 412f 94be 462d 14bf 87eb e4be 570f 863e
00000380: ec29 643e c01f a3bc c489 98bd 18c6 cbbe
00000390: c787 d33d 2956 973d 08b1 fa3c 2ecd 04bd
000003a0: 6afc bd3d d644 803e dccb 423e c9eb 883e
000003b0: c1fe b43e 2918 91be daf8 49bd d022 5c3d
000003c0: 4adb 25bd a685 6abe f3eb 8bbd 6006 53bd
000003d0: 29c1 b7bd 0fd0 5f3e a99c 883c 4870 aa3d
000003e0: c5d9 88bd 35f9 abbe 7362 3b3d 9cdb 9bbc
000003f0: 9b72 e8bd f7ae 03be 613c bebd a777 72be
0.8481269 -0.24731961 0.04093924 0.42226553 -0.15070906 0.00630988 0.16388367 -0.32093975
-0.01594512 0.74288374 0.09463757 0.40697518 -0.03224479 0.09976947 0.13798085 0.09920137
-0.014773368 0.28664142 -0.09637861 0.0074173165 -0.368798 -0.06769219 -0.0825208 0.09590094
0.0111406585 -0.14230894 0.5574319 -0.19590233 0.23316272 0.04301073 0.15060577 -0.12015872
0.092831 0.018310664 -0.11200248 -0.36420968 0.38233644 -0.18451808 0.42005298 -0.023872918
0.26956666 -0.06611897 -0.050831705 0.110990375 -0.15055041 -0.15332916 0.20361911 -0.41333228
0.6659295 0.016168304 -0.21141133 -0.6973648 -0.3203419 0.1357755 -0.24348699 -0.08363911
-0.20324574 -0.07309384 -0.029779404 0.21967901 -0.22034398 -0.088850185 0.035315476 0.31116208
0.20001012 0.032835793 -0.061613776 -0.040778495 -0.15532807 0.11518754 0.37314048 -0.17167665
-0.07796426 -0.0766683 -0.2175899 -0.101121634 -0.05697763 -0.042528637 0.017573392 0.34648934
0.095384605 -0.011741722 0.32792413 0.1286157 0.46684226 0.009606268 0.13852236 -0.015111713
-0.10708404 -0.20878181 0.09427104 0.5835056 -1.0557184 0.12908694 -0.46220344 0.0073398096
0.1260334 0.20593964 -0.1110417 0.12198441 -0.061006073 0.002880366 -0.01286497 0.1093245
-0.11811964 -0.13784114 -0.13327546 -0.215886 -0.16886495 0.02731257 0.051488485 0.04094785
-0.11747348 -0.2884931 -0.12915754 0.2042731 0.121007144 -0.038490444 0.05446178 0.1581889
-0.0043449956 -0.10854341 -0.2058923 -0.07765198 0.049906053 0.2394659 0.030727124 0.36899024
-0.078773215 0.043988213 -0.03142729 0.044599824 0.61427945 0.04420337 -0.048217643 -0.43122017
0.36707008 0.121975936 0.75371605 -0.3127221 -0.35174245 -0.00023305643 -0.024955107 0.004830805
-0.1398293 0.11755524 0.02331082 0.07602155 -0.031778954 0.43009102 0.034184255 0.12371519
-0.012447585 0.14450537 0.090842165 -0.056812376 -0.072155945 0.15889578 0.16348775 -0.17632997
0.37863526 -0.24129063 0.4252796 -0.07214028 -0.051947385 0.16931848 0.1671382 -0.31116354
0.022369368 -0.39414454 0.05765528 -0.24137315 0.2215237 -0.10272368 -0.20809026 -0.0070437333
0.27843526 -0.08095267 -0.18765062 0.5743028 -0.9044747 -0.03412946 -0.3324094 -0.06864308
0.079755075 0.044016525 -0.010633848 -0.1594462 -0.07080209 0.031223167 -0.122736245 0.14027067
0.11922384 -0.027559536 -0.080019966 0.062097523 -0.1911508 -0.11962157 0.058202814 -0.21247582
-0.13011283 -0.013136031 0.11820712 -0.0146955475 0.10477714 -0.27027097 0.09475041 0.09794296
-0.16755253 -0.15470032 -0.08718792 -0.11660305 0.08339045 0.14463562 0.009445648 -0.004303686
-0.023037337 0.00016538906 -0.01821101 -0.005966198 -0.28942302 -0.5788158 -0.44710943 0.26183578
0.22281617 -0.0199126 -0.07448152 -0.3979957 0.10328632 0.073894806 0.030601993 -0.032422237
0.0927666 0.25052518 0.19023079 0.2674239 0.35350612 -0.28338745 -0.04930959 0.053744137
-0.040492333 -0.22902545 -0.06832113 -0.05151975 -0.08972389 0.21856712 0.016676264 0.08322197
-0.06682161 -0.33588567 0.045748185 -0.019025616 -0.11349984 -0.12859713 -0.0928886 -0.23678456

net.0.bias f4 [128]
00000000: 8433 803d 1b39 a8bc d17a 17be 0e28 57bd
00000010: b76c 9c3c 6711 92be 6a97 b3bc 649e 173e
00000020: df0c 263d 5fa4 9c3d e611 67be 7092 2e3d
00000030: 90c6 75bd 019d e93d ac06 aebd b3d1 3e3b
00000040: 1046 e23d a298 4abe 0b48 0abd 85f6 44be
00000050: 4ded babd 4997 593d 6fc7 f7bc 8355 cd3b
00000060: 2836 f9bc e4ff d5bd 61fe 45be 2ba7 7e3c
00000070: 4478 cc3c 04eb 58be f3c3 17bd 1dd3 c63c
00000080: 3bb0 a7bd d5a1 f2bd c537 9e3d e87c 74bd
00000090: 6a79 e83d 84c2 e0bc cb34 013d 44d9 c9bd
000000a0: da25 c23d e93b 9f3d 1986 bb3d 9b87 15bd
000000b0: a55f 823d 6f9c 90bd 583e 803e c343 07bc
000000c0: 1ed9 873c 4326 4f3a e402 a2bd 28bf 9f3d
000000d0: 83a3 0a3e 15c0 133e 8e9b f23d 31bb 023e
000000e0: 1d5f 6d3d ea51 be3d 9a34 a2bd 9b6b 0fbd
000000f0: 1ee1 c53d 4ed4 75be e7e7 7b3d 0d90 8cbd
00000100: 5193 b53d ed2b 2d3e e2bc 09be 5bfa 2ebe
00000110: dc28 01be 671a 80bd 73c1 9ebd ae35 20be
00000120: c71e 66bd 6d76 87bd 2033 96bd 9f03 f1bd
00000130: 0c43 0f3c 135f 31bd e840 30bb b8a8 40bd
00000140: f38e 653d b5c5 0e3e d253 223e 2101 fc3c
00000150: 56d9 c4bd 4dda cb3d b87a ee3d d17f 66bd
00000160: 04cb ccbd e696 50be 8457 0cbe 9912 833e
00000170: b71f ccbd 9fff f53d c787 7d3d b076 0e3e
00000180: 4ff3 d0bd 1ec8 653d 9da5 1b3d 6c9e a5bb
00000190: 9288 eabd 5e44 3cbe ce85 98bd f523 9c3d
000001a0: c83d e33d 6cd6 08be 6814 613c f309 723d
000001b0: f490 b23d 0b48 82bc a7ea fe3d 89cb 49be
000001c0: 76ef 703d 1d25 8ebd ed0c 05bc 5391 99bd
000001d0: a539 623d cdad 533d 9600 8fbd 5b3f 8bba
000001e0: 589f 7b3b 3c40 83bd 0655 473e b02c 49be
000001f0: b82a 92bc c172 383d 5401 653d 2e2f a1bd
0.06259826 -0.020535043 -0.14792944 -0.052528434 0.019094808 -0.28528902 -0.021922786 0.14806515
0.04053962 0.07648539 -0.22565421 0.042620122 -0.060003817 0.11406899 -0.08497366 0.002911669
0.110485196 -0.19784787 -0.03376011 -0.19234665 -0.09127293 0.053122792 -0.030246465 0.0062662973
-0.030421332 -0.10449198 -0.19335319 0.015542786 0.02495969 -0.21183401 -0.037052106 0.024270589
-0.0818791 -0.11847273 0.07725481 -0.059689432 0.11351283 -0.027436502 0.031544488 -0.09855893
0.09479876 0.07775099 0.091564365 -0.036506277 0.06365899 -0.07061087 0.25047565 -0.008255902
0.016583022 0.0007902125 -0.079107076 0.07800132 0.13538937 0.14428742 0.11846076 0.1276672
0.057952035 0.092929676 -0.07920189 -0.03501473 0.09662078 -0.24006769 0.061500456 -0.06863413
0.08865989 0.16911288 -0.1345096 -0.1708769 -0.12613243 -0.06255036 -0.07751741 -0.15645477
-0.056181695 -0.06614385 -0.0733397 -0.11768269 0.008744013 -0.04330356 -0.0026894156 -0.047035903
0.05604453 0.13942607 0.15852287 0.030762257 -0.09611766 0.09953747 0.116445005 -0.05627424
-0.0999966 -0.20370063 -0.1370526 0.25600126 -0.099669866 0.120116465 0.061897065 0.13912463
-0.102026574 0.05609905 0.037999738 -0.0050542857 -0.1145183 -0.18385455 -0.07447396 0.07624046
0.11095768 -0.13363045 0.013737775 0.05909152 0.08719054 -0.015903493 0.124471 -0.19706549
0.058822118 -0.069406725 -0.0081207575 -0.074984215 0.055230755 0.05167942 -0.06982534 -0.001062374
0.0038394537 -0.06408736 0.19466028 -0.19645953 -0.017842636 0.045031313 0.05590947 -0.07870327

net.2.weight f4 [128, 128]
00000000: aa7e 843e 8f19 adbd 92fc 05bd 1178 f63d
00000010: 87ed cd3c 03a0 993d 0644 54be 74a0 91be
00000020: 85c1 ffbd 9033 043f dfe7 a2bd ec2f 773d
00000030: 4194 e0bd deb5 023e 8711 b43e 64f8 c8be
00000040: 03ab 98be 9635 f93c f49e b2be bfac 5cbe
00000050: f5ec a1be f4a2 aebd 2b83 b2bd f08f 88bc
00000060: 0221 06bf 9a34 07bc e35d 843e d81d ccbe
00000070: 7f8e 403e 033b 883d 1b97 d5bd b6cb 2bbe
00000080: 3a4f b6bd 52e6 963e ec07 d53d f7d3 b23e
00000090: 4a3a 4cbe bd0d bfbd f9dd b5bb dc38 9fbe
000000a0: d64b afbd dc46 49be b564 ebbe 5979 bd3b
000000b0: a204 76be d0e2 643e e9be ea3c d681 92be
000000c0: 2628 8fbe dfa3 adbe b818 57be 41b5 04be
000000d0: 9a31 e53d 02bc 58be 9e88 a8be 3ac6 b13c
000000e0: d551 393e 5bc0 05bf 543a 12bd 36f0 a23e
000000f0: c7d0 c4be 22ca 6bbe 160c a43e f9a7 543e
00000100: 264f 993e 02a8 3c3e 36c0 75be e0de 64bc
00000110: 688d 883a fb4f d2bd 83d1 8fbe 80f7 0abd
00000120: b02f 79bd a514 c33e 2ea3 8ebd a453 b7bd
00000130: 6163 2bbe 7813 d53e ee0e 55be f0a6 8bbe
00000140: f019 573e 50da 583e c74d de3d e704 2fbd
00000150: ed26 f13c 4c55 a03e bbf0 d2bc 9ba8 df3d
00000160: d91e 82be bd1d af3e 9d11 7a3c e4d9 263d
00000170: 2925 913e 6f30 5a3e 29e0 8b3d cf57 003e
00000180: b9a4 ee3d 81e9 d2bd 3747 4dbc 96a2 c23d
00000190: 6e9f ce3e 99ee f3bd ad24 363e 39a8 003f
000001a0: 3204 58be 7903 85bd 2951 273e cfe5 003e
000001b0: 3730 c73e d79f 9ebe 799f b7bc 67ad 56be
000001c0: ed86 093f e8ca 7dbe a513 81be 226a 963e
000001d0: 87bb 08be ee7b ac3d 9030 13bd bdc3 fa3d
000001e0: 4c0b 71bd 0599 8a3e 5a8b b93e 2544 f9bd
000001f0: 88b9 0a3d 55b2 3fbe e0b9 3cbe 9f55 b33d
00000200: 65cb cd3e ce79 fbbd b4c8 e5bd 2826 aa3e
00000210: d632 d43d 249f 21bd bccd 223e 158b cbbe
00000220: 1510 15be a0f7 b5bc 0c8a 143e 0668 293e
00000230: 06e5 583e 2500 f33e bed9 f63d e749 083d
00000240: b07b 1bbf 4d6b 873d 4930 153e 690d bbbd
00000250: 005c 223e 9308 74bd 804d b13d 35d5 383e
00000260: f611 99be 99a7 ba3d ea12 dfbd 8d1d aebe
00000270: aae4 4b3e 94ee 473e 7357 a63d 7e7f b53e
00000280: 4a70 493e 3534 f63e d539 a43e 0c3a 6fbc
00000290: 9ca1 043f a2bd 40be 61b2 8fbd b38f 8fbd
000002a0: 6219 9f3e 889c 9e3d d87a 9ebe 6ec0 f1bb
000002b0: ac78 b8be 4909 573e 1148 5fbe fb84 853d
000002c0: d029 c93d c6d4 bf3c 8b1c b7be a2ea 07be
000002d0: 4ac7 1cbe 1a83 533e b511 83bd de3a 6abe
000002e0: b27d 873d 2922 00bb ce25 19be d916 46be
000002f0: f96f 79be c127 b03d c1ff 68be 4fb9 b1bd
00000300: cfdd ca3d a596 66be a15d fc3d 1d6a aebe
00000310: a018 d63e 54b7 26bd 5ff6 62be 4daa 92be
00000320: 2279 153e 902b ef3e cea8 8fbe d55d 313e
00000330: e2ba 7cbe fd1c b23e 5928 3abe c590 2ebe
00000340: 786b bbbd 3eee f23d 1eb8 1b3f ae2d 5fbe
00000350: b6ce e53e 391a 613e 2e7a ef3d 5882 94be
00000360: 4e1f 11be e232 f03e 5b79 33be 230c 9bbe
00000370: 877b c83e 7fad a03d 4899 91bd 66ba 1a3e
00000380: 3a73 02bd 3e60 043e dd27 623e 3c96 91bc
00000390: 8e82 9f3d c992 a1be acbb cbbd ad08 02be
000003a0: 3339 bc3e ef05 5fbd f3e4 5a3d 9d9a 6dbd
000003b0: ca61 76bd c2a1 ecbe 5441 ad3d b454 e13d
000003c0: 8dec 963e b05e 503e 5f4d 313e 7993 9bbe
000003d0: 55fe edbd 7dd7 bcbd 1ff5 aa3e 7dd6 f7bb
000003e0: 9b86 85bd bb56 ed3d 9a7f 45be af3f 99bd
000003f0: c05f 223e ad42 063e 1118 30be a804 443e
0.25877887 -0.084521405 -0.032711573 0.120346196 0.025137676 0.07501223 -0.20729074 -0.2844273
-0.12488083 0.5164118 -0.07954382 0.060348436 -0.10965777 0.1276469 0.35169622 -0.39252007
-0.29817972 0.03042106 -0.34886897 -0.21550272 -0.31626096 -0.085271746 -0.087164246 -0.016670197
-0.52394116 -0.008252287 0.2585288 -0.3986652 0.18804358 0.066518806 -0.10429212 -0.16776928
-0.0890183 0.29472595 0.104019016 0.3492734 -0.1994411 -0.09328792 -0.005550143 -0.31098068
-0.085593864 -0.19655937 -0.4597527 0.005782288 -0.24025205 0.22352147 0.028655486 -0.28614682
-0.27960318 -0.33914086 -0.21005523 -0.12959768 0.11191101 -0.2116547 -0.3291673 0.021700967
0.18097623 -0.52246636 -0.035700157 0.3182389 -0.38440534 -0.23026326 0.3204047 0.20767201
0.29943198 0.18423465 -0.23999104 -0.013969153 0.0010418119 -0.10269161 -0.28089532 -0.03392744
-0.060836494 0.38101688 -0.06964718 -0.089515 -0.16737129 0.41616416 -0.20806476 -0.272758
0.21005988 0.2117703 0.108546786 -0.042729285 0.029437507 0.31315076 -0.025749555 0.10920831
-0.2541416 0.34202376 0.015262988 0.04073514 0.28348663 0.21307538 0.068298645 0.12533496
0.11652512 -0.102984436 -0.012529186 0.09503667 0.4035601 -0.11910743 0.17787428 0.5025669
-0.2109535 -0.06494803 0.16339554 0.12587665 0.38903973 -0.30981323 -0.02241491 -0.20964585
0.53721505 -0.24784434 -0.252103 0.29377848 -0.13352786 0.08422075 -0.035934985 0.12244365
-0.058848664 0.2706987 0.3623913 -0.12171201 0.033868343 -0.18720372 -0.1843028 0.08756565
0.4019424 -0.12279092 -0.11219922 0.33232236 0.10361259 -0.03945841 0.15898794 -0.3975455
-0.14556916 -0.022212803 0.14505786 0.16543588 0.21181116 0.47461048 0.1205325 0.033273604
-0.6073561 0.06612263 0.145692 -0.09133417 0.15855408 -0.05957849 0.0865736 0.18050082
-0.29896516 0.09113998 -0.108922794 -0.3400692 0.19911447 0.19524604 0.08122148 0.3544883
0.19671741 0.48086706 0.32075372 -0.014601242 0.51809096 -0.18822339 -0.07016445 -0.0700983
0.31074053 0.077447 -0.30953097 -0.0073776757 -0.36029565 0.20999636 -0.21804835 0.06519505
0.09822428 0.023416888 -0.35763964 -0.13273099 -0.15310398 0.2065548 -0.06399862 -0.22874019
0.06615771 -0.001955161 -0.14955828 -0.19344653 -0.2435912 0.086013325 -0.22753812 -0.08677923
0.09905588 -0.22518404 0.12322546 -0.34065333 0.41815662 -0.04070218 -0.22164296 -0.28645554
0.1459699 0.46712923 -0.28058475 0.1732095 -0.24680665 0.3478774 -0.18179454 -0.17047413
-0.091513574 0.11861847 0.60827816 -0.21794769 0.4488427 0.2198266 0.11693226 -0.29005694
-0.14172098 0.4691382 -0.17526762 -0.30282697 0.39156744 0.07845592 -0.07109314 0.15110168
-0.03184817 0.12927338 0.22085519 -0.017771833 0.07788573 -0.315573 -0.09947905 -0.12698622
0.3676239 -0.054449018 0.053441 -0.05800878 -0.060151853 -0.4621716 0.08459726 0.11002484
0.2947735 0.2034862 0.17314671 -0.3038595 -0.116207756 -0.09220789 0.33390138 -0.007563411
-0.065198146 0.11588808 -0.19286957 -0.0748285 0.15856838 0.13111372 -0.1719668 0.19142401

net.2.bias f4 [128]
00000000: 1410 d43d b077 6cbe 3ac1 533e 1248 b83b
00000010: a2a7 b43d 801c 87bd 1178 173d ca28 9dbe
00000020: 789e 283e 7844 9fbe f08a aabd 276e 1bbe
00000030: 23a7 c2be dbb5 9a3e 542a 25be 9b50 813e
00000040: 6a8e b03e f940 debd 281e 98be 2ccb 963d
00000050: 5f66 55be 7eb3 e2bd 17a8 883e 7984 4cbe
00000060: f1ca 2bbe 87ea 5a3e 7e64 7ebe b81d 2abe
00000070: dfa6 abbe 5d57 eb3c 77ba 41be 9f54 4bbe
00000080: e38e 67be bb66 8a3e bf73 f6bd 53e9 edbc
00000090: c1a6 e7bd ad92 8abe 7da0 97be d65c aebe
000000a0: 9c2f 9e3d fa9f 5d3e e5b9 9cbe 90d8 8fbc
000000b0: e6bf 6dbd 4f39 2a3d 238e 48be 47ea 8fbc
000000c0: a457 5abe 7566 043e 5a2a 4f3d d92b 25be
000000d0: 94e9 453d 7505 24be 0a20 a4bd 022a 573e
000000e0: 9e88 093e c538 8c3d a0f6 323e 1906 f23d
000000f0: 96c8 803d 5494 163e 1f69 5bbe 8362 a43b
00000100: 032f d43d 7894 213e f783 383e 358c a7bd
00000110: f8fa c3bd 6afa dc3d c676 a83e ee5a 6ebe
00000120: 4df5 a33e 0edd 0d3e c5d1 a93e b205 c1bc
00000130: 75cf 893d ba21 a2be dcaa 9f3d bc3f 4b3e
00000140: 3609 3d3e bfb1 b63e 0042 a83e 2208 9d3e
00000150: 3510 683d 4173 88be b4a5 83bd cab1 8d3e
00000160: ab42 093e a348 2e3e 4bea c1bc fdbd 3b3c
00000170: 8f16 4ebd 96b3 2e3d ee77 733e 64dc 7bbc
00000180: 8d27 45be 2f58 7f3d 0e57 2f3e 4f26 92bd
00000190: b360 733e 2f3d 85be 781d 8cbe dc0b 883e
000001a0: 266d 38be 304e 183e 9460 063c 0386 40be
000001b0: 46cc d53d 0821 51be 0243 4c3e 8a46 e93d
000001c0: ae03 b0bd 1832 543e 8125 8e3e ad97 3dbe
000001d0: e6b8 e23d 1612 6a3d 039d 623c 349e 02bd
000001e0: 20fa b6bd c993 e33e e456 0dbe f674 a03e
000001f0: ec39 b1be 7a2a 24be 0d23 5cbe a421 43be
0.10354629 -0.23092532 0.20679179 0.005623826 0.08821036 -0.06597233 0.03697974 -0.30695182
0.16466701 -0.31106925 -0.083272815 -0.15178739 -0.3801814 0.3021687 -0.16129428 0.2525681
0.34483653 -0.10852236 -0.29710507 0.07362971 -0.20839833 -0.11069392 0.26690742 -0.1997241
-0.16776635 0.21378528 -0.24843022 -0.166129 -0.3352575 0.028728181 -0.18918787 -0.19856499
-0.226131 0.27031502 -0.120337956 -0.029041922 -0.11311103 -0.2706503 -0.2961463 -0.34055203
0.077239245 0.21643057 -0.30610576 -0.01755932 -0.058044337 0.04155856 -0.19585471 -0.017567767
-0.21322495 0.1292971 0.0505775 -0.16130008 0.04831846 -0.16017707 -0.080139235 0.21012118
0.13431022 0.068467654 0.17476892 0.11817569 0.06288259 0.1470502 -0.2142682 0.0050166263
0.10360529 0.15779293 0.1801909 -0.08181039 -0.09569353 0.1078995 0.32903117 -0.23276874
0.32023087 0.13853857 0.33167854 -0.023562286 0.067290224 -0.31666356 0.07796261 0.19848531
0.18460545 0.35682485 0.32862854 0.30670267 0.05665608 -0.26650432 -0.0642809 0.27674705
0.13404338 0.17019896 -0.02367129 0.011458871 -0.050314482 0.042651735 0.23776218 -0.015372369
-0.19253369 0.062339958 0.17123052 -0.07136213 0.23767357 -0.26023242 -0.27366233 0.26571548
-0.18010387 0.14873576 0.008201737 -0.18801121 0.10439353 -0.20422757 0.19947436 0.113904074
-0.08594452 0.20722234 0.27762988 -0.18514891 0.11070423 0.057146154 0.01383138 -0.031889156
-0.08934426 0.4444869 -0.13802677 0.31339234 -0.34614503 -0.16031829 -0.21497746 -0.19055802

head_task.weight f4 [11, 128]
00000000: 3cac 65bc 735d 493d 3be8 64bd 193d ea3b
00000010: e9d0 2c3d 0385 4e3d 470a fdbd 4c8f 863d
00000020: aad5 073d dd91 033d 64d7 d6bc 25fd 023f
00000030: 38b5 da3e 996d a6bd 166a 403d cc17 b6be
00000040: 6b3f 933b 4859 2f3e ab7f ba3d 4e8d 4f3c
00000050: eb82 a33e 880a 2cbd e262 ccbd dceb adbd
00000060: c0f9 573e 0b6f dcbd 5247 85bd 87a6 bc3c
00000070: 5e98 d93e 14c0 d5bc 045a 043e 4867 c83d
00000080: 1445 783e f7ab 66bd dbbd 8f3e 3b1d eb3c
00000090: 4883 5b3d 1ec8 273f a293 7cbe 532b 6d3e
000000a0: 08e1 a43d a276 1dbf 8c1c b33e 06be fe3d
000000b0: b1e9 e8bc 34cb c53d 8ad0 433e b146 e6bd
000000c0: c42a 043c 6d11 14bf 7ecc c8bd 53d2 b6bc
000000d0: cb2e 8abe 6d6f fc3d 7e55 683e 256f 9fbe
000000e0: d6da 04be c7e6 f53c 1fed 033d ac6a eabc
000000f0: 54bd acbd 7f76 6e3c 75ed e3bb d5a8 4b3e
00000100: 8b50 3ebe 89f4 20be f5d1 c13d 4f2f 29ba
00000110: eec2 13be a7a5 e7bd 15cf 03bf 56f6 9f3d
00000120: 43cd b0be ac42 26be 438f 23be ed6f 1fbe
00000130: b129 383d 8ade 043f 9384 a3bd c523 8fbe
00000140: 7b72 c13c 1ed1 15be e9db f8bd d746 dfbe
00000150: 9657 0bbd 58e7 c93e 8253 c539 1101 ba3d
00000160: b113 023f ff6c 523e e167 8d3c 796f 053e
00000170: 02e3 a7be b521 813c 875b 48bd 17e3 543e
00000180: ac70 d43d fe4b 0d3e 2873 43bd ce6c 2abe
00000190: 88f1 4ebc fa6d 483e 7905 ea3d 7eb4 573d
000001a0: ae70 df3e 32c5 49be 1837 043e 03aa 1d3e
000001b0: 60c9 40be b66c a7be 98dc b43d 26f9 c2bd
000001c0: b632 3cbd 1ce8 32be 4031 9fbd 036d c53d
000001d0: 4309 02be 3e39 253d c257 00be f098 d5bd
000001e0: 850c 3cbc 76bd 97be ccdd 543e 46c4 05bf
000001f0: 3468 bd3e f037 733e b71a 823e fbf5 683d
00000200: 9be9 053d 9f8e 30be 8d00 67be 201c e6bc
00000210: 5f96 a63c b2cb 263e c333 593e fabc 163d
00000220: b988 31bd 8b94 963d d0c4 e9bc a9b5 b73e
00000230: 716e dc3e 07e6 ecbc 7c80 123d eeef 35be
00000240: 2d68 a03e 7273 c43d 4e81 45be 8ce2 91bd
00000250: 10de 72be fef3 eabb 9dad b0be 44ea 87be
00000260: fdb0 0dbe 265f b5bc bab9 0b3b cee2 893e
00000270: b8f7 573f 3407 5d3d 8892 57bd f708 30be
00000280: dfe7 48be 2a25 c13c eb38 903e 6568 9f3d
00000290: fe60 b23d f180 35be b180 433e 72ba fabd
000002a0: 8710 e33c 50a3 1f3c 0c8b 3b3e 33b0 c03d
000002b0: d78c 4b3d 162a a9bd a545 333e ffbf 58be
000002c0: 1867 6a3d c5e2 4fbe 7988 a9be 0ac7 f53d
000002d0: 3106 2bbe 8a78 3a3e abc2 1cbd 615f 70be
000002e0: 110c 46be 29c7 14bc 608f 003e 278d df3b
000002f0: a210 153c 65e6 683e 7491 b13d 4211 623e
00000300: 46e3 f4bd 88bd 0dbe 7526 f3bd 0243 32bd
00000310: 1a68 293d c53a 4fbe 667e 25be c2a4 8a3d
00000320: 9226 b1be 5ae6 b7bd 1a7d 043d f530 7ebd
00000330: 69cd 72be ab00 763e ac3f f9bd c018 a63c
00000340: bdb3 553e 9fde 1a3c 557c b53d ae19 043e
00000350: d7fe 43be c167 fabd 4b47 e03d 10cb 643e
00000360: 4830 4c3e a71c 6fbd 158b 52bd 702b a73d
00000370: ce46 8cbd 5f09 bf3c 78a6 17bd ca6b 343c
00000380: 9b32 42be 8535 9e3c c1ee 51be 2219 bd3d
00000390: 5c93 3ebc 289e e43d 9e8e 05be 7e0b 513e
000003a0: 3d95 e63e 7740 62bd c463 8a3e d335 5ebe
000003b0: 76e1 3c3d ba88 94be 933d abbc 0e85 63bd
000003c0: 0a89 86bd 82ee 553e 779b ed3d f0d0 bc3d
000003d0: 4bf0 a2bd 7b9a 22be 4032 9dbd 7e56 83bc
000003e0: 2f83 a53d d437 4ebe f607 b53c 3cc7 913e
000003f0: 8288 023f bb20 3fbe 27dd 0cbd ee1a 4d3d
-0.014018115 0.049161386 -0.055885535 0.0071483967 0.04219142 0.05041982 -0.12355476 0.065703005
0.03316275 0.032121528 -0.026225753 0.5116752 0.42716384 -0.08126373 0.04697617 -0.3556503
0.004493644 0.17123902 0.09106382 0.012667967 0.3193582 -0.04200223 -0.09979798 -0.08492252
0.21091366 -0.10763367 -0.06507744 0.023028625 0.4249906 -0.026092567 0.12924963 0.09785324
0.24245101 -0.056316342 0.28074536 0.028700462 0.053591996 0.6553973 -0.24665692 0.23161058
0.08050734 -0.61509144 0.34982717 0.12438588 -0.028431745 0.096578985 0.1912252 -0.11243952
0.008066837 -0.5783909 -0.09804629 -0.022317087 -0.26988825 0.1232594 0.22688863 -0.31139484
-0.12974104 0.03001727 0.03220856 -0.028615318 -0.08434549 0.014554619 -0.0069557973 0.19888623
-0.18585412 -0.15718283 0.09463874 -0.0006453888 -0.14429829 -0.113108926 -0.5148786 0.07810657
-0.34531602 -0.16236371 -0.15972619 -0.1557004 0.044961635 0.5190207 -0.07984271 -0.27956977
0.023614159 -0.14630553 -0.121513195 -0.43608734 -0.034019075 0.39434314 0.00037636986 0.09082235
0.50811297 0.20549391 0.017261447 0.13030805 -0.3279038 0.015763143 -0.048915412 0.20789753
0.10373053 0.1379852 -0.047717243 -0.16643068 -0.012630828 0.19573203 0.11426825 0.052662365
0.43640655 -0.1970413 0.12911642 0.15396886 -0.18826818 -0.32700127 0.088311374 -0.095201775
-0.0459468 -0.17471355 -0.077730656 0.09639933 -0.12698846 0.040337794 -0.12533477 -0.10429561
-0.011477594 -0.29636735 0.20787734 -0.52252614 0.36993563 0.23751807 0.25411007 0.05687521
0.032693487 -0.17241906 -0.22558804 -0.028089583 0.020335374 0.16288641 0.21211152 0.036801316
-0.04334328 0.07352551 -0.02853623 0.35880783 0.4305301 -0.02891828 0.035767063 -0.17767307
0.3132948 0.09592332 -0.19287607 -0.071232885 -0.23717523 -0.0071701994 -0.34507456 -0.26545918
-0.13837047 -0.022140097 0.0021320418 0.2693085 0.84362364 0.053961948 -0.052629977 -0.1719092
-0.19619702 0.023577292 0.28168425 0.077835836 0.08709906 -0.17724968 0.1909206 -0.12242593
0.027717842 0.009743527 0.18314761 0.09408607 0.049694862 -0.082599804 0.17507036 -0.2116699
0.057227224 -0.2030135 -0.33111933 0.12000854 -0.1670158 0.18210045 -0.038271587 -0.23473884
-0.1934054 -0.009080687 0.12554693 0.0068222466 0.009098204 0.22744139 0.08670321 0.22076896
-0.119574115 -0.13841832 -0.118725695 -0.043520935 0.041359045 -0.20237263 -0.16161498 0.06769706
-0.3459974 -0.08979483 0.03234587 -0.062058408 -0.2371117 0.24023692 -0.121703476 0.020275474
0.20869346 0.009452491 0.08861605 0.12900421 -0.19140182 -0.12226821 0.10951098 0.22343087
0.19940293 -0.058376934 -0.05140217 0.08162582 -0.068494424 0.023319898 -0.03702399 0.011012027
-0.18964617 0.01931263 -0.20501234 0.09233309 -0.011631813 0.111629784 -0.13042685 0.2041454
0.45035735 -0.05523726 0.2702924 -0.2170022 0.046113454 -0.29010564 -0.020903384 -0.055546813
-0.06569107 0.20891765 0.11601918 0.09219539 -0.079559885 -0.15879242 -0.076756 -0.016032454
0.08081662 -0.20138484 0.022098523 0.28472316 0.50989544 -0.1866483 -0.034390595 0.05007451

head_task.bias f4 [11]
00000000: 7e51 d8bd 6fda 663d 0603 873d fe4f 8d3d
00000010: 0ac0 963c c61e 223d 4487 d0bb 7015 db3c
00000020: 6dfe 75bb ab46 25be 30f5 85be
-0.105624184 0.05636066 0.065923735 0.06900023 0.018402118 0.03958013 -0.006363781 0.02674362
-0.0037535683 -0.16140239 -0.26163626

head_move.weight f4 [8, 128]
00000000: 3799 01be 436e 373e 3600 36be 03b8 06be
00000010: 605a ca3c 18b4 ef3b 487a abbd f6f3 113e
00000020: 87e1 cd3c 018e 083e d55a 973b 8563 ef3e
00000030: 73ef 003f 89c9 ddbd 9d10 eb3d 2177 b6be
00000040: 8f89 ea3c 2c21 0f3e 7aa6 043e 0620 533d
00000050: 01a0 c93e fa71 f2bc 4d7e adbd 694f 26be
00000060: f822 b23e cec9 7dbe 294c ef3d fc16 923c
00000070: 00c7 cd3e cfb7 de3c 7c71 453e 13be b13d
00000080: 3127 b43e 1df5 2fbe e0d2 383e 01da 5e3d
00000090: a25f 2f3d 2f51 5a3f 0597 98bd 5712 4e3e
000000a0: 8af2 3ebd 9ff2 1fbf d403 bd3e fed4 243e
000000b0: 7b22 12bd 5be2 1bbd 3a24 023e b555 e4bc
000000c0: bb7d be3d 603e 30bf cace 223d 91a5 f2bc
000000d0: 506b 16be bd58 d23d a276 943e c563 e4be
000000e0: 90ff 24be b0ea cf3d 94cc 563d babb b93c
000000f0: ebb7 17bd 72f8 353a 9fc3 afbd 86f2 993e
00000100: 88bc cdbe 4d09 15be f39a 093e 0bf9 1abe
00000110: 9342 6ebd 48d2 13be 5e7a 52bf a70f b73d
00000120: 6fe0 ccbe 8a4b 3fbe b7e6 88be 79ce 2abe
00000130: c966 8d3b 9673 a43e f652 3ebc 8f07 dfbe
00000140: 778d 56bd 6bc5 75be d4c7 3fbe a176 12bf
00000150: c3e2 26be 3a4c 1f3f ee89 12be dc63 753d
00000160: ed39 223f 9309 7d3e f597 443d 6bad 693e
00000170: 3344 ccbe 263f 20be 3ab1 2abe 36ca 713e
00000180: 3620 423e e133 9f3e fc81 11bc 2fd1 e8bd
00000190: 2c59 cfbd edea aa3e abcf c73c cd66 2a3e
000001a0: ceb1 803e 8cbc 35be 20b6 2e3e 4071 933e
000001b0: 02df 46be b465 98be 720f 8dbd 5dd7 84bd
000001c0: 7c2e 553d 50f3 d5ba af80 373d 66cc ad3c
000001d0: 8be1 60be c1e1 c53d a590 8ebd 19e9 ffbd
000001e0: 00cd 07be b67b 26be 0a0f 873a 32b7 15bf
000001f0: c1b9 a03e 4744 9a3e 0032 6d3e 0db1 223e
00000200: 2e74 aebe c7fc 9bbd 1c88 d33d 48de 0ebe
00000210: 4a4c c2bd 9357 81bc 6082 1f3d b3f8 68be
00000220: ce92 ac3d 95e6 fe3c b648 64bd cf3c bdbd
00000230: cc9f 92bd 6b4d ebbd 7e76 48be 545d 5f3e
00000240: 73c5 16bd 7d4d 543e bafb 5e3e e53f 173c
00000250: 0c99 4fbd 6e85 363d 570e b3bc c73c c0bd
00000260: 9520 e63d 49ca a43e 1b05 c63e fc5b e7bd
00000270: 1f0a c7bd d011 3e3e d2cf bebd b75f a43e
00000280: 3bbf a73c 4ec3 6cbc 1ca5 6ebd 049c 7dbd
00000290: 2498 4f3e 7dc8 bbbd 410d 2ebd 16fc dbbc
000002a0: 7660 c2bd b4c7 b1be 4303 b3bd f0b6 b6be
000002b0: ac43 6dbd db42 8bbd 3fa8 69be a522 1fbe
000002c0: 16d8 f43d 06fb 8e3d 917e 183e 9d14 b2bd
000002d0: 443a 7e3d 14ab bc3d e6ff 14be eb70 3cbe
000002e0: 5d4f 50bd 0652 14be 6851 723d 2d32 c03d
000002f0: 6c58 373e 2683 93bd 5b59 b5bd 3e1b 4b3d
00000300: 1274 6b3c 16e4 853c 6a8d d3bc f3b6 9b3c
00000310: 5021 f7bd c237 3c3d 9c54 753e 8a80 27bd
00000320: 548f f33d 38d3 dbbd 558f cc3d 0d5f 913c
00000330: 758f a13d 6659 adbd 2d36 633e 1a15 123e
00000340: 38db f2be 516b 0abd fa27 90bd 27f9 e73d
00000350: 5f4d 0f3d 2fe5 19be 1f45 29bd 1c33 2bbd
00000360: 2e7a f73d a48b 5ebe b681 5e3d 3236 fcbc
00000370: 6f9a e3bd 80ea 2c3d 864f ba3e a34b 8d3c
00000380: 0adf ba3b 277a 45bd ad62 afbd bc61 4bbe
00000390: c801 5c3e 89ca b9bc 673b e0bc 70f7 f0bd
000003a0: a8b6 bd3d 39f4 f03c 51d2 0f3e 84d4 0a3e
000003b0: 08ee 9bbe 6046 15bc 0321 dc3c f234 8f3e
000003c0: c099 e1bd e03e 9a3d 5546 20bd 6879 fa3d
000003d0: 140d 6fbe 8347 19be 3e62 18be 32c1 033c
000003e0: accd 9ebd d4e7 01bd e9b0 6fbd e90b c13e
000003f0: 5954 173d d802 bdbc 43b2 61bc 8e12 bebd
-0.12656103 0.17913155 -0.17773518 -0.13156132 0.024701297 0.00731517 -0.08372933 0.1425322
0.025131954 0.1333542 0.0046189823 0.46755615 0.5036537 -0.108294554 0.11477778 -0.35637763
0.028630046 0.13977498 0.12954131 0.05154421 0.39379886 -0.029595364 -0.084713556 -0.1624123
0.34792304 -0.24784014 0.11684448 0.017833225 0.40190887 0.027187256 0.19281572 0.08678832
0.3518615 -0.17183347 0.18049192 0.054407123 0.042815812 0.85280126 -0.0745068 0.20124184
-0.046618022 -0.62479585 0.36916983 0.16096875 -0.035677414 -0.038057666 0.12709132 -0.0278729
0.09301325 -0.68845177 0.03974799 -0.029619964 -0.14689374 0.10270832 0.2899676 -0.44607368
-0.16113114 0.10152185 0.052441195 0.022672523 -0.037040632 0.0006941623 -0.08582234 0.30067843
-0.401829 -0.14554329 0.13438015 -0.15134065 -0.05816896 -0.14435685 -0.8221797 0.08938532
-0.4001498 -0.1868116 -0.2673852 -0.16680326 0.0043152315 0.32119435 -0.011616459 -0.43560454
-0.052381005 -0.2400109 -0.18728572 -0.57212263 -0.1629744 0.6222569 -0.14310429 0.059909686
0.6336964 0.24710684 0.04799648 0.2282006 -0.39895782 -0.15649089 -0.16669169 0.23612294
0.189576 0.31094268 -0.008881088 -0.113680236 -0.1012443 0.3338236 0.024391016 0.16640778
0.25135654 -0.17747706 0.17061663 0.2879734 -0.19421008 -0.29765093 -0.068877116 -0.0648639
0.052046284 -0.0016323123 0.044800457 0.021215629 -0.21961038 0.096622 -0.069611825 -0.12495632
-0.13261795 -0.1625813 0.0010304165 -0.5848266 0.3139172 0.30130216 0.23163605 0.15887852
-0.34073013 -0.07616573 0.10328695 -0.13951981 -0.09487207 -0.015788829 0.038942695 -0.22751121
0.08426438 0.03111581 -0.055733405 -0.09240114 -0.07159385 -0.11489376 -0.19576451 0.21812946
-0.036809396 0.20732684 0.21775714 0.009231542 -0.050683066 0.044560842 -0.021857424 -0.09386592
0.11236683 0.3218558 0.3867577 -0.112968415 -0.09718727 0.18561482 -0.09316982 0.32104275
0.020476928 -0.014450861 -0.05826293 -0.061916366 0.20272881 -0.091690995 -0.04249311 -0.026853602
-0.09491055 -0.34722674 -0.087408565 -0.35686445 -0.057925865 -0.06799861 -0.22818087 -0.1554056
0.119552776 0.06981473 0.14892031 -0.08695338 0.062067285 0.09212318 -0.14550743 -0.1840245
-0.050856937 -0.14484414 0.059159666 0.0938457 0.17904824 -0.07202749 -0.08854934 0.049586527
0.014370935 0.016344111 -0.025824267 0.019008135 -0.12066901 0.045951612 0.23958057 -0.04089407
0.11892572 -0.10733646 0.09988276 0.017745519 0.078886904 -0.08464317 0.22188635 0.14265862
-0.47432876 -0.03379375 -0.07038875 0.11326819 0.034985896 -0.15028833 -0.041325685 -0.04179679
0.12083851 -0.21732956 0.05432292 -0.030787561 -0.1111344 0.042215824 0.36388797 0.01724798
0.005702858 -0.048212197 -0.08563743 -0.19861501 0.21485054 -0.022679584 -0.027372075 -0.11765945
0.092633545 0.02941333 0.14045073 0.13557631 -0.3045504 -0.009111017 0.02687121 0.27970082
-0.110156536 0.07531524 -0.039129574 0.12230188 -0.23344833 -0.14968686 -0.14881226 0.008041667
-0.077540725 -0.03171523 -0.058518324 0.377044 0.036945675 -0.023072645 -0.013775411 -0.09280883

head_move.bias f4 [8]
00000000: 44aa c5be 2d05 063e 29af b93d df1e 5abd
00000010: ab6b 8f3d a26b 3cbf 3982 3cbf d4b5 44bf
-0.38606465 0.13087912 0.09066612 -0.053252097 0.07002958 -0.73601735 -0.73636204 -0.7683995

head_comm.weight f4 [8, 128]
00000000: 6dfe fb3d c59b 163d 5eed f7bd 7c34 543e
00000010: 1fea 163d 71dc b33d 15d7 d63d dcc8 43be
00000020: 1c20 4a3d 7d32 8abe 4318 39be a549 34bd
00000030: 7b99 53be c48d aabd ebef febd f0c4 dc3d
00000040: bb18 31be 65a3 32be 150b 47be 5170 f0be
00000050: 0d70 123d 2a55 63bc 42f2 a3bd 9ccb 0abe
00000060: 1416 00bd fa0c ee3d 7aba e0bd a675 543e
00000070: 5ec2 cdbd 4e10 593b bd7b 483e 66e9 8ebe
00000080: c03c 6d3b 1174 c13d cc44 1d3d 9f65 d93d
00000090: 67e9 9abe db9b 3f3d 42ff 96bc 11ba a43d
000000a0: 5598 26bf bdcf 85be 2489 b43e bae7 dfbd
000000b0: 6ba0 c23b cd4f a0bd 9ec9 be3e e106 7b3d
000000c0: 1c50 853d 5552 863d 6d7a 0fbe 6c02 e73d
000000d0: b88c debe 5586 ef3e 8ee0 2fbd 6924 dabe
000000e0: b408 39be 0813 0bbe 8ea1 ae3d b57c 533e
000000f0: 3564 ac3e ff6a fbbc 3c98 ecbd 8d45 35bd
00000100: 0f0a 2f3d 9342 89be 51c1 efbc c15e f3bd
00000110: d478 5bbe 8116 c33c e85e 14be a1a1 a6be
00000120: 08e5 a5be fccc 083d 4193 b3bd bf45 093e
00000130: 0769 333e 7b78 0dbd b37e 013e 8019 63bd
00000140: ba1a e03d 58c9 f13d 1866 cebd 7e47 a4bc
00000150: 5e70 c0bc 36f2 ac3d e2f4 bfbd c0e6 48bd
00000160: 433e 1e3d 43c7 13bb 29e8 993d c6c6 8c3d
00000170: 76e6 37be 627e 703d 63e2 393e a5e8 33be
00000180: 1512 a33d b98e e6bc 3a9f 95bd fc8f b9be
00000190: d04a 713e efb3 1abe 0944 f2bc 91e5 8abe
000001a0: 3f2a c3bd d8ba 583e 4741 ebbc 6a60 853e
000001b0: 070a bb3d 9d3a ea3d d323 a03e 7109 fd3d
000001c0: 3d2c d4bb 9057 e73d b6ce 50be 0473 fd3e
000001d0: cf8d 20be 8e24 54be f70b 553e b5a9 93be
000001e0: 2cba 4ebe c3a7 b43c ec02 b5bd 559f 5ebc
000001f0: e515 56bb d621 4b3e 9343 883e abfd 31be
00000200: 0275 dbbd 6119 34be 88bd 953d 7069 8cbd
00000210: 3c0b a6bd 2b8e 4dbd 28d3 863c f187 9f3c
00000220: 9883 b3bb 935c af3d 5d25 473e 3bb3 45be
00000230: 3ce9 703d 0bfd c03c b492 ac3d a2bb b13d
00000240: 1aec fb3d 5222 03bd 4e02 563e 4b6d da3e
00000250: aa82 cfbd a111 fa3d 822c 3dbd 346e cc3d
00000260: c437 3cbe 2c6f 96bd 8fe2 13bd 2e03 1dbe
00000270: c3f0 5c3d c884 27bb 7292 a1be 1eed 663e
00000280: 40fc 43be ad11 e6bc 01eb 71bd 8d74 09be
00000290: 249e 8f3e 8c9e 2abe 7b63 763d c6e3 52be
000002a0: 42be 1c3f 59ee 5c3e 9a98 ccbe 5b94 c8bb
000002b0: 4b68 c43d 3465 e8bc e9d3 cfbe 66d2 16bd
000002c0: bc55 a7bd 3379 043e 0550 303e 3fd1 b5bd
000002d0: 05fe 1d3f b901 11bf 0c6c 833d d89d e23e
000002e0: 6297 943e 2a60 81bc d203 93bd 8946 1cbe
000002f0: fc84 96be 676f 763d 4cee ba3d 19e6 cbbb
00000300: 3535 1c3d de78 af3e 26a7 01bd f008 4e3e
00000310: 4c34 983d 0b2f 3a3b 24df 8c3e b493 693e
00000320: 826a 6c3e b0fb 90ba 4176 8c3e f4b1 993b
00000330: ed4f 42bd 8d35 39be 15b2 82bd 8dc5 f03d
00000340: 6f1a 8fbd d867 0c3e b90b 103e 73ed 663e
00000350: 29d7 223e 3c4b 9dbe ca1e 5e3e bd0c 8fbd
00000360: c3eb 14be 3aaf babd 3081 32bd f57d 39be
00000370: 7865 a93e 1714 273d b0be 4bbe b388 ca3d
00000380: 475f 49be e364 3dbe 7799 853d 2606 bf3e
00000390: cb78 b2bd 0e99 863c ffbc 86bd b495 6f3d
000003a0: 5ef6 f53c 46a6 bf3b 5a4e 89bd 70bc c8be
000003b0: 75f9 be3d e19c 7d3b 9d8b 25be f576 5bbd
000003c0: 9bd7 90bd 6ad9 12be 6dd1 253e 8e40 16bf
000003d0: 31db ab3e 2748 413e a346 1abe d25c a13e
000003e0: dc7c 3d3e cc63 593d 62e7 023e fe1d 313e
000003f0: 44f8 a13c edcc c5bd 5402 72be 5fb6 a73d
0.12304387 0.036769647 -0.12105821 0.20723146 0.03684437 0.0878228 0.104902424 -0.1911959
0.049347028 -0.26991645 -0.18075661 -0.044015545 -0.20664017 -0.08327821 -0.124481045 0.1077975
-0.1729459 -0.17445143 -0.19437821 -0.4696069 0.03575139 -0.013875285 -0.080051914 -0.13554233
-0.031271055 0.11623569 -0.109730676 0.20748004 -0.10046838 0.003312129 0.19578452 -0.27912444
0.003619954 0.09445966 0.038395688 0.10615086 -0.30256197 0.046779495 -0.018432263 0.08043302
-0.6507619 -0.26135054 0.3526088 -0.1093287 0.0059395335 -0.07827721 0.37263197 0.061285857
0.0650942 0.06558672 -0.14011545 0.11279759 -0.43466735 0.46782175 -0.04293876 -0.42605904
-0.18069726 -0.13581479 0.08526908 0.2065304 0.33670202 -0.030690668 -0.11552474 -0.044255782
0.042734202 -0.26808605 -0.029266985 -0.11883307 -0.21432811 0.023814442 -0.14489329 -0.32545188
-0.324013 0.033398613 -0.08768321 0.13405512 0.17520534 -0.034538727 0.12645988 -0.05544424
0.10942598 0.118059814 -0.100780666 -0.020053621 -0.02349108 0.084446356 -0.093728796 -0.049048185
0.038633596 -0.002254919 0.07514984 0.068738505 -0.17959008 0.058714278 0.18152766 -0.17569216
0.07962433 -0.028144227 -0.07305761 -0.36242664 0.23563695 -0.15107702 -0.029573457 -0.2712827
-0.09529542 0.21165025 -0.02871765 0.2605012 0.09132772 0.11436961 0.31277332 0.123553164
-0.006475 0.11295998 -0.20391354 0.49501812 -0.15679096 -0.2071707 0.20805345 -0.28840414
-0.20188206 0.022052651 -0.08838448 -0.013587792 -0.0032666859 0.19837126 0.26614055 -0.17381923
-0.10715677 -0.17587806 0.07311541 -0.06856048 -0.081076115 -0.05018441 0.016458109 0.019474002
-0.0054783337 0.08562579 0.19447847 -0.19306652 0.05881618 0.02355816 0.08426419 0.08678366
0.12300892 -0.032015152 0.20899317 0.4266151 -0.10132344 0.12210394 -0.046185024 0.09981957
-0.18380648 -0.07345423 -0.036104735 -0.15333244 0.053940546 -0.0025561322 -0.3155704 0.2255139
-0.19139194 -0.0280846 -0.059062008 -0.13423367 0.2805034 -0.16662043 0.060153466 -0.20594701
0.6122781 0.21575297 -0.39960176 -0.006121201 0.09590205 -0.02836857 -0.40591362 -0.036821745
-0.081706494 0.12936859 0.17218025 -0.08877801 0.6171573 -0.56643254 0.06417093 0.4426105
0.29021746 -0.015792925 -0.07178463 -0.15261282 -0.29398334 0.060164835 0.09127483 -0.006222498
0.03813668 0.34271902 -0.031653546 0.20120597 0.0743185 0.0028409387 0.27513993 0.2281025
0.23087505 -0.0011061337 0.2743397 0.004690403 -0.047439504 -0.18086834 -0.06381623 0.1175643
-0.06987464 0.13711488 0.14066972 0.22551517 0.1590239 -0.30721462 0.21691433 -0.069848515
-0.14543061 -0.09115453 -0.043580234 -0.18114455 0.33085227 0.040790644 -0.1989696 0.098893546
-0.19665252 -0.18495516 0.06523412 0.37309378 -0.08714446 0.016430404 -0.06579017 0.058492377
0.030024704 0.0058486788 -0.067043975 -0.39206266 0.09324924 0.0038698243 -0.1616654 -0.053580243
-0.070723735 -0.1434075 0.16193171 -0.5869225 0.33565667 0.1887518 -0.15066008 0.3151613
0.18504661 0.05307369 0.12783578 0.17296597 0.019771703 -0.09658227 -0.236337 0.081890814

head_comm.bias f4 [8]
00000000: 9e59 68be 9ff0 b03e 8af6 9dbe b38a 72be
00000010: 0fad acbe 857d d7be ef85 b6be fd2d babe
-0.22690436 0.3455858 -0.30852157 -0.23685722 -0.33725783 -0.4208795 -0.35649058 -0.3636321

head_mode.weight f4 [2, 128]
00000000: 3721 303e 50ed ec3d 5b98 ffbd 6e95 443e
00000010: 048c fe3d 4d62 9f3d f20c 293c defc 29be
00000020: d359 0e3e a70f 8abe 2230 12be 1551 323d
00000030: 5871 00be 9978 40bd eda4 23bd b132 90bd
00000040: e709 80bd 6bec 00be 786c 62be 02d0 ddbe
00000050: 9a3b b73c 96f0 13bd b2f8 e4bc dba6 40be
00000060: 760e 0c3d c2b3 d8b9 3f30 2abe 2e48 5f3e
00000070: 612b 6cbd e9b0 8cbd c74a 533e 6366 98be
00000080: 5bfb 373d f7de c33d d28c 05bd 4d58 d43d
00000090: 9315 b7be fa2e 4a3d e199 58bd 7702 ca3b
000000a0: 1204 1fbf bb68 6abe bbb0 bd3e b716 ccbd
000000b0: d5c9 603c 4665 a7bb 4328 953e ad51 e33d
000000c0: 2135 f43b 3090 263d b3c8 04bd a45e a63d
000000d0: a6c3 00bf d55d 103f 1aa4 2dbd 93f0 e8be
000000e0: 35be 5dbe 36aa 73bd 2f25 a7bc 1f3a 503e
000000f0: 797b 7f3e de37 89bd 0c84 3cbe 302a 35bd
00000100: bc6e cb3d 5bbe 8abe 0f60 893a 3e0c 66be
00000110: 0ea1 06be 7d90 973c a463 65be 625d c0be
00000120: 47c1 82be 5bb9 2e3d 237d 2fbd 6895 073d
00000130: f939 fa3d b237 6c3c 32bc 313d d5ac 95bd
00000140: 9a0b 893e 811c f2bc e04d 1dbd 6b5e e8bc
00000150: acb2 95bd 79b2 433e 5bd0 5cbe f43c c43d
00000160: 3cbd 163e c1cd e63c a356 b9bd 510b 0f3e
00000170: ff89 33be 1d23 b53d 54a8 f73d e2c3 01be
00000180: 0389 283e c9b5 fd3d 3c17 b33c 350a 9ebe
00000190: 22cf 613e 8cc6 15be c09d a1bd 2770 0cbe
000001a0: b6c4 47bd b2ee 213e 4462 273d 52a8 8e3e
000001b0: 726a b53d 980b babb 474a 6b3e 09d8 c43c
000001c0: 185a a03d 6107 473e 4b3c 16be 26f1 063f
000001d0: 0777 11be 5fd2 02be 1f15 0e3e 9170 96be
000001e0: 45b0 1fbe d8c0 dfbc 84c9 3bbe 36d3 eebd
000001f0: 7e4c f4bc 68f0 a53d 3e27 bd3e 8a5e 8dbd
00000200: d2ec cebd 4fb0 31be 54ca c63d b0bb 86be
00000210: 28df 17be cbe4 6bbd ae55 40bd f02a 2a3d
00000220: b0fa bdbd 4d69 3a3e acbf 7e3e cfe6 88bd
00000230: dad2 853e 706a 4d3d 6b81 4b3d 82b9 48bd
00000240: a3f6 283e dfb5 393e fefd 703e 205c c83e
00000250: 44c9 3cbd 9c2d e53b 901b 493d 6e99 653e
00000260: 0ea7 08be 34b9 1fbe e637 f93d b61b 27be
00000270: 0763 fb3d d077 e73c f14c 82be e2d3 463e
00000280: 39bb 0dbe c799 d8bd c122 91bc d1ef 76bd
00000290: e89a 613e cfa2 b7bd ed3c 5abb d4e1 24be
000002a0: 1260 243f bfcb a83e 424b 8cbe c577 e53d
000002b0: 95a3 a4bc 2e5a 23bd 0cc6 e2be 8076 f1bc
000002c0: 5d32 afbd 0981 c2bc 9edc 093e 29db 63bd
000002d0: 7361 0d3f 318a 13bf ab5d c43d 8f09 a13e
000002e0: 525e 953e 9c63 ef3c ee2a 703c 75ba 96be
000002f0: d1a5 8bbe 19b8 a7bd 461d 9f3d 2135 e2bc
00000300: 1201 b9bd 78a7 a23e d9dc 62bd f8a6 843e
00000310: d280 2f3e 430f a8bd 6329 913e be74 7b3e
00000320: 9cdc a23e f7bf 903c 31dd c63d 106c 363d
00000330: 67df 05be 2b2f 5cbd 053a 0fbe 04bf 003e
00000340: 95fd 44be 960e 30bd 1bc8 3d3d b2f6 643d
00000350: 6ff9 cb3d c9e0 25be b6e7 b43d 55ce 413d
00000360: 2693 15be f53c 70bd fb8c 2dbd 1b2c 66be
00000370: 3185 823e 8da0 8f3c d2bb 58be 2ce0 843c
00000380: 4023 06be 7a76 2ebe 0d68 003e c7c7 9c3e
00000390: 9b70 57be cbce 0a3c 3e31 2bbb 4354 5d3e
000003a0: 8c99 fc3b 9426 04be 22bb bd3d fb95 91be
000003b0: fb31 a2bd 20a4 833d bd73 6cbe de0f c6bc
000003c0: 5236 0d3c 9592 30be 8a55 9f3d c1f1 c7be
000003d0: 0fe8 923e 6db0 383e d067 09be 0594 a83e
000003e0: 02cd 853e 7a84 9bbc e13a a73d 8750 ec3d
000003f0: a137 cc3d f693 acbd d63a babe 9443 393e
0.1720017 0.11568701 -0.124802314 0.19197628 0.124290496 0.07782421 0.010318028 -0.16600367
0.13901453 -0.26965067 -0.14276174 0.043534357 -0.12543237 -0.04699001 -0.039952207 -0.070409186
-0.06251889 -0.12590186 -0.2211169 -0.4332276 0.022367287 -0.036118113 -0.027950618 -0.1881365
0.03419348 -0.0004133266 -0.16619967 0.21804878 -0.057658557 -0.068696804 0.20633994 -0.29765615
0.044917446 0.095640115 -0.032605 0.103684045 -0.35758647 0.049361207 -0.052881125 0.0061648446
-0.62115586 -0.22891514 0.37048897 -0.0996527 0.0137199955 -0.0051085083 0.2913228 0.11099563
0.0074526225 0.04066485 -0.032417964 0.0812352 -0.50298536 0.56393176 -0.042392828 -0.45496044
-0.2165459 -0.059488498 -0.020403473 0.20334671 0.24949445 -0.06700109 -0.18409747 -0.044229686
0.0993323 -0.27098355 0.0010480898 -0.22465608 -0.13147375 0.018501515 -0.22401291 -0.37571245
-0.25538084 0.042657237 -0.04284395 0.03310147 0.12218089 0.014417576 0.043392368 -0.07308356
0.26766664 -0.029554607 -0.038404346 -0.028365334 -0.073094696 0.1911105 -0.21563856 0.095819384
0.14720625 0.028174283 -0.09049728 0.1396916 -0.1753311 0.08844588 0.12092653 -0.1267238
0.16458516 0.123881884 0.021861665 -0.30867162 0.22051671 -0.14626521 -0.078914165 -0.13714658
-0.048771583 0.15813711 0.040865198 0.27862793 0.088581935 -0.0056776516 0.22977553 0.024028795
0.07829684 0.19436409 -0.14671437 0.52711713 -0.14205562 -0.12775563 0.13875245 -0.29382756
-0.15594585 -0.027313635 -0.18338591 -0.11661379 -0.02982163 0.081024945 0.36944002 -0.069027975
-0.10103764 -0.17352413 0.0970656 -0.2631507 -0.14831221 -0.05759124 -0.04695671 0.041544855
-0.092763305 0.18204232 0.24877805 -0.06684648 0.2613743 0.050150335 0.04968397 -0.04900504
0.16500334 0.18135785 0.2353439 0.39132786 -0.04609038 0.0069939625 0.04909855 0.2242181
-0.13344976 -0.15597993 0.12168865 -0.16319165 0.12274747 0.028255373 -0.25449327 0.19416764
-0.13840951 -0.10576206 -0.017716767 -0.0602873 0.22031748 -0.089666 -0.0033300475 -0.16101772
0.6420909 0.32967946 -0.27401167 0.11204485 -0.020097533 -0.039880924 -0.44291723 -0.02947545
-0.08554528 -0.02374317 0.13463065 -0.05562893 0.5522682 -0.5763274 0.09588178 0.31452605
0.29173523 0.029222302 0.014658673 -0.2943913 -0.27274945 -0.08189411 0.07769255 -0.027613224
-0.09033407 0.31768394 -0.055386398 0.25908637 0.17138985 -0.08206036 0.28351888 0.24556252
0.31808937 0.017669661 0.09710158 0.04453665 -0.13073502 -0.05375592 -0.13986976 0.12572867
-0.19237359 -0.04298266 0.046333414 0.05589933 0.09959685 -0.1619903 0.08833258 0.047315914
-0.14606914 -0.058651883 -0.042370778 -0.22477762 0.25492242 0.017532611 -0.21165398 0.016220175
-0.13099384 -0.17037383 0.12539692 0.30621168 -0.2103905 0.008472155 -0.002612188 0.21614175
0.007708734 -0.12905341 0.092642084 -0.2843474 -0.07919689 0.06427789 -0.23091026 -0.024177488
0.008618908 -0.17243417 0.07779987 -0.3905163 0.28692672 0.18036051 -0.13418508 0.3292543
0.2613297 -0.018984068 0.08165527 0.11538797 0.09971548 -0.08426659 -0.36373013 0.18092185

head_mode.bias f4 [2]
00000000: 223a 24be 3330 3a3e
-0.16037801 0.18182449
